{
  "layers" : [
    {
      "pad_r" : 1,
      "fused_relu" : 0,
      "fused_tanh" : 0,
      "debug_info" : "input.1",
      "pad_fill_mode" : 0,
      "pad_b" : 1,
      "pad_l" : 1,
      "top" : "input.1",
      "K" : 3,
      "blob_biases" : 1,
      "stride_x" : 2,
      "name" : "input.1",
      "has_batch_norm" : 0,
      "type" : "convolution",
      "n_groups" : 1,
      "pad_t" : 1,
      "stride_y" : 2,
      "has_biases" : 1,
      "C" : 16,
      "bottom" : "image",
      "weights" : {
        "W_U8" : 3,
        "lut_to_float32" : 5
      },
      "Nx" : 3,
      "pad_mode" : 0,
      "pad_value" : 0,
      "Ny" : 3,
      "n_parallel" : 1
    },
    {
      "bottom" : "input.1",
      "weights" : {

      },
      "mode" : 3,
      "debug_info" : "input.3__silu_sigmoid__",
      "top" : "input.3__silu_sigmoid__",
      "type" : "activation",
      "name" : "input.3__silu_sigmoid__"
    },
    {
      "bottom" : "input.1,input.3__silu_sigmoid__",
      "alpha" : 1,
      "operation" : 1,
      "weights" : {

      },
      "fused_relu" : 0,
      "debug_info" : "input.3",
      "top" : "input.3",
      "type" : "elementwise",
      "name" : "input.3",
      "beta" : 0
    },
    {
      "pad_r" : 1,
      "fused_relu" : 0,
      "fused_tanh" : 0,
      "debug_info" : "input.5",
      "pad_fill_mode" : 0,
      "pad_b" : 1,
      "pad_l" : 1,
      "top" : "input.5",
      "K" : 16,
      "blob_biases" : 7,
      "stride_x" : 2,
      "name" : "input.5",
      "has_batch_norm" : 0,
      "type" : "convolution",
      "n_groups" : 1,
      "pad_t" : 1,
      "stride_y" : 2,
      "has_biases" : 1,
      "C" : 24,
      "bottom" : "input.3",
      "weights" : {
        "W_U8" : 9,
        "lut_to_float32" : 11
      },
      "Nx" : 3,
      "pad_mode" : 0,
      "pad_value" : 0,
      "Ny" : 3,
      "n_parallel" : 1
    },
    {
      "bottom" : "input.5",
      "weights" : {

      },
      "mode" : 3,
      "debug_info" : "input.7__silu_sigmoid__",
      "top" : "input.7__silu_sigmoid__",
      "type" : "activation",
      "name" : "input.7__silu_sigmoid__"
    },
    {
      "bottom" : "input.5,input.7__silu_sigmoid__",
      "alpha" : 1,
      "operation" : 1,
      "weights" : {

      },
      "fused_relu" : 0,
      "debug_info" : "input.7",
      "top" : "input.7",
      "type" : "elementwise",
      "name" : "input.7",
      "beta" : 0
    },
    {
      "pad_r" : 0,
      "fused_relu" : 0,
      "fused_tanh" : 0,
      "debug_info" : "input.9",
      "pad_fill_mode" : 0,
      "pad_b" : 0,
      "pad_l" : 0,
      "top" : "input.9",
      "K" : 24,
      "blob_biases" : 13,
      "name" : "input.9",
      "has_batch_norm" : 0,
      "type" : "convolution",
      "n_groups" : 1,
      "pad_t" : 0,
      "has_biases" : 1,
      "C" : 24,
      "bottom" : "input.7",
      "weights" : {
        "W_U8" : 15,
        "lut_to_float32" : 17
      },
      "Nx" : 1,
      "pad_mode" : 0,
      "pad_value" : 0,
      "Ny" : 1,
      "n_parallel" : 1
    },
    {
      "bottom" : "input.9",
      "weights" : {

      },
      "mode" : 3,
      "debug_info" : "81__silu_sigmoid__",
      "top" : "81__silu_sigmoid__",
      "type" : "activation",
      "name" : "81__silu_sigmoid__"
    },
    {
      "bottom" : "input.9,81__silu_sigmoid__",
      "alpha" : 1,
      "operation" : 1,
      "weights" : {

      },
      "fused_relu" : 0,
      "debug_info" : "81",
      "top" : "81",
      "type" : "elementwise",
      "name" : "81",
      "beta" : 0
    },
    {
      "begin_104" : 0,
      "begin_63" : 0,
      "begin_59" : 0,
      "begin_64" : 0,
      "begin_105" : 0,
      "begin_65" : 0,
      "begin_0" : 0,
      "begin_70" : 0,
      "begin_66" : 0,
      "begin_106" : 0,
      "begin_110" : 0,
      "begin_2" : 0,
      "begin_71" : 0,
      "begin_67" : 0,
      "begin_68" : 0,
      "begin_107" : 0,
      "begin_111" : 0,
      "begin_4" : 0,
      "begin_72" : 0,
      "begin_73" : 0,
      "begin_69" : 0,
      "begin_6" : 0,
      "begin_74" : 0,
      "begin_108" : 0,
      "type" : "split_nd",
      "begin_8" : 0,
      "begin_112" : 0,
      "begin_75" : 0,
      "begin_10" : 0,
      "begin_80" : 0,
      "begin_76" : 0,
      "begin_109" : 0,
      "begin_113" : 0,
      "begin_11" : 0,
      "nd_axis" : 1,
      "begin_81" : 0,
      "begin_77" : 0,
      "begin_114" : 0,
      "begin_12" : 0,
      "begin_78" : 0,
      "begin_82" : 0,
      "begin_13" : 0,
      "begin_83" : 0,
      "begin_79" : 0,
      "begin_115" : 0,
      "begin_14" : 0,
      "begin_84" : 0,
      "begin_15" : 0,
      "begin_85" : 0,
      "begin_116" : 0,
      "begin_120" : 0,
      "begin_20" : 0,
      "begin_86" : 0,
      "begin_16" : 0,
      "begin_90" : 0,
      "begin_21" : 0,
      "begin_91" : 0,
      "begin_87" : 0,
      "begin_17" : 0,
      "begin_117" : 0,
      "begin_121" : 0,
      "begin_18" : 0,
      "begin_92" : 0,
      "begin_88" : 0,
      "begin_22" : 0,
      "begin_23" : 0,
      "begin_89" : 0,
      "begin_19" : 0,
      "begin_93" : 0,
      "begin_118" : 0,
      "begin_122" : 0,
      "begin_24" : 0,
      "begin_94" : 0,
      "begin_25" : 0,
      "begin_95" : 0,
      "begin_119" : 0,
      "begin_123" : 0,
      "begin_30" : 0,
      "begin_26" : 0,
      "begin_96" : 0,
      "begin_124" : 0,
      "begin_31" : 0,
      "begin_97" : 0,
      "begin_27" : 0,
      "begin_28" : 0,
      "begin_98" : 0,
      "begin_32" : 0,
      "begin_125" : 0,
      "begin_33" : 0,
      "begin_29" : 0,
      "begin_99" : 0,
      "begin_1" : 0,
      "weights" : {

      },
      "begin_34" : 0,
      "bottom" : "81",
      "begin_3" : 0,
      "begin_126" : 0,
      "begin_35" : 0,
      "begin_5" : 0,
      "begin_36" : 0,
      "begin_40" : 0,
      "begin_127" : 0,
      "name" : "83",
      "begin_41" : 0,
      "begin_37" : 0,
      "begin_7" : 0,
      "begin_42" : 0,
      "begin_38" : 0,
      "begin_9" : 0,
      "begin_39" : 0,
      "begin_43" : 0,
      "begin_44" : 0,
      "begin_45" : 0,
      "begin_50" : 0,
      "begin_46" : 0,
      "begin_51" : 0,
      "begin_47" : 0,
      "begin_100" : 0,
      "begin_52" : 0,
      "debug_info" : "83",
      "begin_48" : 0,
      "top" : "83_0,83_1",
      "begin_101" : 0,
      "begin_53" : 0,
      "begin_49" : 0,
      "begin_54" : 0,
      "begin_55" : 0,
      "begin_102" : 0,
      "begin_60" : 0,
      "begin_56" : 0,
      "begin_103" : 0,
      "begin_57" : 0,
      "begin_61" : 0,
      "begin_62" : 0,
      "begin_58" : 0
    },
    {
      "pad_r" : 1,
      "fused_relu" : 0,
      "fused_tanh" : 0,
      "debug_info" : "input.13",
      "pad_fill_mode" : 0,
      "pad_b" : 1,
      "pad_l" : 1,
      "top" : "input.13",
      "K" : 12,
      "blob_biases" : 19,
      "name" : "input.13",
      "has_batch_norm" : 0,
      "type" : "convolution",
      "n_groups" : 1,
      "pad_t" : 1,
      "has_biases" : 1,
      "C" : 12,
      "bottom" : "83_1",
      "weights" : {
        "W_U8" : 21,
        "lut_to_float32" : 23
      },
      "Nx" : 3,
      "pad_mode" : 0,
      "pad_value" : 0,
      "Ny" : 3,
      "n_parallel" : 1
    },
    {
      "bottom" : "input.13",
      "weights" : {

      },
      "mode" : 3,
      "debug_info" : "input.15__silu_sigmoid__",
      "top" : "input.15__silu_sigmoid__",
      "type" : "activation",
      "name" : "input.15__silu_sigmoid__"
    },
    {
      "bottom" : "input.13,input.15__silu_sigmoid__",
      "alpha" : 1,
      "operation" : 1,
      "weights" : {

      },
      "fused_relu" : 0,
      "debug_info" : "input.15",
      "top" : "input.15",
      "type" : "elementwise",
      "name" : "input.15",
      "beta" : 0
    },
    {
      "pad_r" : 1,
      "fused_relu" : 0,
      "fused_tanh" : 0,
      "debug_info" : "input.17",
      "pad_fill_mode" : 0,
      "pad_b" : 1,
      "pad_l" : 1,
      "top" : "input.17",
      "K" : 12,
      "blob_biases" : 25,
      "name" : "input.17",
      "has_batch_norm" : 0,
      "type" : "convolution",
      "n_groups" : 1,
      "pad_t" : 1,
      "has_biases" : 1,
      "C" : 12,
      "bottom" : "input.15",
      "weights" : {
        "W_U8" : 27,
        "lut_to_float32" : 29
      },
      "Nx" : 3,
      "pad_mode" : 0,
      "pad_value" : 0,
      "Ny" : 3,
      "n_parallel" : 1
    },
    {
      "bottom" : "input.17",
      "weights" : {

      },
      "mode" : 3,
      "debug_info" : "105__silu_sigmoid__",
      "top" : "105__silu_sigmoid__",
      "type" : "activation",
      "name" : "105__silu_sigmoid__"
    },
    {
      "bottom" : "input.17,105__silu_sigmoid__",
      "alpha" : 1,
      "operation" : 1,
      "weights" : {

      },
      "fused_relu" : 0,
      "debug_info" : "105",
      "top" : "105",
      "type" : "elementwise",
      "name" : "105",
      "beta" : 0
    },
    {
      "bottom" : "83_1,105",
      "alpha" : 1,
      "operation" : 0,
      "weights" : {

      },
      "fused_relu" : 0,
      "debug_info" : "106",
      "top" : "106",
      "type" : "elementwise",
      "name" : "106",
      "beta" : 0
    },
    {
      "weights" : {

      },
      "debug_info" : "input.19",
      "top" : "input.19",
      "type" : "concat",
      "name" : "input.19",
      "bottom" : "83_0,83_1,106"
    },
    {
      "pad_r" : 0,
      "fused_relu" : 0,
      "fused_tanh" : 0,
      "debug_info" : "input.21",
      "pad_fill_mode" : 0,
      "pad_b" : 0,
      "pad_l" : 0,
      "top" : "input.21",
      "K" : 36,
      "blob_biases" : 31,
      "name" : "input.21",
      "has_batch_norm" : 0,
      "type" : "convolution",
      "n_groups" : 1,
      "pad_t" : 0,
      "has_biases" : 1,
      "C" : 24,
      "bottom" : "input.19",
      "weights" : {
        "W_U8" : 33,
        "lut_to_float32" : 35
      },
      "Nx" : 1,
      "pad_mode" : 0,
      "pad_value" : 0,
      "Ny" : 1,
      "n_parallel" : 1
    },
    {
      "bottom" : "input.21",
      "weights" : {

      },
      "mode" : 3,
      "debug_info" : "input.23__silu_sigmoid__",
      "top" : "input.23__silu_sigmoid__",
      "type" : "activation",
      "name" : "input.23__silu_sigmoid__"
    },
    {
      "bottom" : "input.21,input.23__silu_sigmoid__",
      "alpha" : 1,
      "operation" : 1,
      "weights" : {

      },
      "fused_relu" : 0,
      "debug_info" : "input.23",
      "top" : "input.23",
      "type" : "elementwise",
      "name" : "input.23",
      "beta" : 0
    },
    {
      "pad_r" : 1,
      "fused_relu" : 0,
      "fused_tanh" : 0,
      "debug_info" : "input.25",
      "pad_fill_mode" : 0,
      "pad_b" : 1,
      "pad_l" : 1,
      "top" : "input.25",
      "K" : 24,
      "blob_biases" : 37,
      "stride_x" : 2,
      "name" : "input.25",
      "has_batch_norm" : 0,
      "type" : "convolution",
      "n_groups" : 1,
      "pad_t" : 1,
      "stride_y" : 2,
      "has_biases" : 1,
      "C" : 40,
      "bottom" : "input.23",
      "weights" : {
        "W_U8" : 39,
        "lut_to_float32" : 41
      },
      "Nx" : 3,
      "pad_mode" : 0,
      "pad_value" : 0,
      "Ny" : 3,
      "n_parallel" : 1
    },
    {
      "bottom" : "input.25",
      "weights" : {

      },
      "mode" : 3,
      "debug_info" : "input.27__silu_sigmoid__",
      "top" : "input.27__silu_sigmoid__",
      "type" : "activation",
      "name" : "input.27__silu_sigmoid__"
    },
    {
      "bottom" : "input.25,input.27__silu_sigmoid__",
      "alpha" : 1,
      "operation" : 1,
      "weights" : {

      },
      "fused_relu" : 0,
      "debug_info" : "input.27",
      "top" : "input.27",
      "type" : "elementwise",
      "name" : "input.27",
      "beta" : 0
    },
    {
      "pad_r" : 0,
      "fused_relu" : 0,
      "fused_tanh" : 0,
      "debug_info" : "input.29",
      "pad_fill_mode" : 0,
      "pad_b" : 0,
      "pad_l" : 0,
      "top" : "input.29",
      "K" : 40,
      "blob_biases" : 43,
      "name" : "input.29",
      "has_batch_norm" : 0,
      "type" : "convolution",
      "n_groups" : 1,
      "pad_t" : 0,
      "has_biases" : 1,
      "C" : 40,
      "bottom" : "input.27",
      "weights" : {
        "W_U8" : 45,
        "lut_to_float32" : 47
      },
      "Nx" : 1,
      "pad_mode" : 0,
      "pad_value" : 0,
      "Ny" : 1,
      "n_parallel" : 1
    },
    {
      "bottom" : "input.29",
      "weights" : {

      },
      "mode" : 3,
      "debug_info" : "149__silu_sigmoid__",
      "top" : "149__silu_sigmoid__",
      "type" : "activation",
      "name" : "149__silu_sigmoid__"
    },
    {
      "bottom" : "input.29,149__silu_sigmoid__",
      "alpha" : 1,
      "operation" : 1,
      "weights" : {

      },
      "fused_relu" : 0,
      "debug_info" : "149",
      "top" : "149",
      "type" : "elementwise",
      "name" : "149",
      "beta" : 0
    },
    {
      "begin_104" : 0,
      "begin_63" : 0,
      "begin_59" : 0,
      "begin_64" : 0,
      "begin_105" : 0,
      "begin_65" : 0,
      "begin_0" : 0,
      "begin_70" : 0,
      "begin_66" : 0,
      "begin_106" : 0,
      "begin_110" : 0,
      "begin_2" : 0,
      "begin_71" : 0,
      "begin_67" : 0,
      "begin_68" : 0,
      "begin_107" : 0,
      "begin_111" : 0,
      "begin_4" : 0,
      "begin_72" : 0,
      "begin_73" : 0,
      "begin_69" : 0,
      "begin_6" : 0,
      "begin_74" : 0,
      "begin_108" : 0,
      "type" : "split_nd",
      "begin_8" : 0,
      "begin_112" : 0,
      "begin_75" : 0,
      "begin_10" : 0,
      "begin_80" : 0,
      "begin_76" : 0,
      "begin_109" : 0,
      "begin_113" : 0,
      "begin_11" : 0,
      "nd_axis" : 1,
      "begin_81" : 0,
      "begin_77" : 0,
      "begin_114" : 0,
      "begin_12" : 0,
      "begin_78" : 0,
      "begin_82" : 0,
      "begin_13" : 0,
      "begin_83" : 0,
      "begin_79" : 0,
      "begin_115" : 0,
      "begin_14" : 0,
      "begin_84" : 0,
      "begin_15" : 0,
      "begin_85" : 0,
      "begin_116" : 0,
      "begin_120" : 0,
      "begin_20" : 0,
      "begin_86" : 0,
      "begin_16" : 0,
      "begin_90" : 0,
      "begin_21" : 0,
      "begin_91" : 0,
      "begin_87" : 0,
      "begin_17" : 0,
      "begin_117" : 0,
      "begin_121" : 0,
      "begin_18" : 0,
      "begin_92" : 0,
      "begin_88" : 0,
      "begin_22" : 0,
      "begin_23" : 0,
      "begin_89" : 0,
      "begin_19" : 0,
      "begin_93" : 0,
      "begin_118" : 0,
      "begin_122" : 0,
      "begin_24" : 0,
      "begin_94" : 0,
      "begin_25" : 0,
      "begin_95" : 0,
      "begin_119" : 0,
      "begin_123" : 0,
      "begin_30" : 0,
      "begin_26" : 0,
      "begin_96" : 0,
      "begin_124" : 0,
      "begin_31" : 0,
      "begin_97" : 0,
      "begin_27" : 0,
      "begin_28" : 0,
      "begin_98" : 0,
      "begin_32" : 0,
      "begin_125" : 0,
      "begin_33" : 0,
      "begin_29" : 0,
      "begin_99" : 0,
      "begin_1" : 0,
      "weights" : {

      },
      "begin_34" : 0,
      "bottom" : "149",
      "begin_3" : 0,
      "begin_126" : 0,
      "begin_35" : 0,
      "begin_5" : 0,
      "begin_36" : 0,
      "begin_40" : 0,
      "begin_127" : 0,
      "name" : "151",
      "begin_41" : 0,
      "begin_37" : 0,
      "begin_7" : 0,
      "begin_42" : 0,
      "begin_38" : 0,
      "begin_9" : 0,
      "begin_39" : 0,
      "begin_43" : 0,
      "begin_44" : 0,
      "begin_45" : 0,
      "begin_50" : 0,
      "begin_46" : 0,
      "begin_51" : 0,
      "begin_47" : 0,
      "begin_100" : 0,
      "begin_52" : 0,
      "debug_info" : "151",
      "begin_48" : 0,
      "top" : "151_0,151_1",
      "begin_101" : 0,
      "begin_53" : 0,
      "begin_49" : 0,
      "begin_54" : 0,
      "begin_55" : 0,
      "begin_102" : 0,
      "begin_60" : 0,
      "begin_56" : 0,
      "begin_103" : 0,
      "begin_57" : 0,
      "begin_61" : 0,
      "begin_62" : 0,
      "begin_58" : 0
    },
    {
      "pad_r" : 1,
      "fused_relu" : 0,
      "fused_tanh" : 0,
      "debug_info" : "input.33",
      "pad_fill_mode" : 0,
      "pad_b" : 1,
      "pad_l" : 1,
      "top" : "input.33",
      "K" : 20,
      "blob_biases" : 49,
      "name" : "input.33",
      "has_batch_norm" : 0,
      "type" : "convolution",
      "n_groups" : 1,
      "pad_t" : 1,
      "has_biases" : 1,
      "C" : 20,
      "bottom" : "151_1",
      "weights" : {
        "W_U8" : 51,
        "lut_to_float32" : 53
      },
      "Nx" : 3,
      "pad_mode" : 0,
      "pad_value" : 0,
      "Ny" : 3,
      "n_parallel" : 1
    },
    {
      "bottom" : "input.33",
      "weights" : {

      },
      "mode" : 3,
      "debug_info" : "input.35__silu_sigmoid__",
      "top" : "input.35__silu_sigmoid__",
      "type" : "activation",
      "name" : "input.35__silu_sigmoid__"
    },
    {
      "bottom" : "input.33,input.35__silu_sigmoid__",
      "alpha" : 1,
      "operation" : 1,
      "weights" : {

      },
      "fused_relu" : 0,
      "debug_info" : "input.35",
      "top" : "input.35",
      "type" : "elementwise",
      "name" : "input.35",
      "beta" : 0
    },
    {
      "pad_r" : 1,
      "fused_relu" : 0,
      "fused_tanh" : 0,
      "debug_info" : "input.37",
      "pad_fill_mode" : 0,
      "pad_b" : 1,
      "pad_l" : 1,
      "top" : "input.37",
      "K" : 20,
      "blob_biases" : 55,
      "name" : "input.37",
      "has_batch_norm" : 0,
      "type" : "convolution",
      "n_groups" : 1,
      "pad_t" : 1,
      "has_biases" : 1,
      "C" : 20,
      "bottom" : "input.35",
      "weights" : {
        "W_U8" : 57,
        "lut_to_float32" : 59
      },
      "Nx" : 3,
      "pad_mode" : 0,
      "pad_value" : 0,
      "Ny" : 3,
      "n_parallel" : 1
    },
    {
      "bottom" : "input.37",
      "weights" : {

      },
      "mode" : 3,
      "debug_info" : "173__silu_sigmoid__",
      "top" : "173__silu_sigmoid__",
      "type" : "activation",
      "name" : "173__silu_sigmoid__"
    },
    {
      "bottom" : "input.37,173__silu_sigmoid__",
      "alpha" : 1,
      "operation" : 1,
      "weights" : {

      },
      "fused_relu" : 0,
      "debug_info" : "173",
      "top" : "173",
      "type" : "elementwise",
      "name" : "173",
      "beta" : 0
    },
    {
      "bottom" : "151_1,173",
      "alpha" : 1,
      "operation" : 0,
      "weights" : {

      },
      "fused_relu" : 0,
      "debug_info" : "174",
      "top" : "174",
      "type" : "elementwise",
      "name" : "174",
      "beta" : 0
    },
    {
      "weights" : {

      },
      "debug_info" : "input.39",
      "top" : "input.39",
      "type" : "concat",
      "name" : "input.39",
      "bottom" : "151_0,151_1,174"
    },
    {
      "pad_r" : 0,
      "fused_relu" : 0,
      "fused_tanh" : 0,
      "debug_info" : "input.41",
      "pad_fill_mode" : 0,
      "pad_b" : 0,
      "pad_l" : 0,
      "top" : "input.41",
      "K" : 60,
      "blob_biases" : 61,
      "name" : "input.41",
      "has_batch_norm" : 0,
      "type" : "convolution",
      "n_groups" : 1,
      "pad_t" : 0,
      "has_biases" : 1,
      "C" : 40,
      "bottom" : "input.39",
      "weights" : {
        "W_U8" : 63,
        "lut_to_float32" : 65
      },
      "Nx" : 1,
      "pad_mode" : 0,
      "pad_value" : 0,
      "Ny" : 1,
      "n_parallel" : 1
    },
    {
      "bottom" : "input.41",
      "weights" : {

      },
      "mode" : 3,
      "debug_info" : "input.43__silu_sigmoid__",
      "top" : "input.43__silu_sigmoid__",
      "type" : "activation",
      "name" : "input.43__silu_sigmoid__"
    },
    {
      "bottom" : "input.41,input.43__silu_sigmoid__",
      "alpha" : 1,
      "operation" : 1,
      "weights" : {

      },
      "fused_relu" : 0,
      "debug_info" : "input.43",
      "top" : "input.43",
      "type" : "elementwise",
      "name" : "input.43",
      "beta" : 0
    },
    {
      "pad_r" : 1,
      "fused_relu" : 0,
      "fused_tanh" : 0,
      "debug_info" : "input.45",
      "pad_fill_mode" : 0,
      "pad_b" : 1,
      "pad_l" : 1,
      "top" : "input.45",
      "K" : 40,
      "blob_biases" : 67,
      "stride_x" : 2,
      "name" : "input.45",
      "has_batch_norm" : 0,
      "type" : "convolution",
      "n_groups" : 1,
      "pad_t" : 1,
      "stride_y" : 2,
      "has_biases" : 1,
      "C" : 80,
      "bottom" : "input.43",
      "weights" : {
        "W_U8" : 69,
        "lut_to_float32" : 71
      },
      "Nx" : 3,
      "pad_mode" : 0,
      "pad_value" : 0,
      "Ny" : 3,
      "n_parallel" : 1
    },
    {
      "bottom" : "input.45",
      "weights" : {

      },
      "mode" : 3,
      "debug_info" : "input.47__silu_sigmoid__",
      "top" : "input.47__silu_sigmoid__",
      "type" : "activation",
      "name" : "input.47__silu_sigmoid__"
    },
    {
      "bottom" : "input.45,input.47__silu_sigmoid__",
      "alpha" : 1,
      "operation" : 1,
      "weights" : {

      },
      "fused_relu" : 0,
      "debug_info" : "input.47",
      "top" : "input.47",
      "type" : "elementwise",
      "name" : "input.47",
      "beta" : 0
    },
    {
      "pad_r" : 0,
      "fused_relu" : 0,
      "fused_tanh" : 0,
      "debug_info" : "input.49",
      "pad_fill_mode" : 0,
      "pad_b" : 0,
      "pad_l" : 0,
      "top" : "input.49",
      "K" : 80,
      "blob_biases" : 73,
      "name" : "input.49",
      "has_batch_norm" : 0,
      "type" : "convolution",
      "n_groups" : 1,
      "pad_t" : 0,
      "has_biases" : 1,
      "C" : 80,
      "bottom" : "input.47",
      "weights" : {
        "W_U8" : 75,
        "lut_to_float32" : 77
      },
      "Nx" : 1,
      "pad_mode" : 0,
      "pad_value" : 0,
      "Ny" : 1,
      "n_parallel" : 1
    },
    {
      "bottom" : "input.49",
      "weights" : {

      },
      "mode" : 3,
      "debug_info" : "217__silu_sigmoid__",
      "top" : "217__silu_sigmoid__",
      "type" : "activation",
      "name" : "217__silu_sigmoid__"
    },
    {
      "bottom" : "input.49,217__silu_sigmoid__",
      "alpha" : 1,
      "operation" : 1,
      "weights" : {

      },
      "fused_relu" : 0,
      "debug_info" : "217",
      "top" : "217",
      "type" : "elementwise",
      "name" : "217",
      "beta" : 0
    },
    {
      "begin_104" : 0,
      "begin_63" : 0,
      "begin_59" : 0,
      "begin_64" : 0,
      "begin_105" : 0,
      "begin_65" : 0,
      "begin_0" : 0,
      "begin_70" : 0,
      "begin_66" : 0,
      "begin_106" : 0,
      "begin_110" : 0,
      "begin_2" : 0,
      "begin_71" : 0,
      "begin_67" : 0,
      "begin_68" : 0,
      "begin_107" : 0,
      "begin_111" : 0,
      "begin_4" : 0,
      "begin_72" : 0,
      "begin_73" : 0,
      "begin_69" : 0,
      "begin_6" : 0,
      "begin_74" : 0,
      "begin_108" : 0,
      "type" : "split_nd",
      "begin_8" : 0,
      "begin_112" : 0,
      "begin_75" : 0,
      "begin_10" : 0,
      "begin_80" : 0,
      "begin_76" : 0,
      "begin_109" : 0,
      "begin_113" : 0,
      "begin_11" : 0,
      "nd_axis" : 1,
      "begin_81" : 0,
      "begin_77" : 0,
      "begin_114" : 0,
      "begin_12" : 0,
      "begin_78" : 0,
      "begin_82" : 0,
      "begin_13" : 0,
      "begin_83" : 0,
      "begin_79" : 0,
      "begin_115" : 0,
      "begin_14" : 0,
      "begin_84" : 0,
      "begin_15" : 0,
      "begin_85" : 0,
      "begin_116" : 0,
      "begin_120" : 0,
      "begin_20" : 0,
      "begin_86" : 0,
      "begin_16" : 0,
      "begin_90" : 0,
      "begin_21" : 0,
      "begin_91" : 0,
      "begin_87" : 0,
      "begin_17" : 0,
      "begin_117" : 0,
      "begin_121" : 0,
      "begin_18" : 0,
      "begin_92" : 0,
      "begin_88" : 0,
      "begin_22" : 0,
      "begin_23" : 0,
      "begin_89" : 0,
      "begin_19" : 0,
      "begin_93" : 0,
      "begin_118" : 0,
      "begin_122" : 0,
      "begin_24" : 0,
      "begin_94" : 0,
      "begin_25" : 0,
      "begin_95" : 0,
      "begin_119" : 0,
      "begin_123" : 0,
      "begin_30" : 0,
      "begin_26" : 0,
      "begin_96" : 0,
      "begin_124" : 0,
      "begin_31" : 0,
      "begin_97" : 0,
      "begin_27" : 0,
      "begin_28" : 0,
      "begin_98" : 0,
      "begin_32" : 0,
      "begin_125" : 0,
      "begin_33" : 0,
      "begin_29" : 0,
      "begin_99" : 0,
      "begin_1" : 0,
      "weights" : {

      },
      "begin_34" : 0,
      "bottom" : "217",
      "begin_3" : 0,
      "begin_126" : 0,
      "begin_35" : 0,
      "begin_5" : 0,
      "begin_36" : 0,
      "begin_40" : 0,
      "begin_127" : 0,
      "name" : "219",
      "begin_41" : 0,
      "begin_37" : 0,
      "begin_7" : 0,
      "begin_42" : 0,
      "begin_38" : 0,
      "begin_9" : 0,
      "begin_39" : 0,
      "begin_43" : 0,
      "begin_44" : 0,
      "begin_45" : 0,
      "begin_50" : 0,
      "begin_46" : 0,
      "begin_51" : 0,
      "begin_47" : 0,
      "begin_100" : 0,
      "begin_52" : 0,
      "debug_info" : "219",
      "begin_48" : 0,
      "top" : "219_0,219_1",
      "begin_101" : 0,
      "begin_53" : 0,
      "begin_49" : 0,
      "begin_54" : 0,
      "begin_55" : 0,
      "begin_102" : 0,
      "begin_60" : 0,
      "begin_56" : 0,
      "begin_103" : 0,
      "begin_57" : 0,
      "begin_61" : 0,
      "begin_62" : 0,
      "begin_58" : 0
    },
    {
      "pad_r" : 1,
      "fused_relu" : 0,
      "fused_tanh" : 0,
      "debug_info" : "input.53",
      "pad_fill_mode" : 0,
      "pad_b" : 1,
      "pad_l" : 1,
      "top" : "input.53",
      "K" : 40,
      "blob_biases" : 79,
      "name" : "input.53",
      "has_batch_norm" : 0,
      "type" : "convolution",
      "n_groups" : 1,
      "pad_t" : 1,
      "has_biases" : 1,
      "C" : 40,
      "bottom" : "219_1",
      "weights" : {
        "W_U8" : 81,
        "lut_to_float32" : 83
      },
      "Nx" : 3,
      "pad_mode" : 0,
      "pad_value" : 0,
      "Ny" : 3,
      "n_parallel" : 1
    },
    {
      "bottom" : "input.53",
      "weights" : {

      },
      "mode" : 3,
      "debug_info" : "input.55__silu_sigmoid__",
      "top" : "input.55__silu_sigmoid__",
      "type" : "activation",
      "name" : "input.55__silu_sigmoid__"
    },
    {
      "bottom" : "input.53,input.55__silu_sigmoid__",
      "alpha" : 1,
      "operation" : 1,
      "weights" : {

      },
      "fused_relu" : 0,
      "debug_info" : "input.55",
      "top" : "input.55",
      "type" : "elementwise",
      "name" : "input.55",
      "beta" : 0
    },
    {
      "pad_r" : 1,
      "fused_relu" : 0,
      "fused_tanh" : 0,
      "debug_info" : "input.57",
      "pad_fill_mode" : 0,
      "pad_b" : 1,
      "pad_l" : 1,
      "top" : "input.57",
      "K" : 40,
      "blob_biases" : 85,
      "name" : "input.57",
      "has_batch_norm" : 0,
      "type" : "convolution",
      "n_groups" : 1,
      "pad_t" : 1,
      "has_biases" : 1,
      "C" : 40,
      "bottom" : "input.55",
      "weights" : {
        "W_U8" : 87,
        "lut_to_float32" : 89
      },
      "Nx" : 3,
      "pad_mode" : 0,
      "pad_value" : 0,
      "Ny" : 3,
      "n_parallel" : 1
    },
    {
      "bottom" : "input.57",
      "weights" : {

      },
      "mode" : 3,
      "debug_info" : "241__silu_sigmoid__",
      "top" : "241__silu_sigmoid__",
      "type" : "activation",
      "name" : "241__silu_sigmoid__"
    },
    {
      "bottom" : "input.57,241__silu_sigmoid__",
      "alpha" : 1,
      "operation" : 1,
      "weights" : {

      },
      "fused_relu" : 0,
      "debug_info" : "241",
      "top" : "241",
      "type" : "elementwise",
      "name" : "241",
      "beta" : 0
    },
    {
      "bottom" : "219_1,241",
      "alpha" : 1,
      "operation" : 0,
      "weights" : {

      },
      "fused_relu" : 0,
      "debug_info" : "242",
      "top" : "242",
      "type" : "elementwise",
      "name" : "242",
      "beta" : 0
    },
    {
      "weights" : {

      },
      "debug_info" : "input.59",
      "top" : "input.59",
      "type" : "concat",
      "name" : "input.59",
      "bottom" : "219_0,219_1,242"
    },
    {
      "pad_r" : 0,
      "fused_relu" : 0,
      "fused_tanh" : 0,
      "debug_info" : "input.61",
      "pad_fill_mode" : 0,
      "pad_b" : 0,
      "pad_l" : 0,
      "top" : "input.61",
      "K" : 120,
      "blob_biases" : 91,
      "name" : "input.61",
      "has_batch_norm" : 0,
      "type" : "convolution",
      "n_groups" : 1,
      "pad_t" : 0,
      "has_biases" : 1,
      "C" : 80,
      "bottom" : "input.59",
      "weights" : {
        "W_U8" : 93,
        "lut_to_float32" : 95
      },
      "Nx" : 1,
      "pad_mode" : 0,
      "pad_value" : 0,
      "Ny" : 1,
      "n_parallel" : 1
    },
    {
      "bottom" : "input.61",
      "weights" : {

      },
      "mode" : 3,
      "debug_info" : "input.63__silu_sigmoid__",
      "top" : "input.63__silu_sigmoid__",
      "type" : "activation",
      "name" : "input.63__silu_sigmoid__"
    },
    {
      "bottom" : "input.61,input.63__silu_sigmoid__",
      "alpha" : 1,
      "operation" : 1,
      "weights" : {

      },
      "fused_relu" : 0,
      "debug_info" : "input.63",
      "top" : "input.63",
      "type" : "elementwise",
      "name" : "input.63",
      "beta" : 0
    },
    {
      "pad_r" : 1,
      "fused_relu" : 0,
      "fused_tanh" : 0,
      "debug_info" : "input.65",
      "pad_fill_mode" : 0,
      "pad_b" : 1,
      "pad_l" : 1,
      "top" : "input.65",
      "K" : 80,
      "blob_biases" : 97,
      "stride_x" : 2,
      "name" : "input.65",
      "has_batch_norm" : 0,
      "type" : "convolution",
      "n_groups" : 1,
      "pad_t" : 1,
      "stride_y" : 2,
      "has_biases" : 1,
      "C" : 104,
      "bottom" : "input.63",
      "weights" : {
        "W_U8" : 99,
        "lut_to_float32" : 101
      },
      "Nx" : 3,
      "pad_mode" : 0,
      "pad_value" : 0,
      "Ny" : 3,
      "n_parallel" : 1
    },
    {
      "bottom" : "input.65",
      "weights" : {

      },
      "mode" : 3,
      "debug_info" : "input.67__silu_sigmoid__",
      "top" : "input.67__silu_sigmoid__",
      "type" : "activation",
      "name" : "input.67__silu_sigmoid__"
    },
    {
      "bottom" : "input.65,input.67__silu_sigmoid__",
      "alpha" : 1,
      "operation" : 1,
      "weights" : {

      },
      "fused_relu" : 0,
      "debug_info" : "input.67",
      "top" : "input.67",
      "type" : "elementwise",
      "name" : "input.67",
      "beta" : 0
    },
    {
      "pad_r" : 0,
      "fused_relu" : 0,
      "fused_tanh" : 0,
      "debug_info" : "input.69",
      "pad_fill_mode" : 0,
      "pad_b" : 0,
      "pad_l" : 0,
      "top" : "input.69",
      "K" : 104,
      "blob_biases" : 103,
      "name" : "input.69",
      "has_batch_norm" : 0,
      "type" : "convolution",
      "n_groups" : 1,
      "pad_t" : 0,
      "has_biases" : 1,
      "C" : 104,
      "bottom" : "input.67",
      "weights" : {
        "W_U8" : 105,
        "lut_to_float32" : 107
      },
      "Nx" : 1,
      "pad_mode" : 0,
      "pad_value" : 0,
      "Ny" : 1,
      "n_parallel" : 1
    },
    {
      "bottom" : "input.69",
      "weights" : {

      },
      "mode" : 3,
      "debug_info" : "285__silu_sigmoid__",
      "top" : "285__silu_sigmoid__",
      "type" : "activation",
      "name" : "285__silu_sigmoid__"
    },
    {
      "bottom" : "input.69,285__silu_sigmoid__",
      "alpha" : 1,
      "operation" : 1,
      "weights" : {

      },
      "fused_relu" : 0,
      "debug_info" : "285",
      "top" : "285",
      "type" : "elementwise",
      "name" : "285",
      "beta" : 0
    },
    {
      "begin_104" : 0,
      "begin_63" : 0,
      "begin_59" : 0,
      "begin_64" : 0,
      "begin_105" : 0,
      "begin_65" : 0,
      "begin_0" : 0,
      "begin_70" : 0,
      "begin_66" : 0,
      "begin_106" : 0,
      "begin_110" : 0,
      "begin_2" : 0,
      "begin_71" : 0,
      "begin_67" : 0,
      "begin_68" : 0,
      "begin_107" : 0,
      "begin_111" : 0,
      "begin_4" : 0,
      "begin_72" : 0,
      "begin_73" : 0,
      "begin_69" : 0,
      "begin_6" : 0,
      "begin_74" : 0,
      "begin_108" : 0,
      "type" : "split_nd",
      "begin_8" : 0,
      "begin_112" : 0,
      "begin_75" : 0,
      "begin_10" : 0,
      "begin_80" : 0,
      "begin_76" : 0,
      "begin_109" : 0,
      "begin_113" : 0,
      "begin_11" : 0,
      "nd_axis" : 1,
      "begin_81" : 0,
      "begin_77" : 0,
      "begin_114" : 0,
      "begin_12" : 0,
      "begin_78" : 0,
      "begin_82" : 0,
      "begin_13" : 0,
      "begin_83" : 0,
      "begin_79" : 0,
      "begin_115" : 0,
      "begin_14" : 0,
      "begin_84" : 0,
      "begin_15" : 0,
      "begin_85" : 0,
      "begin_116" : 0,
      "begin_120" : 0,
      "begin_20" : 0,
      "begin_86" : 0,
      "begin_16" : 0,
      "begin_90" : 0,
      "begin_21" : 0,
      "begin_91" : 0,
      "begin_87" : 0,
      "begin_17" : 0,
      "begin_117" : 0,
      "begin_121" : 0,
      "begin_18" : 0,
      "begin_92" : 0,
      "begin_88" : 0,
      "begin_22" : 0,
      "begin_23" : 0,
      "begin_89" : 0,
      "begin_19" : 0,
      "begin_93" : 0,
      "begin_118" : 0,
      "begin_122" : 0,
      "begin_24" : 0,
      "begin_94" : 0,
      "begin_25" : 0,
      "begin_95" : 0,
      "begin_119" : 0,
      "begin_123" : 0,
      "begin_30" : 0,
      "begin_26" : 0,
      "begin_96" : 0,
      "begin_124" : 0,
      "begin_31" : 0,
      "begin_97" : 0,
      "begin_27" : 0,
      "begin_28" : 0,
      "begin_98" : 0,
      "begin_32" : 0,
      "begin_125" : 0,
      "begin_33" : 0,
      "begin_29" : 0,
      "begin_99" : 0,
      "begin_1" : 0,
      "weights" : {

      },
      "begin_34" : 0,
      "bottom" : "285",
      "begin_3" : 0,
      "begin_126" : 0,
      "begin_35" : 0,
      "begin_5" : 0,
      "begin_36" : 0,
      "begin_40" : 0,
      "begin_127" : 0,
      "name" : "287",
      "begin_41" : 0,
      "begin_37" : 0,
      "begin_7" : 0,
      "begin_42" : 0,
      "begin_38" : 0,
      "begin_9" : 0,
      "begin_39" : 0,
      "begin_43" : 0,
      "begin_44" : 0,
      "begin_45" : 0,
      "begin_50" : 0,
      "begin_46" : 0,
      "begin_51" : 0,
      "begin_47" : 0,
      "begin_100" : 0,
      "begin_52" : 0,
      "debug_info" : "287",
      "begin_48" : 0,
      "top" : "287_0,287_1",
      "begin_101" : 0,
      "begin_53" : 0,
      "begin_49" : 0,
      "begin_54" : 0,
      "begin_55" : 0,
      "begin_102" : 0,
      "begin_60" : 0,
      "begin_56" : 0,
      "begin_103" : 0,
      "begin_57" : 0,
      "begin_61" : 0,
      "begin_62" : 0,
      "begin_58" : 0
    },
    {
      "pad_r" : 1,
      "fused_relu" : 0,
      "fused_tanh" : 0,
      "debug_info" : "input.73",
      "pad_fill_mode" : 0,
      "pad_b" : 1,
      "pad_l" : 1,
      "top" : "input.73",
      "K" : 52,
      "blob_biases" : 109,
      "name" : "input.73",
      "has_batch_norm" : 0,
      "type" : "convolution",
      "n_groups" : 1,
      "pad_t" : 1,
      "has_biases" : 1,
      "C" : 52,
      "bottom" : "287_1",
      "weights" : {
        "W_U8" : 111,
        "lut_to_float32" : 113
      },
      "Nx" : 3,
      "pad_mode" : 0,
      "pad_value" : 0,
      "Ny" : 3,
      "n_parallel" : 1
    },
    {
      "bottom" : "input.73",
      "weights" : {

      },
      "mode" : 3,
      "debug_info" : "input.75__silu_sigmoid__",
      "top" : "input.75__silu_sigmoid__",
      "type" : "activation",
      "name" : "input.75__silu_sigmoid__"
    },
    {
      "bottom" : "input.73,input.75__silu_sigmoid__",
      "alpha" : 1,
      "operation" : 1,
      "weights" : {

      },
      "fused_relu" : 0,
      "debug_info" : "input.75",
      "top" : "input.75",
      "type" : "elementwise",
      "name" : "input.75",
      "beta" : 0
    },
    {
      "pad_r" : 1,
      "fused_relu" : 0,
      "fused_tanh" : 0,
      "debug_info" : "input.77",
      "pad_fill_mode" : 0,
      "pad_b" : 1,
      "pad_l" : 1,
      "top" : "input.77",
      "K" : 52,
      "blob_biases" : 115,
      "name" : "input.77",
      "has_batch_norm" : 0,
      "type" : "convolution",
      "n_groups" : 1,
      "pad_t" : 1,
      "has_biases" : 1,
      "C" : 52,
      "bottom" : "input.75",
      "weights" : {
        "W_U8" : 117,
        "lut_to_float32" : 119
      },
      "Nx" : 3,
      "pad_mode" : 0,
      "pad_value" : 0,
      "Ny" : 3,
      "n_parallel" : 1
    },
    {
      "bottom" : "input.77",
      "weights" : {

      },
      "mode" : 3,
      "debug_info" : "309__silu_sigmoid__",
      "top" : "309__silu_sigmoid__",
      "type" : "activation",
      "name" : "309__silu_sigmoid__"
    },
    {
      "bottom" : "input.77,309__silu_sigmoid__",
      "alpha" : 1,
      "operation" : 1,
      "weights" : {

      },
      "fused_relu" : 0,
      "debug_info" : "309",
      "top" : "309",
      "type" : "elementwise",
      "name" : "309",
      "beta" : 0
    },
    {
      "bottom" : "287_1,309",
      "alpha" : 1,
      "operation" : 0,
      "weights" : {

      },
      "fused_relu" : 0,
      "debug_info" : "310",
      "top" : "310",
      "type" : "elementwise",
      "name" : "310",
      "beta" : 0
    },
    {
      "weights" : {

      },
      "debug_info" : "input.79",
      "top" : "input.79",
      "type" : "concat",
      "name" : "input.79",
      "bottom" : "287_0,287_1,310"
    },
    {
      "pad_r" : 0,
      "fused_relu" : 0,
      "fused_tanh" : 0,
      "debug_info" : "input.81",
      "pad_fill_mode" : 0,
      "pad_b" : 0,
      "pad_l" : 0,
      "top" : "input.81",
      "K" : 156,
      "blob_biases" : 121,
      "name" : "input.81",
      "has_batch_norm" : 0,
      "type" : "convolution",
      "n_groups" : 1,
      "pad_t" : 0,
      "has_biases" : 1,
      "C" : 104,
      "bottom" : "input.79",
      "weights" : {
        "W_U8" : 123,
        "lut_to_float32" : 125
      },
      "Nx" : 1,
      "pad_mode" : 0,
      "pad_value" : 0,
      "Ny" : 1,
      "n_parallel" : 1
    },
    {
      "bottom" : "input.81",
      "weights" : {

      },
      "mode" : 3,
      "debug_info" : "input.83__silu_sigmoid__",
      "top" : "input.83__silu_sigmoid__",
      "type" : "activation",
      "name" : "input.83__silu_sigmoid__"
    },
    {
      "bottom" : "input.81,input.83__silu_sigmoid__",
      "alpha" : 1,
      "operation" : 1,
      "weights" : {

      },
      "fused_relu" : 0,
      "debug_info" : "input.83",
      "top" : "input.83",
      "type" : "elementwise",
      "name" : "input.83",
      "beta" : 0
    },
    {
      "pad_r" : 0,
      "fused_relu" : 0,
      "fused_tanh" : 0,
      "debug_info" : "input.85",
      "pad_fill_mode" : 0,
      "pad_b" : 0,
      "pad_l" : 0,
      "top" : "input.85",
      "K" : 104,
      "blob_biases" : 127,
      "name" : "input.85",
      "has_batch_norm" : 0,
      "type" : "convolution",
      "n_groups" : 1,
      "pad_t" : 0,
      "has_biases" : 1,
      "C" : 52,
      "bottom" : "input.83",
      "weights" : {
        "W_U8" : 129,
        "lut_to_float32" : 131
      },
      "Nx" : 1,
      "pad_mode" : 0,
      "pad_value" : 0,
      "Ny" : 1,
      "n_parallel" : 1
    },
    {
      "bottom" : "input.85",
      "weights" : {

      },
      "mode" : 3,
      "debug_info" : "input.87__silu_sigmoid__",
      "top" : "input.87__silu_sigmoid__",
      "type" : "activation",
      "name" : "input.87__silu_sigmoid__"
    },
    {
      "bottom" : "input.85,input.87__silu_sigmoid__",
      "alpha" : 1,
      "operation" : 1,
      "weights" : {

      },
      "fused_relu" : 0,
      "debug_info" : "input.87",
      "top" : "input.87",
      "type" : "elementwise",
      "name" : "input.87",
      "beta" : 0
    },
    {
      "pad_r" : 2,
      "debug_info" : "input.89",
      "pad_fill_mode" : 0,
      "pad_b" : 2,
      "pad_l" : 2,
      "size_x" : 5,
      "top" : "input.89",
      "top_shape_style" : 0,
      "stride_x" : 1,
      "avg_or_max" : 1,
      "average_count_exclude_padding" : 1,
      "type" : "pool",
      "name" : "input.89",
      "pad_t" : 2,
      "stride_y" : 1,
      "bottom" : "input.87",
      "weights" : {

      },
      "pad_mode" : 0,
      "size_y" : 5,
      "pad_value" : 0
    },
    {
      "pad_r" : 2,
      "debug_info" : "input.91",
      "pad_fill_mode" : 0,
      "pad_b" : 2,
      "pad_l" : 2,
      "size_x" : 5,
      "top" : "input.91",
      "top_shape_style" : 0,
      "stride_x" : 1,
      "avg_or_max" : 1,
      "average_count_exclude_padding" : 1,
      "type" : "pool",
      "name" : "input.91",
      "pad_t" : 2,
      "stride_y" : 1,
      "bottom" : "input.89",
      "weights" : {

      },
      "pad_mode" : 0,
      "size_y" : 5,
      "pad_value" : 0
    },
    {
      "pad_r" : 2,
      "debug_info" : "353",
      "pad_fill_mode" : 0,
      "pad_b" : 2,
      "pad_l" : 2,
      "size_x" : 5,
      "top" : "353",
      "top_shape_style" : 0,
      "stride_x" : 1,
      "avg_or_max" : 1,
      "average_count_exclude_padding" : 1,
      "type" : "pool",
      "name" : "353",
      "pad_t" : 2,
      "stride_y" : 1,
      "bottom" : "input.91",
      "weights" : {

      },
      "pad_mode" : 0,
      "size_y" : 5,
      "pad_value" : 0
    },
    {
      "weights" : {

      },
      "debug_info" : "input.93",
      "top" : "input.93",
      "type" : "concat",
      "name" : "input.93",
      "bottom" : "input.87,input.89,input.91,353"
    },
    {
      "pad_r" : 0,
      "fused_relu" : 0,
      "fused_tanh" : 0,
      "debug_info" : "input.95",
      "pad_fill_mode" : 0,
      "pad_b" : 0,
      "pad_l" : 0,
      "top" : "input.95",
      "K" : 208,
      "blob_biases" : 133,
      "name" : "input.95",
      "has_batch_norm" : 0,
      "type" : "convolution",
      "n_groups" : 1,
      "pad_t" : 0,
      "has_biases" : 1,
      "C" : 104,
      "bottom" : "input.93",
      "weights" : {
        "W_U8" : 135,
        "lut_to_float32" : 137
      },
      "Nx" : 1,
      "pad_mode" : 0,
      "pad_value" : 0,
      "Ny" : 1,
      "n_parallel" : 1
    },
    {
      "bottom" : "input.95",
      "weights" : {

      },
      "mode" : 3,
      "debug_info" : "input.97__silu_sigmoid__",
      "top" : "input.97__silu_sigmoid__",
      "type" : "activation",
      "name" : "input.97__silu_sigmoid__"
    },
    {
      "bottom" : "input.95,input.97__silu_sigmoid__",
      "alpha" : 1,
      "operation" : 1,
      "weights" : {

      },
      "fused_relu" : 0,
      "debug_info" : "input.97",
      "top" : "input.97",
      "type" : "elementwise",
      "name" : "input.97",
      "beta" : 0
    },
    {
      "top" : "368",
      "use_fractional_scale_factors" : false,
      "weights" : {

      },
      "fractional_scaling_factor_y" : 1,
      "type" : "upsample",
      "scaling_factor_x" : 2,
      "mode" : 0,
      "align_corners" : 0,
      "bottom" : "input.97",
      "debug_info" : "368",
      "fractional_scaling_factor_x" : 1,
      "is_legacy_mode" : 1,
      "name" : "368",
      "scaling_factor_y" : 2
    },
    {
      "weights" : {

      },
      "debug_info" : "input.99",
      "top" : "input.99",
      "type" : "concat",
      "name" : "input.99",
      "bottom" : "368,input.63"
    },
    {
      "pad_r" : 0,
      "fused_relu" : 0,
      "fused_tanh" : 0,
      "debug_info" : "input.101",
      "pad_fill_mode" : 0,
      "pad_b" : 0,
      "pad_l" : 0,
      "top" : "input.101",
      "K" : 184,
      "blob_biases" : 139,
      "name" : "input.101",
      "has_batch_norm" : 0,
      "type" : "convolution",
      "n_groups" : 1,
      "pad_t" : 0,
      "has_biases" : 1,
      "C" : 80,
      "bottom" : "input.99",
      "weights" : {
        "W_U8" : 141,
        "lut_to_float32" : 143
      },
      "Nx" : 1,
      "pad_mode" : 0,
      "pad_value" : 0,
      "Ny" : 1,
      "n_parallel" : 1
    },
    {
      "bottom" : "input.101",
      "weights" : {

      },
      "mode" : 3,
      "debug_info" : "389__silu_sigmoid__",
      "top" : "389__silu_sigmoid__",
      "type" : "activation",
      "name" : "389__silu_sigmoid__"
    },
    {
      "bottom" : "input.101,389__silu_sigmoid__",
      "alpha" : 1,
      "operation" : 1,
      "weights" : {

      },
      "fused_relu" : 0,
      "debug_info" : "389",
      "top" : "389",
      "type" : "elementwise",
      "name" : "389",
      "beta" : 0
    },
    {
      "begin_104" : 0,
      "begin_63" : 0,
      "begin_59" : 0,
      "begin_64" : 0,
      "begin_105" : 0,
      "begin_65" : 0,
      "begin_0" : 0,
      "begin_70" : 0,
      "begin_66" : 0,
      "begin_106" : 0,
      "begin_110" : 0,
      "begin_2" : 0,
      "begin_71" : 0,
      "begin_67" : 0,
      "begin_68" : 0,
      "begin_107" : 0,
      "begin_111" : 0,
      "begin_4" : 0,
      "begin_72" : 0,
      "begin_73" : 0,
      "begin_69" : 0,
      "begin_6" : 0,
      "begin_74" : 0,
      "begin_108" : 0,
      "type" : "split_nd",
      "begin_8" : 0,
      "begin_112" : 0,
      "begin_75" : 0,
      "begin_10" : 0,
      "begin_80" : 0,
      "begin_76" : 0,
      "begin_109" : 0,
      "begin_113" : 0,
      "begin_11" : 0,
      "nd_axis" : 1,
      "begin_81" : 0,
      "begin_77" : 0,
      "begin_114" : 0,
      "begin_12" : 0,
      "begin_78" : 0,
      "begin_82" : 0,
      "begin_13" : 0,
      "begin_83" : 0,
      "begin_79" : 0,
      "begin_115" : 0,
      "begin_14" : 0,
      "begin_84" : 0,
      "begin_15" : 0,
      "begin_85" : 0,
      "begin_116" : 0,
      "begin_120" : 0,
      "begin_20" : 0,
      "begin_86" : 0,
      "begin_16" : 0,
      "begin_90" : 0,
      "begin_21" : 0,
      "begin_91" : 0,
      "begin_87" : 0,
      "begin_17" : 0,
      "begin_117" : 0,
      "begin_121" : 0,
      "begin_18" : 0,
      "begin_92" : 0,
      "begin_88" : 0,
      "begin_22" : 0,
      "begin_23" : 0,
      "begin_89" : 0,
      "begin_19" : 0,
      "begin_93" : 0,
      "begin_118" : 0,
      "begin_122" : 0,
      "begin_24" : 0,
      "begin_94" : 0,
      "begin_25" : 0,
      "begin_95" : 0,
      "begin_119" : 0,
      "begin_123" : 0,
      "begin_30" : 0,
      "begin_26" : 0,
      "begin_96" : 0,
      "begin_124" : 0,
      "begin_31" : 0,
      "begin_97" : 0,
      "begin_27" : 0,
      "begin_28" : 0,
      "begin_98" : 0,
      "begin_32" : 0,
      "begin_125" : 0,
      "begin_33" : 0,
      "begin_29" : 0,
      "begin_99" : 0,
      "begin_1" : 0,
      "weights" : {

      },
      "begin_34" : 0,
      "bottom" : "389",
      "begin_3" : 0,
      "begin_126" : 0,
      "begin_35" : 0,
      "begin_5" : 0,
      "begin_36" : 0,
      "begin_40" : 0,
      "begin_127" : 0,
      "name" : "391",
      "begin_41" : 0,
      "begin_37" : 0,
      "begin_7" : 0,
      "begin_42" : 0,
      "begin_38" : 0,
      "begin_9" : 0,
      "begin_39" : 0,
      "begin_43" : 0,
      "begin_44" : 0,
      "begin_45" : 0,
      "begin_50" : 0,
      "begin_46" : 0,
      "begin_51" : 0,
      "begin_47" : 0,
      "begin_100" : 0,
      "begin_52" : 0,
      "debug_info" : "391",
      "begin_48" : 0,
      "top" : "391_0,391_1",
      "begin_101" : 0,
      "begin_53" : 0,
      "begin_49" : 0,
      "begin_54" : 0,
      "begin_55" : 0,
      "begin_102" : 0,
      "begin_60" : 0,
      "begin_56" : 0,
      "begin_103" : 0,
      "begin_57" : 0,
      "begin_61" : 0,
      "begin_62" : 0,
      "begin_58" : 0
    },
    {
      "pad_r" : 1,
      "fused_relu" : 0,
      "fused_tanh" : 0,
      "debug_info" : "input.105",
      "pad_fill_mode" : 0,
      "pad_b" : 1,
      "pad_l" : 1,
      "top" : "input.105",
      "K" : 40,
      "blob_biases" : 145,
      "name" : "input.105",
      "has_batch_norm" : 0,
      "type" : "convolution",
      "n_groups" : 1,
      "pad_t" : 1,
      "has_biases" : 1,
      "C" : 40,
      "bottom" : "391_1",
      "weights" : {
        "W_U8" : 147,
        "lut_to_float32" : 149
      },
      "Nx" : 3,
      "pad_mode" : 0,
      "pad_value" : 0,
      "Ny" : 3,
      "n_parallel" : 1
    },
    {
      "bottom" : "input.105",
      "weights" : {

      },
      "mode" : 3,
      "debug_info" : "input.107__silu_sigmoid__",
      "top" : "input.107__silu_sigmoid__",
      "type" : "activation",
      "name" : "input.107__silu_sigmoid__"
    },
    {
      "bottom" : "input.105,input.107__silu_sigmoid__",
      "alpha" : 1,
      "operation" : 1,
      "weights" : {

      },
      "fused_relu" : 0,
      "debug_info" : "input.107",
      "top" : "input.107",
      "type" : "elementwise",
      "name" : "input.107",
      "beta" : 0
    },
    {
      "pad_r" : 1,
      "fused_relu" : 0,
      "fused_tanh" : 0,
      "debug_info" : "input.109",
      "pad_fill_mode" : 0,
      "pad_b" : 1,
      "pad_l" : 1,
      "top" : "input.109",
      "K" : 40,
      "blob_biases" : 151,
      "name" : "input.109",
      "has_batch_norm" : 0,
      "type" : "convolution",
      "n_groups" : 1,
      "pad_t" : 1,
      "has_biases" : 1,
      "C" : 40,
      "bottom" : "input.107",
      "weights" : {
        "W_U8" : 153,
        "lut_to_float32" : 155
      },
      "Nx" : 3,
      "pad_mode" : 0,
      "pad_value" : 0,
      "Ny" : 3,
      "n_parallel" : 1
    },
    {
      "bottom" : "input.109",
      "weights" : {

      },
      "mode" : 3,
      "debug_info" : "413__silu_sigmoid__",
      "top" : "413__silu_sigmoid__",
      "type" : "activation",
      "name" : "413__silu_sigmoid__"
    },
    {
      "bottom" : "input.109,413__silu_sigmoid__",
      "alpha" : 1,
      "operation" : 1,
      "weights" : {

      },
      "fused_relu" : 0,
      "debug_info" : "413",
      "top" : "413",
      "type" : "elementwise",
      "name" : "413",
      "beta" : 0
    },
    {
      "weights" : {

      },
      "debug_info" : "input.111",
      "top" : "input.111",
      "type" : "concat",
      "name" : "input.111",
      "bottom" : "391_0,391_1,413"
    },
    {
      "pad_r" : 0,
      "fused_relu" : 0,
      "fused_tanh" : 0,
      "debug_info" : "input.113",
      "pad_fill_mode" : 0,
      "pad_b" : 0,
      "pad_l" : 0,
      "top" : "input.113",
      "K" : 120,
      "blob_biases" : 157,
      "name" : "input.113",
      "has_batch_norm" : 0,
      "type" : "convolution",
      "n_groups" : 1,
      "pad_t" : 0,
      "has_biases" : 1,
      "C" : 80,
      "bottom" : "input.111",
      "weights" : {
        "W_U8" : 159,
        "lut_to_float32" : 161
      },
      "Nx" : 1,
      "pad_mode" : 0,
      "pad_value" : 0,
      "Ny" : 1,
      "n_parallel" : 1
    },
    {
      "bottom" : "input.113",
      "weights" : {

      },
      "mode" : 3,
      "debug_info" : "input.115__silu_sigmoid__",
      "top" : "input.115__silu_sigmoid__",
      "type" : "activation",
      "name" : "input.115__silu_sigmoid__"
    },
    {
      "bottom" : "input.113,input.115__silu_sigmoid__",
      "alpha" : 1,
      "operation" : 1,
      "weights" : {

      },
      "fused_relu" : 0,
      "debug_info" : "input.115",
      "top" : "input.115",
      "type" : "elementwise",
      "name" : "input.115",
      "beta" : 0
    },
    {
      "top" : "428",
      "use_fractional_scale_factors" : false,
      "weights" : {

      },
      "fractional_scaling_factor_y" : 1,
      "type" : "upsample",
      "scaling_factor_x" : 2,
      "mode" : 0,
      "align_corners" : 0,
      "bottom" : "input.115",
      "debug_info" : "428",
      "fractional_scaling_factor_x" : 1,
      "is_legacy_mode" : 1,
      "name" : "428",
      "scaling_factor_y" : 2
    },
    {
      "weights" : {

      },
      "debug_info" : "input.117",
      "top" : "input.117",
      "type" : "concat",
      "name" : "input.117",
      "bottom" : "428,input.43"
    },
    {
      "pad_r" : 0,
      "fused_relu" : 0,
      "fused_tanh" : 0,
      "debug_info" : "input.119",
      "pad_fill_mode" : 0,
      "pad_b" : 0,
      "pad_l" : 0,
      "top" : "input.119",
      "K" : 120,
      "blob_biases" : 163,
      "name" : "input.119",
      "has_batch_norm" : 0,
      "type" : "convolution",
      "n_groups" : 1,
      "pad_t" : 0,
      "has_biases" : 1,
      "C" : 40,
      "bottom" : "input.117",
      "weights" : {
        "W_U8" : 165,
        "lut_to_float32" : 167
      },
      "Nx" : 1,
      "pad_mode" : 0,
      "pad_value" : 0,
      "Ny" : 1,
      "n_parallel" : 1
    },
    {
      "bottom" : "input.119",
      "weights" : {

      },
      "mode" : 3,
      "debug_info" : "449__silu_sigmoid__",
      "top" : "449__silu_sigmoid__",
      "type" : "activation",
      "name" : "449__silu_sigmoid__"
    },
    {
      "bottom" : "input.119,449__silu_sigmoid__",
      "alpha" : 1,
      "operation" : 1,
      "weights" : {

      },
      "fused_relu" : 0,
      "debug_info" : "449",
      "top" : "449",
      "type" : "elementwise",
      "name" : "449",
      "beta" : 0
    },
    {
      "begin_104" : 0,
      "begin_63" : 0,
      "begin_59" : 0,
      "begin_64" : 0,
      "begin_105" : 0,
      "begin_65" : 0,
      "begin_0" : 0,
      "begin_70" : 0,
      "begin_66" : 0,
      "begin_106" : 0,
      "begin_110" : 0,
      "begin_2" : 0,
      "begin_71" : 0,
      "begin_67" : 0,
      "begin_68" : 0,
      "begin_107" : 0,
      "begin_111" : 0,
      "begin_4" : 0,
      "begin_72" : 0,
      "begin_73" : 0,
      "begin_69" : 0,
      "begin_6" : 0,
      "begin_74" : 0,
      "begin_108" : 0,
      "type" : "split_nd",
      "begin_8" : 0,
      "begin_112" : 0,
      "begin_75" : 0,
      "begin_10" : 0,
      "begin_80" : 0,
      "begin_76" : 0,
      "begin_109" : 0,
      "begin_113" : 0,
      "begin_11" : 0,
      "nd_axis" : 1,
      "begin_81" : 0,
      "begin_77" : 0,
      "begin_114" : 0,
      "begin_12" : 0,
      "begin_78" : 0,
      "begin_82" : 0,
      "begin_13" : 0,
      "begin_83" : 0,
      "begin_79" : 0,
      "begin_115" : 0,
      "begin_14" : 0,
      "begin_84" : 0,
      "begin_15" : 0,
      "begin_85" : 0,
      "begin_116" : 0,
      "begin_120" : 0,
      "begin_20" : 0,
      "begin_86" : 0,
      "begin_16" : 0,
      "begin_90" : 0,
      "begin_21" : 0,
      "begin_91" : 0,
      "begin_87" : 0,
      "begin_17" : 0,
      "begin_117" : 0,
      "begin_121" : 0,
      "begin_18" : 0,
      "begin_92" : 0,
      "begin_88" : 0,
      "begin_22" : 0,
      "begin_23" : 0,
      "begin_89" : 0,
      "begin_19" : 0,
      "begin_93" : 0,
      "begin_118" : 0,
      "begin_122" : 0,
      "begin_24" : 0,
      "begin_94" : 0,
      "begin_25" : 0,
      "begin_95" : 0,
      "begin_119" : 0,
      "begin_123" : 0,
      "begin_30" : 0,
      "begin_26" : 0,
      "begin_96" : 0,
      "begin_124" : 0,
      "begin_31" : 0,
      "begin_97" : 0,
      "begin_27" : 0,
      "begin_28" : 0,
      "begin_98" : 0,
      "begin_32" : 0,
      "begin_125" : 0,
      "begin_33" : 0,
      "begin_29" : 0,
      "begin_99" : 0,
      "begin_1" : 0,
      "weights" : {

      },
      "begin_34" : 0,
      "bottom" : "449",
      "begin_3" : 0,
      "begin_126" : 0,
      "begin_35" : 0,
      "begin_5" : 0,
      "begin_36" : 0,
      "begin_40" : 0,
      "begin_127" : 0,
      "name" : "451",
      "begin_41" : 0,
      "begin_37" : 0,
      "begin_7" : 0,
      "begin_42" : 0,
      "begin_38" : 0,
      "begin_9" : 0,
      "begin_39" : 0,
      "begin_43" : 0,
      "begin_44" : 0,
      "begin_45" : 0,
      "begin_50" : 0,
      "begin_46" : 0,
      "begin_51" : 0,
      "begin_47" : 0,
      "begin_100" : 0,
      "begin_52" : 0,
      "debug_info" : "451",
      "begin_48" : 0,
      "top" : "451_0,451_1",
      "begin_101" : 0,
      "begin_53" : 0,
      "begin_49" : 0,
      "begin_54" : 0,
      "begin_55" : 0,
      "begin_102" : 0,
      "begin_60" : 0,
      "begin_56" : 0,
      "begin_103" : 0,
      "begin_57" : 0,
      "begin_61" : 0,
      "begin_62" : 0,
      "begin_58" : 0
    },
    {
      "pad_r" : 1,
      "fused_relu" : 0,
      "fused_tanh" : 0,
      "debug_info" : "input.123",
      "pad_fill_mode" : 0,
      "pad_b" : 1,
      "pad_l" : 1,
      "top" : "input.123",
      "K" : 20,
      "blob_biases" : 169,
      "name" : "input.123",
      "has_batch_norm" : 0,
      "type" : "convolution",
      "n_groups" : 1,
      "pad_t" : 1,
      "has_biases" : 1,
      "C" : 20,
      "bottom" : "451_1",
      "weights" : {
        "W_U8" : 171,
        "lut_to_float32" : 173
      },
      "Nx" : 3,
      "pad_mode" : 0,
      "pad_value" : 0,
      "Ny" : 3,
      "n_parallel" : 1
    },
    {
      "bottom" : "input.123",
      "weights" : {

      },
      "mode" : 3,
      "debug_info" : "input.125__silu_sigmoid__",
      "top" : "input.125__silu_sigmoid__",
      "type" : "activation",
      "name" : "input.125__silu_sigmoid__"
    },
    {
      "bottom" : "input.123,input.125__silu_sigmoid__",
      "alpha" : 1,
      "operation" : 1,
      "weights" : {

      },
      "fused_relu" : 0,
      "debug_info" : "input.125",
      "top" : "input.125",
      "type" : "elementwise",
      "name" : "input.125",
      "beta" : 0
    },
    {
      "pad_r" : 1,
      "fused_relu" : 0,
      "fused_tanh" : 0,
      "debug_info" : "input.127",
      "pad_fill_mode" : 0,
      "pad_b" : 1,
      "pad_l" : 1,
      "top" : "input.127",
      "K" : 20,
      "blob_biases" : 175,
      "name" : "input.127",
      "has_batch_norm" : 0,
      "type" : "convolution",
      "n_groups" : 1,
      "pad_t" : 1,
      "has_biases" : 1,
      "C" : 20,
      "bottom" : "input.125",
      "weights" : {
        "W_U8" : 177,
        "lut_to_float32" : 179
      },
      "Nx" : 3,
      "pad_mode" : 0,
      "pad_value" : 0,
      "Ny" : 3,
      "n_parallel" : 1
    },
    {
      "bottom" : "input.127",
      "weights" : {

      },
      "mode" : 3,
      "debug_info" : "473__silu_sigmoid__",
      "top" : "473__silu_sigmoid__",
      "type" : "activation",
      "name" : "473__silu_sigmoid__"
    },
    {
      "bottom" : "input.127,473__silu_sigmoid__",
      "alpha" : 1,
      "operation" : 1,
      "weights" : {

      },
      "fused_relu" : 0,
      "debug_info" : "473",
      "top" : "473",
      "type" : "elementwise",
      "name" : "473",
      "beta" : 0
    },
    {
      "weights" : {

      },
      "debug_info" : "input.129",
      "top" : "input.129",
      "type" : "concat",
      "name" : "input.129",
      "bottom" : "451_0,451_1,473"
    },
    {
      "pad_r" : 0,
      "fused_relu" : 0,
      "fused_tanh" : 0,
      "debug_info" : "input.131",
      "pad_fill_mode" : 0,
      "pad_b" : 0,
      "pad_l" : 0,
      "top" : "input.131",
      "K" : 60,
      "blob_biases" : 181,
      "name" : "input.131",
      "has_batch_norm" : 0,
      "type" : "convolution",
      "n_groups" : 1,
      "pad_t" : 0,
      "has_biases" : 1,
      "C" : 40,
      "bottom" : "input.129",
      "weights" : {
        "W_U8" : 183,
        "lut_to_float32" : 185
      },
      "Nx" : 1,
      "pad_mode" : 0,
      "pad_value" : 0,
      "Ny" : 1,
      "n_parallel" : 1
    },
    {
      "bottom" : "input.131",
      "weights" : {

      },
      "mode" : 3,
      "debug_info" : "input.133__silu_sigmoid__",
      "top" : "input.133__silu_sigmoid__",
      "type" : "activation",
      "name" : "input.133__silu_sigmoid__"
    },
    {
      "bottom" : "input.131,input.133__silu_sigmoid__",
      "alpha" : 1,
      "operation" : 1,
      "weights" : {

      },
      "fused_relu" : 0,
      "debug_info" : "input.133",
      "top" : "input.133",
      "type" : "elementwise",
      "name" : "input.133",
      "beta" : 0
    },
    {
      "pad_r" : 1,
      "fused_relu" : 0,
      "fused_tanh" : 0,
      "debug_info" : "input.135",
      "pad_fill_mode" : 0,
      "pad_b" : 1,
      "pad_l" : 1,
      "top" : "input.135",
      "K" : 40,
      "blob_biases" : 187,
      "stride_x" : 2,
      "name" : "input.135",
      "has_batch_norm" : 0,
      "type" : "convolution",
      "n_groups" : 1,
      "pad_t" : 1,
      "stride_y" : 2,
      "has_biases" : 1,
      "C" : 40,
      "bottom" : "input.133",
      "weights" : {
        "W_U8" : 189,
        "lut_to_float32" : 191
      },
      "Nx" : 3,
      "pad_mode" : 0,
      "pad_value" : 0,
      "Ny" : 3,
      "n_parallel" : 1
    },
    {
      "bottom" : "input.135",
      "weights" : {

      },
      "mode" : 3,
      "debug_info" : "498__silu_sigmoid__",
      "top" : "498__silu_sigmoid__",
      "type" : "activation",
      "name" : "498__silu_sigmoid__"
    },
    {
      "bottom" : "input.135,498__silu_sigmoid__",
      "alpha" : 1,
      "operation" : 1,
      "weights" : {

      },
      "fused_relu" : 0,
      "debug_info" : "498",
      "top" : "498",
      "type" : "elementwise",
      "name" : "498",
      "beta" : 0
    },
    {
      "weights" : {

      },
      "debug_info" : "input.137",
      "top" : "input.137",
      "type" : "concat",
      "name" : "input.137",
      "bottom" : "498,input.115"
    },
    {
      "pad_r" : 0,
      "fused_relu" : 0,
      "fused_tanh" : 0,
      "debug_info" : "input.139",
      "pad_fill_mode" : 0,
      "pad_b" : 0,
      "pad_l" : 0,
      "top" : "input.139",
      "K" : 120,
      "blob_biases" : 193,
      "name" : "input.139",
      "has_batch_norm" : 0,
      "type" : "convolution",
      "n_groups" : 1,
      "pad_t" : 0,
      "has_biases" : 1,
      "C" : 80,
      "bottom" : "input.137",
      "weights" : {
        "W_U8" : 195,
        "lut_to_float32" : 197
      },
      "Nx" : 1,
      "pad_mode" : 0,
      "pad_value" : 0,
      "Ny" : 1,
      "n_parallel" : 1
    },
    {
      "bottom" : "input.139",
      "weights" : {

      },
      "mode" : 3,
      "debug_info" : "519__silu_sigmoid__",
      "top" : "519__silu_sigmoid__",
      "type" : "activation",
      "name" : "519__silu_sigmoid__"
    },
    {
      "bottom" : "input.139,519__silu_sigmoid__",
      "alpha" : 1,
      "operation" : 1,
      "weights" : {

      },
      "fused_relu" : 0,
      "debug_info" : "519",
      "top" : "519",
      "type" : "elementwise",
      "name" : "519",
      "beta" : 0
    },
    {
      "begin_104" : 0,
      "begin_63" : 0,
      "begin_59" : 0,
      "begin_64" : 0,
      "begin_105" : 0,
      "begin_65" : 0,
      "begin_0" : 0,
      "begin_70" : 0,
      "begin_66" : 0,
      "begin_106" : 0,
      "begin_110" : 0,
      "begin_2" : 0,
      "begin_71" : 0,
      "begin_67" : 0,
      "begin_68" : 0,
      "begin_107" : 0,
      "begin_111" : 0,
      "begin_4" : 0,
      "begin_72" : 0,
      "begin_73" : 0,
      "begin_69" : 0,
      "begin_6" : 0,
      "begin_74" : 0,
      "begin_108" : 0,
      "type" : "split_nd",
      "begin_8" : 0,
      "begin_112" : 0,
      "begin_75" : 0,
      "begin_10" : 0,
      "begin_80" : 0,
      "begin_76" : 0,
      "begin_109" : 0,
      "begin_113" : 0,
      "begin_11" : 0,
      "nd_axis" : 1,
      "begin_81" : 0,
      "begin_77" : 0,
      "begin_114" : 0,
      "begin_12" : 0,
      "begin_78" : 0,
      "begin_82" : 0,
      "begin_13" : 0,
      "begin_83" : 0,
      "begin_79" : 0,
      "begin_115" : 0,
      "begin_14" : 0,
      "begin_84" : 0,
      "begin_15" : 0,
      "begin_85" : 0,
      "begin_116" : 0,
      "begin_120" : 0,
      "begin_20" : 0,
      "begin_86" : 0,
      "begin_16" : 0,
      "begin_90" : 0,
      "begin_21" : 0,
      "begin_91" : 0,
      "begin_87" : 0,
      "begin_17" : 0,
      "begin_117" : 0,
      "begin_121" : 0,
      "begin_18" : 0,
      "begin_92" : 0,
      "begin_88" : 0,
      "begin_22" : 0,
      "begin_23" : 0,
      "begin_89" : 0,
      "begin_19" : 0,
      "begin_93" : 0,
      "begin_118" : 0,
      "begin_122" : 0,
      "begin_24" : 0,
      "begin_94" : 0,
      "begin_25" : 0,
      "begin_95" : 0,
      "begin_119" : 0,
      "begin_123" : 0,
      "begin_30" : 0,
      "begin_26" : 0,
      "begin_96" : 0,
      "begin_124" : 0,
      "begin_31" : 0,
      "begin_97" : 0,
      "begin_27" : 0,
      "begin_28" : 0,
      "begin_98" : 0,
      "begin_32" : 0,
      "begin_125" : 0,
      "begin_33" : 0,
      "begin_29" : 0,
      "begin_99" : 0,
      "begin_1" : 0,
      "weights" : {

      },
      "begin_34" : 0,
      "bottom" : "519",
      "begin_3" : 0,
      "begin_126" : 0,
      "begin_35" : 0,
      "begin_5" : 0,
      "begin_36" : 0,
      "begin_40" : 0,
      "begin_127" : 0,
      "name" : "521",
      "begin_41" : 0,
      "begin_37" : 0,
      "begin_7" : 0,
      "begin_42" : 0,
      "begin_38" : 0,
      "begin_9" : 0,
      "begin_39" : 0,
      "begin_43" : 0,
      "begin_44" : 0,
      "begin_45" : 0,
      "begin_50" : 0,
      "begin_46" : 0,
      "begin_51" : 0,
      "begin_47" : 0,
      "begin_100" : 0,
      "begin_52" : 0,
      "debug_info" : "521",
      "begin_48" : 0,
      "top" : "521_0,521_1",
      "begin_101" : 0,
      "begin_53" : 0,
      "begin_49" : 0,
      "begin_54" : 0,
      "begin_55" : 0,
      "begin_102" : 0,
      "begin_60" : 0,
      "begin_56" : 0,
      "begin_103" : 0,
      "begin_57" : 0,
      "begin_61" : 0,
      "begin_62" : 0,
      "begin_58" : 0
    },
    {
      "pad_r" : 1,
      "fused_relu" : 0,
      "fused_tanh" : 0,
      "debug_info" : "input.143",
      "pad_fill_mode" : 0,
      "pad_b" : 1,
      "pad_l" : 1,
      "top" : "input.143",
      "K" : 40,
      "blob_biases" : 199,
      "name" : "input.143",
      "has_batch_norm" : 0,
      "type" : "convolution",
      "n_groups" : 1,
      "pad_t" : 1,
      "has_biases" : 1,
      "C" : 40,
      "bottom" : "521_1",
      "weights" : {
        "W_U8" : 201,
        "lut_to_float32" : 203
      },
      "Nx" : 3,
      "pad_mode" : 0,
      "pad_value" : 0,
      "Ny" : 3,
      "n_parallel" : 1
    },
    {
      "bottom" : "input.143",
      "weights" : {

      },
      "mode" : 3,
      "debug_info" : "input.145__silu_sigmoid__",
      "top" : "input.145__silu_sigmoid__",
      "type" : "activation",
      "name" : "input.145__silu_sigmoid__"
    },
    {
      "bottom" : "input.143,input.145__silu_sigmoid__",
      "alpha" : 1,
      "operation" : 1,
      "weights" : {

      },
      "fused_relu" : 0,
      "debug_info" : "input.145",
      "top" : "input.145",
      "type" : "elementwise",
      "name" : "input.145",
      "beta" : 0
    },
    {
      "pad_r" : 1,
      "fused_relu" : 0,
      "fused_tanh" : 0,
      "debug_info" : "input.147",
      "pad_fill_mode" : 0,
      "pad_b" : 1,
      "pad_l" : 1,
      "top" : "input.147",
      "K" : 40,
      "blob_biases" : 205,
      "name" : "input.147",
      "has_batch_norm" : 0,
      "type" : "convolution",
      "n_groups" : 1,
      "pad_t" : 1,
      "has_biases" : 1,
      "C" : 40,
      "bottom" : "input.145",
      "weights" : {
        "W_U8" : 207,
        "lut_to_float32" : 209
      },
      "Nx" : 3,
      "pad_mode" : 0,
      "pad_value" : 0,
      "Ny" : 3,
      "n_parallel" : 1
    },
    {
      "bottom" : "input.147",
      "weights" : {

      },
      "mode" : 3,
      "debug_info" : "543__silu_sigmoid__",
      "top" : "543__silu_sigmoid__",
      "type" : "activation",
      "name" : "543__silu_sigmoid__"
    },
    {
      "bottom" : "input.147,543__silu_sigmoid__",
      "alpha" : 1,
      "operation" : 1,
      "weights" : {

      },
      "fused_relu" : 0,
      "debug_info" : "543",
      "top" : "543",
      "type" : "elementwise",
      "name" : "543",
      "beta" : 0
    },
    {
      "weights" : {

      },
      "debug_info" : "input.149",
      "top" : "input.149",
      "type" : "concat",
      "name" : "input.149",
      "bottom" : "521_0,521_1,543"
    },
    {
      "pad_r" : 0,
      "fused_relu" : 0,
      "fused_tanh" : 0,
      "debug_info" : "input.151",
      "pad_fill_mode" : 0,
      "pad_b" : 0,
      "pad_l" : 0,
      "top" : "input.151",
      "K" : 120,
      "blob_biases" : 211,
      "name" : "input.151",
      "has_batch_norm" : 0,
      "type" : "convolution",
      "n_groups" : 1,
      "pad_t" : 0,
      "has_biases" : 1,
      "C" : 80,
      "bottom" : "input.149",
      "weights" : {
        "W_U8" : 213,
        "lut_to_float32" : 215
      },
      "Nx" : 1,
      "pad_mode" : 0,
      "pad_value" : 0,
      "Ny" : 1,
      "n_parallel" : 1
    },
    {
      "bottom" : "input.151",
      "weights" : {

      },
      "mode" : 3,
      "debug_info" : "input.153__silu_sigmoid__",
      "top" : "input.153__silu_sigmoid__",
      "type" : "activation",
      "name" : "input.153__silu_sigmoid__"
    },
    {
      "bottom" : "input.151,input.153__silu_sigmoid__",
      "alpha" : 1,
      "operation" : 1,
      "weights" : {

      },
      "fused_relu" : 0,
      "debug_info" : "input.153",
      "top" : "input.153",
      "type" : "elementwise",
      "name" : "input.153",
      "beta" : 0
    },
    {
      "pad_r" : 1,
      "fused_relu" : 0,
      "fused_tanh" : 0,
      "debug_info" : "input.155",
      "pad_fill_mode" : 0,
      "pad_b" : 1,
      "pad_l" : 1,
      "top" : "input.155",
      "K" : 80,
      "blob_biases" : 217,
      "stride_x" : 2,
      "name" : "input.155",
      "has_batch_norm" : 0,
      "type" : "convolution",
      "n_groups" : 1,
      "pad_t" : 1,
      "stride_y" : 2,
      "has_biases" : 1,
      "C" : 80,
      "bottom" : "input.153",
      "weights" : {
        "W_U8" : 219,
        "lut_to_float32" : 221
      },
      "Nx" : 3,
      "pad_mode" : 0,
      "pad_value" : 0,
      "Ny" : 3,
      "n_parallel" : 1
    },
    {
      "bottom" : "input.155",
      "weights" : {

      },
      "mode" : 3,
      "debug_info" : "568__silu_sigmoid__",
      "top" : "568__silu_sigmoid__",
      "type" : "activation",
      "name" : "568__silu_sigmoid__"
    },
    {
      "bottom" : "input.155,568__silu_sigmoid__",
      "alpha" : 1,
      "operation" : 1,
      "weights" : {

      },
      "fused_relu" : 0,
      "debug_info" : "568",
      "top" : "568",
      "type" : "elementwise",
      "name" : "568",
      "beta" : 0
    },
    {
      "weights" : {

      },
      "debug_info" : "input.157",
      "top" : "input.157",
      "type" : "concat",
      "name" : "input.157",
      "bottom" : "568,input.97"
    },
    {
      "pad_r" : 0,
      "fused_relu" : 0,
      "fused_tanh" : 0,
      "debug_info" : "input.159",
      "pad_fill_mode" : 0,
      "pad_b" : 0,
      "pad_l" : 0,
      "top" : "input.159",
      "K" : 184,
      "blob_biases" : 223,
      "name" : "input.159",
      "has_batch_norm" : 0,
      "type" : "convolution",
      "n_groups" : 1,
      "pad_t" : 0,
      "has_biases" : 1,
      "C" : 104,
      "bottom" : "input.157",
      "weights" : {
        "W_U8" : 225,
        "lut_to_float32" : 227
      },
      "Nx" : 1,
      "pad_mode" : 0,
      "pad_value" : 0,
      "Ny" : 1,
      "n_parallel" : 1
    },
    {
      "bottom" : "input.159",
      "weights" : {

      },
      "mode" : 3,
      "debug_info" : "589__silu_sigmoid__",
      "top" : "589__silu_sigmoid__",
      "type" : "activation",
      "name" : "589__silu_sigmoid__"
    },
    {
      "bottom" : "input.159,589__silu_sigmoid__",
      "alpha" : 1,
      "operation" : 1,
      "weights" : {

      },
      "fused_relu" : 0,
      "debug_info" : "589",
      "top" : "589",
      "type" : "elementwise",
      "name" : "589",
      "beta" : 0
    },
    {
      "begin_104" : 0,
      "begin_63" : 0,
      "begin_59" : 0,
      "begin_64" : 0,
      "begin_105" : 0,
      "begin_65" : 0,
      "begin_0" : 0,
      "begin_70" : 0,
      "begin_66" : 0,
      "begin_106" : 0,
      "begin_110" : 0,
      "begin_2" : 0,
      "begin_71" : 0,
      "begin_67" : 0,
      "begin_68" : 0,
      "begin_107" : 0,
      "begin_111" : 0,
      "begin_4" : 0,
      "begin_72" : 0,
      "begin_73" : 0,
      "begin_69" : 0,
      "begin_6" : 0,
      "begin_74" : 0,
      "begin_108" : 0,
      "type" : "split_nd",
      "begin_8" : 0,
      "begin_112" : 0,
      "begin_75" : 0,
      "begin_10" : 0,
      "begin_80" : 0,
      "begin_76" : 0,
      "begin_109" : 0,
      "begin_113" : 0,
      "begin_11" : 0,
      "nd_axis" : 1,
      "begin_81" : 0,
      "begin_77" : 0,
      "begin_114" : 0,
      "begin_12" : 0,
      "begin_78" : 0,
      "begin_82" : 0,
      "begin_13" : 0,
      "begin_83" : 0,
      "begin_79" : 0,
      "begin_115" : 0,
      "begin_14" : 0,
      "begin_84" : 0,
      "begin_15" : 0,
      "begin_85" : 0,
      "begin_116" : 0,
      "begin_120" : 0,
      "begin_20" : 0,
      "begin_86" : 0,
      "begin_16" : 0,
      "begin_90" : 0,
      "begin_21" : 0,
      "begin_91" : 0,
      "begin_87" : 0,
      "begin_17" : 0,
      "begin_117" : 0,
      "begin_121" : 0,
      "begin_18" : 0,
      "begin_92" : 0,
      "begin_88" : 0,
      "begin_22" : 0,
      "begin_23" : 0,
      "begin_89" : 0,
      "begin_19" : 0,
      "begin_93" : 0,
      "begin_118" : 0,
      "begin_122" : 0,
      "begin_24" : 0,
      "begin_94" : 0,
      "begin_25" : 0,
      "begin_95" : 0,
      "begin_119" : 0,
      "begin_123" : 0,
      "begin_30" : 0,
      "begin_26" : 0,
      "begin_96" : 0,
      "begin_124" : 0,
      "begin_31" : 0,
      "begin_97" : 0,
      "begin_27" : 0,
      "begin_28" : 0,
      "begin_98" : 0,
      "begin_32" : 0,
      "begin_125" : 0,
      "begin_33" : 0,
      "begin_29" : 0,
      "begin_99" : 0,
      "begin_1" : 0,
      "weights" : {

      },
      "begin_34" : 0,
      "bottom" : "589",
      "begin_3" : 0,
      "begin_126" : 0,
      "begin_35" : 0,
      "begin_5" : 0,
      "begin_36" : 0,
      "begin_40" : 0,
      "begin_127" : 0,
      "name" : "591",
      "begin_41" : 0,
      "begin_37" : 0,
      "begin_7" : 0,
      "begin_42" : 0,
      "begin_38" : 0,
      "begin_9" : 0,
      "begin_39" : 0,
      "begin_43" : 0,
      "begin_44" : 0,
      "begin_45" : 0,
      "begin_50" : 0,
      "begin_46" : 0,
      "begin_51" : 0,
      "begin_47" : 0,
      "begin_100" : 0,
      "begin_52" : 0,
      "debug_info" : "591",
      "begin_48" : 0,
      "top" : "591_0,591_1",
      "begin_101" : 0,
      "begin_53" : 0,
      "begin_49" : 0,
      "begin_54" : 0,
      "begin_55" : 0,
      "begin_102" : 0,
      "begin_60" : 0,
      "begin_56" : 0,
      "begin_103" : 0,
      "begin_57" : 0,
      "begin_61" : 0,
      "begin_62" : 0,
      "begin_58" : 0
    },
    {
      "pad_r" : 1,
      "fused_relu" : 0,
      "fused_tanh" : 0,
      "debug_info" : "input.163",
      "pad_fill_mode" : 0,
      "pad_b" : 1,
      "pad_l" : 1,
      "top" : "input.163",
      "K" : 52,
      "blob_biases" : 229,
      "name" : "input.163",
      "has_batch_norm" : 0,
      "type" : "convolution",
      "n_groups" : 1,
      "pad_t" : 1,
      "has_biases" : 1,
      "C" : 52,
      "bottom" : "591_1",
      "weights" : {
        "W_U8" : 231,
        "lut_to_float32" : 233
      },
      "Nx" : 3,
      "pad_mode" : 0,
      "pad_value" : 0,
      "Ny" : 3,
      "n_parallel" : 1
    },
    {
      "bottom" : "input.163",
      "weights" : {

      },
      "mode" : 3,
      "debug_info" : "input.165__silu_sigmoid__",
      "top" : "input.165__silu_sigmoid__",
      "type" : "activation",
      "name" : "input.165__silu_sigmoid__"
    },
    {
      "bottom" : "input.163,input.165__silu_sigmoid__",
      "alpha" : 1,
      "operation" : 1,
      "weights" : {

      },
      "fused_relu" : 0,
      "debug_info" : "input.165",
      "top" : "input.165",
      "type" : "elementwise",
      "name" : "input.165",
      "beta" : 0
    },
    {
      "pad_r" : 1,
      "fused_relu" : 0,
      "fused_tanh" : 0,
      "debug_info" : "input.167",
      "pad_fill_mode" : 0,
      "pad_b" : 1,
      "pad_l" : 1,
      "top" : "input.167",
      "K" : 52,
      "blob_biases" : 235,
      "name" : "input.167",
      "has_batch_norm" : 0,
      "type" : "convolution",
      "n_groups" : 1,
      "pad_t" : 1,
      "has_biases" : 1,
      "C" : 52,
      "bottom" : "input.165",
      "weights" : {
        "W_U8" : 237,
        "lut_to_float32" : 239
      },
      "Nx" : 3,
      "pad_mode" : 0,
      "pad_value" : 0,
      "Ny" : 3,
      "n_parallel" : 1
    },
    {
      "bottom" : "input.167",
      "weights" : {

      },
      "mode" : 3,
      "debug_info" : "613__silu_sigmoid__",
      "top" : "613__silu_sigmoid__",
      "type" : "activation",
      "name" : "613__silu_sigmoid__"
    },
    {
      "bottom" : "input.167,613__silu_sigmoid__",
      "alpha" : 1,
      "operation" : 1,
      "weights" : {

      },
      "fused_relu" : 0,
      "debug_info" : "613",
      "top" : "613",
      "type" : "elementwise",
      "name" : "613",
      "beta" : 0
    },
    {
      "weights" : {

      },
      "debug_info" : "input.169",
      "top" : "input.169",
      "type" : "concat",
      "name" : "input.169",
      "bottom" : "591_0,591_1,613"
    },
    {
      "pad_r" : 0,
      "fused_relu" : 0,
      "fused_tanh" : 0,
      "debug_info" : "input.171",
      "pad_fill_mode" : 0,
      "pad_b" : 0,
      "pad_l" : 0,
      "top" : "input.171",
      "K" : 156,
      "blob_biases" : 241,
      "name" : "input.171",
      "has_batch_norm" : 0,
      "type" : "convolution",
      "n_groups" : 1,
      "pad_t" : 0,
      "has_biases" : 1,
      "C" : 104,
      "bottom" : "input.169",
      "weights" : {
        "W_U8" : 243,
        "lut_to_float32" : 245
      },
      "Nx" : 1,
      "pad_mode" : 0,
      "pad_value" : 0,
      "Ny" : 1,
      "n_parallel" : 1
    },
    {
      "bottom" : "input.171",
      "weights" : {

      },
      "mode" : 3,
      "debug_info" : "input.189__silu_sigmoid__",
      "top" : "input.189__silu_sigmoid__",
      "type" : "activation",
      "name" : "input.189__silu_sigmoid__"
    },
    {
      "bottom" : "input.171,input.189__silu_sigmoid__",
      "alpha" : 1,
      "operation" : 1,
      "weights" : {

      },
      "fused_relu" : 0,
      "debug_info" : "input.189",
      "top" : "input.189",
      "type" : "elementwise",
      "name" : "input.189",
      "beta" : 0
    },
    {
      "pad_r" : 1,
      "fused_relu" : 0,
      "fused_tanh" : 0,
      "debug_info" : "input.173",
      "pad_fill_mode" : 0,
      "pad_b" : 1,
      "pad_l" : 1,
      "top" : "input.173",
      "K" : 40,
      "blob_biases" : 247,
      "name" : "input.173",
      "has_batch_norm" : 0,
      "type" : "convolution",
      "n_groups" : 1,
      "pad_t" : 1,
      "has_biases" : 1,
      "C" : 10,
      "bottom" : "input.133",
      "weights" : {
        "W_U8" : 249,
        "lut_to_float32" : 251
      },
      "Nx" : 3,
      "pad_mode" : 0,
      "pad_value" : 0,
      "Ny" : 3,
      "n_parallel" : 1
    },
    {
      "bottom" : "input.173",
      "weights" : {

      },
      "mode" : 3,
      "debug_info" : "input.175__silu_sigmoid__",
      "top" : "input.175__silu_sigmoid__",
      "type" : "activation",
      "name" : "input.175__silu_sigmoid__"
    },
    {
      "bottom" : "input.173,input.175__silu_sigmoid__",
      "alpha" : 1,
      "operation" : 1,
      "weights" : {

      },
      "fused_relu" : 0,
      "debug_info" : "input.175",
      "top" : "input.175",
      "type" : "elementwise",
      "name" : "input.175",
      "beta" : 0
    },
    {
      "pad_r" : 1,
      "fused_relu" : 0,
      "fused_tanh" : 0,
      "debug_info" : "input.177",
      "pad_fill_mode" : 0,
      "pad_b" : 1,
      "pad_l" : 1,
      "top" : "input.177",
      "K" : 10,
      "blob_biases" : 253,
      "name" : "input.177",
      "has_batch_norm" : 0,
      "type" : "convolution",
      "n_groups" : 1,
      "pad_t" : 1,
      "has_biases" : 1,
      "C" : 10,
      "bottom" : "input.175",
      "weights" : {
        "W_U8" : 255,
        "lut_to_float32" : 257
      },
      "Nx" : 3,
      "pad_mode" : 0,
      "pad_value" : 0,
      "Ny" : 3,
      "n_parallel" : 1
    },
    {
      "bottom" : "input.177",
      "weights" : {

      },
      "mode" : 3,
      "debug_info" : "input.179__silu_sigmoid__",
      "top" : "input.179__silu_sigmoid__",
      "type" : "activation",
      "name" : "input.179__silu_sigmoid__"
    },
    {
      "bottom" : "input.177,input.179__silu_sigmoid__",
      "alpha" : 1,
      "operation" : 1,
      "weights" : {

      },
      "fused_relu" : 0,
      "debug_info" : "input.179",
      "top" : "input.179",
      "type" : "elementwise",
      "name" : "input.179",
      "beta" : 0
    },
    {
      "pad_r" : 0,
      "fused_relu" : 0,
      "fused_tanh" : 0,
      "debug_info" : "686",
      "pad_fill_mode" : 0,
      "pad_b" : 0,
      "pad_l" : 0,
      "top" : "686",
      "K" : 10,
      "blob_biases" : 259,
      "name" : "686",
      "has_batch_norm" : 0,
      "type" : "convolution",
      "n_groups" : 1,
      "pad_t" : 0,
      "has_biases" : 1,
      "C" : 1,
      "bottom" : "input.179",
      "weights" : {
        "W_U8" : 261,
        "lut_to_float32" : 263
      },
      "Nx" : 1,
      "pad_mode" : 0,
      "pad_value" : 0,
      "Ny" : 1,
      "n_parallel" : 1
    },
    {
      "name" : "688",
      "weights" : {

      },
      "dst_w" : -1,
      "version" : 1,
      "dst_n" : 1,
      "dst_nd_rank" : 3,
      "type" : "reshape",
      "dst_h" : 1,
      "mode" : 0,
      "dynamic_shape" : false,
      "bottom" : "686",
      "debug_info" : "688",
      "dst_seq" : 1,
      "dst_k" : 1,
      "top" : "688"
    },
    {
      "pad_r" : 1,
      "fused_relu" : 0,
      "fused_tanh" : 0,
      "debug_info" : "input.181",
      "pad_fill_mode" : 0,
      "pad_b" : 1,
      "pad_l" : 1,
      "top" : "input.181",
      "K" : 80,
      "blob_biases" : 265,
      "name" : "input.181",
      "has_batch_norm" : 0,
      "type" : "convolution",
      "n_groups" : 1,
      "pad_t" : 1,
      "has_biases" : 1,
      "C" : 10,
      "bottom" : "input.153",
      "weights" : {
        "W_U8" : 267,
        "lut_to_float32" : 269
      },
      "Nx" : 3,
      "pad_mode" : 0,
      "pad_value" : 0,
      "Ny" : 3,
      "n_parallel" : 1
    },
    {
      "bottom" : "input.181",
      "weights" : {

      },
      "mode" : 3,
      "debug_info" : "input.183__silu_sigmoid__",
      "top" : "input.183__silu_sigmoid__",
      "type" : "activation",
      "name" : "input.183__silu_sigmoid__"
    },
    {
      "bottom" : "input.181,input.183__silu_sigmoid__",
      "alpha" : 1,
      "operation" : 1,
      "weights" : {

      },
      "fused_relu" : 0,
      "debug_info" : "input.183",
      "top" : "input.183",
      "type" : "elementwise",
      "name" : "input.183",
      "beta" : 0
    },
    {
      "pad_r" : 1,
      "fused_relu" : 0,
      "fused_tanh" : 0,
      "debug_info" : "input.185",
      "pad_fill_mode" : 0,
      "pad_b" : 1,
      "pad_l" : 1,
      "top" : "input.185",
      "K" : 10,
      "blob_biases" : 271,
      "name" : "input.185",
      "has_batch_norm" : 0,
      "type" : "convolution",
      "n_groups" : 1,
      "pad_t" : 1,
      "has_biases" : 1,
      "C" : 10,
      "bottom" : "input.183",
      "weights" : {
        "W_U8" : 273,
        "lut_to_float32" : 275
      },
      "Nx" : 3,
      "pad_mode" : 0,
      "pad_value" : 0,
      "Ny" : 3,
      "n_parallel" : 1
    },
    {
      "bottom" : "input.185",
      "weights" : {

      },
      "mode" : 3,
      "debug_info" : "input.187__silu_sigmoid__",
      "top" : "input.187__silu_sigmoid__",
      "type" : "activation",
      "name" : "input.187__silu_sigmoid__"
    },
    {
      "bottom" : "input.185,input.187__silu_sigmoid__",
      "alpha" : 1,
      "operation" : 1,
      "weights" : {

      },
      "fused_relu" : 0,
      "debug_info" : "input.187",
      "top" : "input.187",
      "type" : "elementwise",
      "name" : "input.187",
      "beta" : 0
    },
    {
      "pad_r" : 0,
      "fused_relu" : 0,
      "fused_tanh" : 0,
      "debug_info" : "716",
      "pad_fill_mode" : 0,
      "pad_b" : 0,
      "pad_l" : 0,
      "top" : "716",
      "K" : 10,
      "blob_biases" : 277,
      "name" : "716",
      "has_batch_norm" : 0,
      "type" : "convolution",
      "n_groups" : 1,
      "pad_t" : 0,
      "has_biases" : 1,
      "C" : 1,
      "bottom" : "input.187",
      "weights" : {
        "W_U8" : 279,
        "lut_to_float32" : 281
      },
      "Nx" : 1,
      "pad_mode" : 0,
      "pad_value" : 0,
      "Ny" : 1,
      "n_parallel" : 1
    },
    {
      "name" : "718",
      "weights" : {

      },
      "dst_w" : -1,
      "version" : 1,
      "dst_n" : 1,
      "dst_nd_rank" : 3,
      "type" : "reshape",
      "dst_h" : 1,
      "mode" : 0,
      "dynamic_shape" : false,
      "bottom" : "716",
      "debug_info" : "718",
      "dst_seq" : 1,
      "dst_k" : 1,
      "top" : "718"
    },
    {
      "pad_r" : 1,
      "fused_relu" : 0,
      "fused_tanh" : 0,
      "debug_info" : "input.191",
      "pad_fill_mode" : 0,
      "pad_b" : 1,
      "pad_l" : 1,
      "top" : "input.191",
      "K" : 104,
      "blob_biases" : 283,
      "name" : "input.191",
      "has_batch_norm" : 0,
      "type" : "convolution",
      "n_groups" : 1,
      "pad_t" : 1,
      "has_biases" : 1,
      "C" : 10,
      "bottom" : "input.189",
      "weights" : {
        "W_U8" : 285,
        "lut_to_float32" : 287
      },
      "Nx" : 3,
      "pad_mode" : 0,
      "pad_value" : 0,
      "Ny" : 3,
      "n_parallel" : 1
    },
    {
      "bottom" : "input.191",
      "weights" : {

      },
      "mode" : 3,
      "debug_info" : "input.193__silu_sigmoid__",
      "top" : "input.193__silu_sigmoid__",
      "type" : "activation",
      "name" : "input.193__silu_sigmoid__"
    },
    {
      "bottom" : "input.191,input.193__silu_sigmoid__",
      "alpha" : 1,
      "operation" : 1,
      "weights" : {

      },
      "fused_relu" : 0,
      "debug_info" : "input.193",
      "top" : "input.193",
      "type" : "elementwise",
      "name" : "input.193",
      "beta" : 0
    },
    {
      "pad_r" : 1,
      "fused_relu" : 0,
      "fused_tanh" : 0,
      "debug_info" : "input.195",
      "pad_fill_mode" : 0,
      "pad_b" : 1,
      "pad_l" : 1,
      "top" : "input.195",
      "K" : 10,
      "blob_biases" : 289,
      "name" : "input.195",
      "has_batch_norm" : 0,
      "type" : "convolution",
      "n_groups" : 1,
      "pad_t" : 1,
      "has_biases" : 1,
      "C" : 10,
      "bottom" : "input.193",
      "weights" : {
        "W_U8" : 291,
        "lut_to_float32" : 293
      },
      "Nx" : 3,
      "pad_mode" : 0,
      "pad_value" : 0,
      "Ny" : 3,
      "n_parallel" : 1
    },
    {
      "bottom" : "input.195",
      "weights" : {

      },
      "mode" : 3,
      "debug_info" : "input.197__silu_sigmoid__",
      "top" : "input.197__silu_sigmoid__",
      "type" : "activation",
      "name" : "input.197__silu_sigmoid__"
    },
    {
      "bottom" : "input.195,input.197__silu_sigmoid__",
      "alpha" : 1,
      "operation" : 1,
      "weights" : {

      },
      "fused_relu" : 0,
      "debug_info" : "input.197",
      "top" : "input.197",
      "type" : "elementwise",
      "name" : "input.197",
      "beta" : 0
    },
    {
      "pad_r" : 0,
      "fused_relu" : 0,
      "fused_tanh" : 0,
      "debug_info" : "746",
      "pad_fill_mode" : 0,
      "pad_b" : 0,
      "pad_l" : 0,
      "top" : "746",
      "K" : 10,
      "blob_biases" : 295,
      "name" : "746",
      "has_batch_norm" : 0,
      "type" : "convolution",
      "n_groups" : 1,
      "pad_t" : 0,
      "has_biases" : 1,
      "C" : 1,
      "bottom" : "input.197",
      "weights" : {
        "W_U8" : 297,
        "lut_to_float32" : 299
      },
      "Nx" : 1,
      "pad_mode" : 0,
      "pad_value" : 0,
      "Ny" : 1,
      "n_parallel" : 1
    },
    {
      "name" : "748",
      "weights" : {

      },
      "dst_w" : -1,
      "version" : 1,
      "dst_n" : 1,
      "dst_nd_rank" : 3,
      "type" : "reshape",
      "dst_h" : 1,
      "mode" : 0,
      "dynamic_shape" : false,
      "bottom" : "746",
      "debug_info" : "748",
      "dst_seq" : 1,
      "dst_k" : 1,
      "top" : "748"
    },
    {
      "bottom" : "688,718,748",
      "weights" : {

      },
      "nd_mode" : true,
      "axis" : 2,
      "debug_info" : "angle",
      "top" : "angle",
      "type" : "general_concat",
      "name" : "angle"
    },
    {
      "bottom" : "angle",
      "weights" : {

      },
      "mode" : 3,
      "debug_info" : "751",
      "top" : "751",
      "type" : "activation",
      "name" : "751"
    },
    {
      "top" : "752",
      "w" : 1,
      "h" : 1,
      "name" : "752",
      "nd_rank" : 1,
      "type" : "load_constant",
      "k" : 1,
      "bottom" : "",
      "debug_info" : "752",
      "n" : 1,
      "weights" : {

      },
      "constant_blob" : 301
    },
    {
      "alpha" : -1,
      "bottom" : "752",
      "weights" : {

      },
      "mode" : 6,
      "debug_info" : "_neg_y_753",
      "top" : "_neg_y_753",
      "type" : "activation",
      "name" : "_neg_y_753",
      "beta" : 0
    },
    {
      "bottom" : "751,_neg_y_753",
      "alpha" : 1,
      "operation" : 0,
      "weights" : {

      },
      "fused_relu" : 0,
      "debug_info" : "753",
      "top" : "753",
      "type" : "elementwise",
      "name" : "753",
      "beta" : 0
    },
    {
      "bottom" : "753",
      "alpha" : 3.1415927410125732,
      "operation" : 1,
      "weights" : {

      },
      "fused_relu" : 0,
      "debug_info" : "pred_angle",
      "top" : "pred_angle",
      "type" : "elementwise",
      "name" : "pred_angle",
      "beta" : 0
    },
    {
      "pad_r" : 1,
      "fused_relu" : 0,
      "fused_tanh" : 0,
      "debug_info" : "input.199",
      "pad_fill_mode" : 0,
      "pad_b" : 1,
      "pad_l" : 1,
      "top" : "input.199",
      "K" : 40,
      "blob_biases" : 303,
      "name" : "input.199",
      "has_batch_norm" : 0,
      "type" : "convolution",
      "n_groups" : 1,
      "pad_t" : 1,
      "has_biases" : 1,
      "C" : 64,
      "bottom" : "input.133",
      "weights" : {
        "W_U8" : 305,
        "lut_to_float32" : 307
      },
      "Nx" : 3,
      "pad_mode" : 0,
      "pad_value" : 0,
      "Ny" : 3,
      "n_parallel" : 1
    },
    {
      "bottom" : "input.199",
      "weights" : {

      },
      "mode" : 3,
      "debug_info" : "input.201__silu_sigmoid__",
      "top" : "input.201__silu_sigmoid__",
      "type" : "activation",
      "name" : "input.201__silu_sigmoid__"
    },
    {
      "bottom" : "input.199,input.201__silu_sigmoid__",
      "alpha" : 1,
      "operation" : 1,
      "weights" : {

      },
      "fused_relu" : 0,
      "debug_info" : "input.201",
      "top" : "input.201",
      "type" : "elementwise",
      "name" : "input.201",
      "beta" : 0
    },
    {
      "pad_r" : 1,
      "fused_relu" : 0,
      "fused_tanh" : 0,
      "debug_info" : "input.203",
      "pad_fill_mode" : 0,
      "pad_b" : 1,
      "pad_l" : 1,
      "top" : "input.203",
      "K" : 64,
      "blob_biases" : 309,
      "name" : "input.203",
      "has_batch_norm" : 0,
      "type" : "convolution",
      "n_groups" : 1,
      "pad_t" : 1,
      "has_biases" : 1,
      "C" : 64,
      "bottom" : "input.201",
      "weights" : {
        "W_U8" : 311,
        "lut_to_float32" : 313
      },
      "Nx" : 3,
      "pad_mode" : 0,
      "pad_value" : 0,
      "Ny" : 3,
      "n_parallel" : 1
    },
    {
      "bottom" : "input.203",
      "weights" : {

      },
      "mode" : 3,
      "debug_info" : "input.205__silu_sigmoid__",
      "top" : "input.205__silu_sigmoid__",
      "type" : "activation",
      "name" : "input.205__silu_sigmoid__"
    },
    {
      "bottom" : "input.203,input.205__silu_sigmoid__",
      "alpha" : 1,
      "operation" : 1,
      "weights" : {

      },
      "fused_relu" : 0,
      "debug_info" : "input.205",
      "top" : "input.205",
      "type" : "elementwise",
      "name" : "input.205",
      "beta" : 0
    },
    {
      "pad_r" : 0,
      "fused_relu" : 0,
      "fused_tanh" : 0,
      "debug_info" : "783",
      "pad_fill_mode" : 0,
      "pad_b" : 0,
      "pad_l" : 0,
      "top" : "783",
      "K" : 64,
      "blob_biases" : 315,
      "name" : "783",
      "has_batch_norm" : 0,
      "type" : "convolution",
      "n_groups" : 1,
      "pad_t" : 0,
      "has_biases" : 1,
      "C" : 64,
      "bottom" : "input.205",
      "weights" : {
        "W_U8" : 317,
        "lut_to_float32" : 319
      },
      "Nx" : 1,
      "pad_mode" : 0,
      "pad_value" : 0,
      "Ny" : 1,
      "n_parallel" : 1
    },
    {
      "pad_r" : 1,
      "fused_relu" : 0,
      "fused_tanh" : 0,
      "debug_info" : "input.207",
      "pad_fill_mode" : 0,
      "pad_b" : 1,
      "pad_l" : 1,
      "top" : "input.207",
      "K" : 40,
      "blob_biases" : 321,
      "name" : "input.207",
      "has_batch_norm" : 0,
      "type" : "convolution",
      "n_groups" : 1,
      "pad_t" : 1,
      "has_biases" : 1,
      "C" : 40,
      "bottom" : "input.133",
      "weights" : {
        "W_U8" : 323,
        "lut_to_float32" : 325
      },
      "Nx" : 3,
      "pad_mode" : 0,
      "pad_value" : 0,
      "Ny" : 3,
      "n_parallel" : 1
    },
    {
      "bottom" : "input.207",
      "weights" : {

      },
      "mode" : 3,
      "debug_info" : "input.209__silu_sigmoid__",
      "top" : "input.209__silu_sigmoid__",
      "type" : "activation",
      "name" : "input.209__silu_sigmoid__"
    },
    {
      "bottom" : "input.207,input.209__silu_sigmoid__",
      "alpha" : 1,
      "operation" : 1,
      "weights" : {

      },
      "fused_relu" : 0,
      "debug_info" : "input.209",
      "top" : "input.209",
      "type" : "elementwise",
      "name" : "input.209",
      "beta" : 0
    },
    {
      "pad_r" : 1,
      "fused_relu" : 0,
      "fused_tanh" : 0,
      "debug_info" : "input.211",
      "pad_fill_mode" : 0,
      "pad_b" : 1,
      "pad_l" : 1,
      "top" : "input.211",
      "K" : 40,
      "blob_biases" : 327,
      "name" : "input.211",
      "has_batch_norm" : 0,
      "type" : "convolution",
      "n_groups" : 1,
      "pad_t" : 1,
      "has_biases" : 1,
      "C" : 40,
      "bottom" : "input.209",
      "weights" : {
        "W_U8" : 329,
        "lut_to_float32" : 331
      },
      "Nx" : 3,
      "pad_mode" : 0,
      "pad_value" : 0,
      "Ny" : 3,
      "n_parallel" : 1
    },
    {
      "bottom" : "input.211",
      "weights" : {

      },
      "mode" : 3,
      "debug_info" : "input.213__silu_sigmoid__",
      "top" : "input.213__silu_sigmoid__",
      "type" : "activation",
      "name" : "input.213__silu_sigmoid__"
    },
    {
      "bottom" : "input.211,input.213__silu_sigmoid__",
      "alpha" : 1,
      "operation" : 1,
      "weights" : {

      },
      "fused_relu" : 0,
      "debug_info" : "input.213",
      "top" : "input.213",
      "type" : "elementwise",
      "name" : "input.213",
      "beta" : 0
    },
    {
      "pad_r" : 0,
      "fused_relu" : 0,
      "fused_tanh" : 0,
      "debug_info" : "811",
      "pad_fill_mode" : 0,
      "pad_b" : 0,
      "pad_l" : 0,
      "top" : "811",
      "K" : 40,
      "blob_biases" : 333,
      "name" : "811",
      "has_batch_norm" : 0,
      "type" : "convolution",
      "n_groups" : 1,
      "pad_t" : 0,
      "has_biases" : 1,
      "C" : 8,
      "bottom" : "input.213",
      "weights" : {
        "W_U8" : 335,
        "lut_to_float32" : 337
      },
      "Nx" : 1,
      "pad_mode" : 0,
      "pad_value" : 0,
      "Ny" : 1,
      "n_parallel" : 1
    },
    {
      "weights" : {

      },
      "debug_info" : "xi.1",
      "top" : "xi.1",
      "type" : "concat",
      "name" : "xi.1",
      "bottom" : "783,811"
    },
    {
      "pad_r" : 1,
      "fused_relu" : 0,
      "fused_tanh" : 0,
      "debug_info" : "input.215",
      "pad_fill_mode" : 0,
      "pad_b" : 1,
      "pad_l" : 1,
      "top" : "input.215",
      "K" : 80,
      "blob_biases" : 339,
      "name" : "input.215",
      "has_batch_norm" : 0,
      "type" : "convolution",
      "n_groups" : 1,
      "pad_t" : 1,
      "has_biases" : 1,
      "C" : 64,
      "bottom" : "input.153",
      "weights" : {
        "W_U8" : 341,
        "lut_to_float32" : 343
      },
      "Nx" : 3,
      "pad_mode" : 0,
      "pad_value" : 0,
      "Ny" : 3,
      "n_parallel" : 1
    },
    {
      "bottom" : "input.215",
      "weights" : {

      },
      "mode" : 3,
      "debug_info" : "input.217__silu_sigmoid__",
      "top" : "input.217__silu_sigmoid__",
      "type" : "activation",
      "name" : "input.217__silu_sigmoid__"
    },
    {
      "bottom" : "input.215,input.217__silu_sigmoid__",
      "alpha" : 1,
      "operation" : 1,
      "weights" : {

      },
      "fused_relu" : 0,
      "debug_info" : "input.217",
      "top" : "input.217",
      "type" : "elementwise",
      "name" : "input.217",
      "beta" : 0
    },
    {
      "pad_r" : 1,
      "fused_relu" : 0,
      "fused_tanh" : 0,
      "debug_info" : "input.219",
      "pad_fill_mode" : 0,
      "pad_b" : 1,
      "pad_l" : 1,
      "top" : "input.219",
      "K" : 64,
      "blob_biases" : 345,
      "name" : "input.219",
      "has_batch_norm" : 0,
      "type" : "convolution",
      "n_groups" : 1,
      "pad_t" : 1,
      "has_biases" : 1,
      "C" : 64,
      "bottom" : "input.217",
      "weights" : {
        "W_U8" : 347,
        "lut_to_float32" : 349
      },
      "Nx" : 3,
      "pad_mode" : 0,
      "pad_value" : 0,
      "Ny" : 3,
      "n_parallel" : 1
    },
    {
      "bottom" : "input.219",
      "weights" : {

      },
      "mode" : 3,
      "debug_info" : "input.221__silu_sigmoid__",
      "top" : "input.221__silu_sigmoid__",
      "type" : "activation",
      "name" : "input.221__silu_sigmoid__"
    },
    {
      "bottom" : "input.219,input.221__silu_sigmoid__",
      "alpha" : 1,
      "operation" : 1,
      "weights" : {

      },
      "fused_relu" : 0,
      "debug_info" : "input.221",
      "top" : "input.221",
      "type" : "elementwise",
      "name" : "input.221",
      "beta" : 0
    },
    {
      "pad_r" : 0,
      "fused_relu" : 0,
      "fused_tanh" : 0,
      "debug_info" : "841",
      "pad_fill_mode" : 0,
      "pad_b" : 0,
      "pad_l" : 0,
      "top" : "841",
      "K" : 64,
      "blob_biases" : 351,
      "name" : "841",
      "has_batch_norm" : 0,
      "type" : "convolution",
      "n_groups" : 1,
      "pad_t" : 0,
      "has_biases" : 1,
      "C" : 64,
      "bottom" : "input.221",
      "weights" : {
        "W_U8" : 353,
        "lut_to_float32" : 355
      },
      "Nx" : 1,
      "pad_mode" : 0,
      "pad_value" : 0,
      "Ny" : 1,
      "n_parallel" : 1
    },
    {
      "pad_r" : 1,
      "fused_relu" : 0,
      "fused_tanh" : 0,
      "debug_info" : "input.223",
      "pad_fill_mode" : 0,
      "pad_b" : 1,
      "pad_l" : 1,
      "top" : "input.223",
      "K" : 80,
      "blob_biases" : 357,
      "name" : "input.223",
      "has_batch_norm" : 0,
      "type" : "convolution",
      "n_groups" : 1,
      "pad_t" : 1,
      "has_biases" : 1,
      "C" : 40,
      "bottom" : "input.153",
      "weights" : {
        "W_U8" : 359,
        "lut_to_float32" : 361
      },
      "Nx" : 3,
      "pad_mode" : 0,
      "pad_value" : 0,
      "Ny" : 3,
      "n_parallel" : 1
    },
    {
      "bottom" : "input.223",
      "weights" : {

      },
      "mode" : 3,
      "debug_info" : "input.225__silu_sigmoid__",
      "top" : "input.225__silu_sigmoid__",
      "type" : "activation",
      "name" : "input.225__silu_sigmoid__"
    },
    {
      "bottom" : "input.223,input.225__silu_sigmoid__",
      "alpha" : 1,
      "operation" : 1,
      "weights" : {

      },
      "fused_relu" : 0,
      "debug_info" : "input.225",
      "top" : "input.225",
      "type" : "elementwise",
      "name" : "input.225",
      "beta" : 0
    },
    {
      "pad_r" : 1,
      "fused_relu" : 0,
      "fused_tanh" : 0,
      "debug_info" : "input.227",
      "pad_fill_mode" : 0,
      "pad_b" : 1,
      "pad_l" : 1,
      "top" : "input.227",
      "K" : 40,
      "blob_biases" : 363,
      "name" : "input.227",
      "has_batch_norm" : 0,
      "type" : "convolution",
      "n_groups" : 1,
      "pad_t" : 1,
      "has_biases" : 1,
      "C" : 40,
      "bottom" : "input.225",
      "weights" : {
        "W_U8" : 365,
        "lut_to_float32" : 367
      },
      "Nx" : 3,
      "pad_mode" : 0,
      "pad_value" : 0,
      "Ny" : 3,
      "n_parallel" : 1
    },
    {
      "bottom" : "input.227",
      "weights" : {

      },
      "mode" : 3,
      "debug_info" : "input.229__silu_sigmoid__",
      "top" : "input.229__silu_sigmoid__",
      "type" : "activation",
      "name" : "input.229__silu_sigmoid__"
    },
    {
      "bottom" : "input.227,input.229__silu_sigmoid__",
      "alpha" : 1,
      "operation" : 1,
      "weights" : {

      },
      "fused_relu" : 0,
      "debug_info" : "input.229",
      "top" : "input.229",
      "type" : "elementwise",
      "name" : "input.229",
      "beta" : 0
    },
    {
      "pad_r" : 0,
      "fused_relu" : 0,
      "fused_tanh" : 0,
      "debug_info" : "869",
      "pad_fill_mode" : 0,
      "pad_b" : 0,
      "pad_l" : 0,
      "top" : "869",
      "K" : 40,
      "blob_biases" : 369,
      "name" : "869",
      "has_batch_norm" : 0,
      "type" : "convolution",
      "n_groups" : 1,
      "pad_t" : 0,
      "has_biases" : 1,
      "C" : 8,
      "bottom" : "input.229",
      "weights" : {
        "W_U8" : 371,
        "lut_to_float32" : 373
      },
      "Nx" : 1,
      "pad_mode" : 0,
      "pad_value" : 0,
      "Ny" : 1,
      "n_parallel" : 1
    },
    {
      "weights" : {

      },
      "debug_info" : "xi.3",
      "top" : "xi.3",
      "type" : "concat",
      "name" : "xi.3",
      "bottom" : "841,869"
    },
    {
      "pad_r" : 1,
      "fused_relu" : 0,
      "fused_tanh" : 0,
      "debug_info" : "input.231",
      "pad_fill_mode" : 0,
      "pad_b" : 1,
      "pad_l" : 1,
      "top" : "input.231",
      "K" : 104,
      "blob_biases" : 375,
      "name" : "input.231",
      "has_batch_norm" : 0,
      "type" : "convolution",
      "n_groups" : 1,
      "pad_t" : 1,
      "has_biases" : 1,
      "C" : 64,
      "bottom" : "input.189",
      "weights" : {
        "W_U8" : 377,
        "lut_to_float32" : 379
      },
      "Nx" : 3,
      "pad_mode" : 0,
      "pad_value" : 0,
      "Ny" : 3,
      "n_parallel" : 1
    },
    {
      "bottom" : "input.231",
      "weights" : {

      },
      "mode" : 3,
      "debug_info" : "input.233__silu_sigmoid__",
      "top" : "input.233__silu_sigmoid__",
      "type" : "activation",
      "name" : "input.233__silu_sigmoid__"
    },
    {
      "bottom" : "input.231,input.233__silu_sigmoid__",
      "alpha" : 1,
      "operation" : 1,
      "weights" : {

      },
      "fused_relu" : 0,
      "debug_info" : "input.233",
      "top" : "input.233",
      "type" : "elementwise",
      "name" : "input.233",
      "beta" : 0
    },
    {
      "pad_r" : 1,
      "fused_relu" : 0,
      "fused_tanh" : 0,
      "debug_info" : "input.235",
      "pad_fill_mode" : 0,
      "pad_b" : 1,
      "pad_l" : 1,
      "top" : "input.235",
      "K" : 64,
      "blob_biases" : 381,
      "name" : "input.235",
      "has_batch_norm" : 0,
      "type" : "convolution",
      "n_groups" : 1,
      "pad_t" : 1,
      "has_biases" : 1,
      "C" : 64,
      "bottom" : "input.233",
      "weights" : {
        "W_U8" : 383,
        "lut_to_float32" : 385
      },
      "Nx" : 3,
      "pad_mode" : 0,
      "pad_value" : 0,
      "Ny" : 3,
      "n_parallel" : 1
    },
    {
      "bottom" : "input.235",
      "weights" : {

      },
      "mode" : 3,
      "debug_info" : "input.237__silu_sigmoid__",
      "top" : "input.237__silu_sigmoid__",
      "type" : "activation",
      "name" : "input.237__silu_sigmoid__"
    },
    {
      "bottom" : "input.235,input.237__silu_sigmoid__",
      "alpha" : 1,
      "operation" : 1,
      "weights" : {

      },
      "fused_relu" : 0,
      "debug_info" : "input.237",
      "top" : "input.237",
      "type" : "elementwise",
      "name" : "input.237",
      "beta" : 0
    },
    {
      "pad_r" : 0,
      "fused_relu" : 0,
      "fused_tanh" : 0,
      "debug_info" : "899",
      "pad_fill_mode" : 0,
      "pad_b" : 0,
      "pad_l" : 0,
      "top" : "899",
      "K" : 64,
      "blob_biases" : 387,
      "name" : "899",
      "has_batch_norm" : 0,
      "type" : "convolution",
      "n_groups" : 1,
      "pad_t" : 0,
      "has_biases" : 1,
      "C" : 64,
      "bottom" : "input.237",
      "weights" : {
        "W_U8" : 389,
        "lut_to_float32" : 391
      },
      "Nx" : 1,
      "pad_mode" : 0,
      "pad_value" : 0,
      "Ny" : 1,
      "n_parallel" : 1
    },
    {
      "pad_r" : 1,
      "fused_relu" : 0,
      "fused_tanh" : 0,
      "debug_info" : "input.239",
      "pad_fill_mode" : 0,
      "pad_b" : 1,
      "pad_l" : 1,
      "top" : "input.239",
      "K" : 104,
      "blob_biases" : 393,
      "name" : "input.239",
      "has_batch_norm" : 0,
      "type" : "convolution",
      "n_groups" : 1,
      "pad_t" : 1,
      "has_biases" : 1,
      "C" : 40,
      "bottom" : "input.189",
      "weights" : {
        "W_U8" : 395,
        "lut_to_float32" : 397
      },
      "Nx" : 3,
      "pad_mode" : 0,
      "pad_value" : 0,
      "Ny" : 3,
      "n_parallel" : 1
    },
    {
      "bottom" : "input.239",
      "weights" : {

      },
      "mode" : 3,
      "debug_info" : "input.241__silu_sigmoid__",
      "top" : "input.241__silu_sigmoid__",
      "type" : "activation",
      "name" : "input.241__silu_sigmoid__"
    },
    {
      "bottom" : "input.239,input.241__silu_sigmoid__",
      "alpha" : 1,
      "operation" : 1,
      "weights" : {

      },
      "fused_relu" : 0,
      "debug_info" : "input.241",
      "top" : "input.241",
      "type" : "elementwise",
      "name" : "input.241",
      "beta" : 0
    },
    {
      "pad_r" : 1,
      "fused_relu" : 0,
      "fused_tanh" : 0,
      "debug_info" : "input.243",
      "pad_fill_mode" : 0,
      "pad_b" : 1,
      "pad_l" : 1,
      "top" : "input.243",
      "K" : 40,
      "blob_biases" : 399,
      "name" : "input.243",
      "has_batch_norm" : 0,
      "type" : "convolution",
      "n_groups" : 1,
      "pad_t" : 1,
      "has_biases" : 1,
      "C" : 40,
      "bottom" : "input.241",
      "weights" : {
        "W_U8" : 401,
        "lut_to_float32" : 403
      },
      "Nx" : 3,
      "pad_mode" : 0,
      "pad_value" : 0,
      "Ny" : 3,
      "n_parallel" : 1
    },
    {
      "bottom" : "input.243",
      "weights" : {

      },
      "mode" : 3,
      "debug_info" : "input.245__silu_sigmoid__",
      "top" : "input.245__silu_sigmoid__",
      "type" : "activation",
      "name" : "input.245__silu_sigmoid__"
    },
    {
      "bottom" : "input.243,input.245__silu_sigmoid__",
      "alpha" : 1,
      "operation" : 1,
      "weights" : {

      },
      "fused_relu" : 0,
      "debug_info" : "input.245",
      "top" : "input.245",
      "type" : "elementwise",
      "name" : "input.245",
      "beta" : 0
    },
    {
      "pad_r" : 0,
      "fused_relu" : 0,
      "fused_tanh" : 0,
      "debug_info" : "927",
      "pad_fill_mode" : 0,
      "pad_b" : 0,
      "pad_l" : 0,
      "top" : "927",
      "K" : 40,
      "blob_biases" : 405,
      "name" : "927",
      "has_batch_norm" : 0,
      "type" : "convolution",
      "n_groups" : 1,
      "pad_t" : 0,
      "has_biases" : 1,
      "C" : 8,
      "bottom" : "input.245",
      "weights" : {
        "W_U8" : 407,
        "lut_to_float32" : 409
      },
      "Nx" : 1,
      "pad_mode" : 0,
      "pad_value" : 0,
      "Ny" : 1,
      "n_parallel" : 1
    },
    {
      "weights" : {

      },
      "debug_info" : "xi",
      "top" : "xi",
      "type" : "concat",
      "name" : "xi",
      "bottom" : "899,927"
    },
    {
      "name" : "932",
      "weights" : {

      },
      "dst_w" : -1,
      "version" : 1,
      "dst_n" : 1,
      "dst_nd_rank" : 3,
      "type" : "reshape",
      "dst_h" : 72,
      "mode" : 0,
      "dynamic_shape" : false,
      "bottom" : "xi.1",
      "debug_info" : "932",
      "dst_seq" : 1,
      "dst_k" : 1,
      "top" : "932"
    },
    {
      "name" : "934",
      "weights" : {

      },
      "dst_w" : -1,
      "version" : 1,
      "dst_n" : 1,
      "dst_nd_rank" : 3,
      "type" : "reshape",
      "dst_h" : 72,
      "mode" : 0,
      "dynamic_shape" : false,
      "bottom" : "xi.3",
      "debug_info" : "934",
      "dst_seq" : 1,
      "dst_k" : 1,
      "top" : "934"
    },
    {
      "name" : "936",
      "weights" : {

      },
      "dst_w" : -1,
      "version" : 1,
      "dst_n" : 1,
      "dst_nd_rank" : 3,
      "type" : "reshape",
      "dst_h" : 72,
      "mode" : 0,
      "dynamic_shape" : false,
      "bottom" : "xi",
      "debug_info" : "936",
      "dst_seq" : 1,
      "dst_k" : 1,
      "top" : "936"
    },
    {
      "bottom" : "932,934,936",
      "weights" : {

      },
      "nd_mode" : true,
      "axis" : 2,
      "debug_info" : "938",
      "top" : "938",
      "type" : "general_concat",
      "name" : "938"
    },
    {
      "begin_104" : 0,
      "begin_63" : 0,
      "begin_59" : 0,
      "begin_64" : 0,
      "begin_105" : 0,
      "begin_65" : 0,
      "begin_0" : 64,
      "begin_70" : 0,
      "begin_66" : 0,
      "begin_106" : 0,
      "begin_110" : 0,
      "begin_2" : 0,
      "begin_71" : 0,
      "begin_67" : 0,
      "begin_68" : 0,
      "begin_107" : 0,
      "begin_111" : 0,
      "begin_4" : 0,
      "begin_72" : 0,
      "begin_73" : 0,
      "begin_69" : 0,
      "begin_6" : 0,
      "begin_74" : 0,
      "begin_108" : 0,
      "type" : "split_nd",
      "begin_8" : 0,
      "begin_112" : 0,
      "begin_75" : 0,
      "begin_10" : 0,
      "begin_80" : 0,
      "begin_76" : 0,
      "begin_109" : 0,
      "begin_113" : 0,
      "begin_11" : 0,
      "nd_axis" : 1,
      "begin_81" : 0,
      "begin_77" : 0,
      "begin_114" : 0,
      "begin_12" : 0,
      "begin_78" : 0,
      "begin_82" : 0,
      "begin_13" : 0,
      "begin_83" : 0,
      "begin_79" : 0,
      "begin_115" : 0,
      "begin_14" : 0,
      "begin_84" : 0,
      "begin_15" : 0,
      "begin_85" : 0,
      "begin_116" : 0,
      "begin_120" : 0,
      "begin_20" : 0,
      "begin_86" : 0,
      "begin_16" : 0,
      "begin_90" : 0,
      "begin_21" : 0,
      "begin_91" : 0,
      "begin_87" : 0,
      "begin_17" : 0,
      "begin_117" : 0,
      "begin_121" : 0,
      "begin_18" : 0,
      "begin_92" : 0,
      "begin_88" : 0,
      "begin_22" : 0,
      "begin_23" : 0,
      "begin_89" : 0,
      "begin_19" : 0,
      "begin_93" : 0,
      "begin_118" : 0,
      "begin_122" : 0,
      "begin_24" : 0,
      "begin_94" : 0,
      "begin_25" : 0,
      "begin_95" : 0,
      "begin_119" : 0,
      "begin_123" : 0,
      "begin_30" : 0,
      "begin_26" : 0,
      "begin_96" : 0,
      "begin_124" : 0,
      "begin_31" : 0,
      "begin_97" : 0,
      "begin_27" : 0,
      "begin_28" : 0,
      "begin_98" : 0,
      "begin_32" : 0,
      "begin_125" : 0,
      "begin_33" : 0,
      "begin_29" : 0,
      "begin_99" : 0,
      "begin_1" : 8,
      "weights" : {

      },
      "begin_34" : 0,
      "bottom" : "938",
      "begin_3" : 0,
      "begin_126" : 0,
      "begin_35" : 0,
      "begin_5" : 0,
      "begin_36" : 0,
      "begin_40" : 0,
      "begin_127" : 0,
      "name" : "940",
      "begin_41" : 0,
      "begin_37" : 0,
      "begin_7" : 0,
      "begin_42" : 0,
      "begin_38" : 0,
      "begin_9" : 0,
      "begin_39" : 0,
      "begin_43" : 0,
      "begin_44" : 0,
      "begin_45" : 0,
      "begin_50" : 0,
      "begin_46" : 0,
      "begin_51" : 0,
      "begin_47" : 0,
      "begin_100" : 0,
      "begin_52" : 0,
      "debug_info" : "940",
      "begin_48" : 0,
      "top" : "940_0,940_1",
      "begin_101" : 0,
      "begin_53" : 0,
      "begin_49" : 0,
      "begin_54" : 0,
      "begin_55" : 0,
      "begin_102" : 0,
      "begin_60" : 0,
      "begin_56" : 0,
      "begin_103" : 0,
      "begin_57" : 0,
      "begin_61" : 0,
      "begin_62" : 0,
      "begin_58" : 0
    },
    {
      "name" : "947",
      "weights" : {

      },
      "dst_w" : 2016,
      "version" : 1,
      "dst_n" : 1,
      "dst_nd_rank" : 4,
      "type" : "reshape",
      "dst_h" : 16,
      "mode" : 0,
      "dynamic_shape" : false,
      "bottom" : "940_0",
      "debug_info" : "947",
      "dst_seq" : 1,
      "dst_k" : 4,
      "top" : "947"
    },
    {
      "axis_h" : 2,
      "axis_w" : 0,
      "bottom" : "947",
      "axis_k" : 1,
      "axis_n" : 3,
      "axis_seq" : 4,
      "weights" : {

      },
      "debug_info" : "transpose_0",
      "top" : "transpose_0",
      "type" : "transpose",
      "name" : "transpose_0"
    },
    {
      "bottom" : "transpose_0",
      "weights" : {

      },
      "debug_info" : "input",
      "top" : "input",
      "C" : 2,
      "type" : "softmax",
      "name" : "input"
    },
    {
      "pad_r" : 0,
      "fused_relu" : 0,
      "fused_tanh" : 0,
      "debug_info" : "955",
      "pad_fill_mode" : 0,
      "pad_b" : 0,
      "pad_l" : 0,
      "top" : "955",
      "K" : 16,
      "name" : "955",
      "has_batch_norm" : 0,
      "type" : "convolution",
      "n_groups" : 1,
      "pad_t" : 0,
      "has_biases" : 0,
      "C" : 1,
      "bottom" : "input",
      "weights" : {
        "W_U8" : 411,
        "lut_to_float32" : 413
      },
      "Nx" : 1,
      "pad_mode" : 0,
      "pad_value" : 0,
      "Ny" : 1,
      "n_parallel" : 1
    },
    {
      "name" : "957",
      "weights" : {

      },
      "dst_w" : 2016,
      "version" : 1,
      "dst_n" : 1,
      "dst_nd_rank" : 3,
      "type" : "reshape",
      "dst_h" : 4,
      "mode" : 0,
      "dynamic_shape" : false,
      "bottom" : "955",
      "debug_info" : "957",
      "dst_seq" : 1,
      "dst_k" : 1,
      "top" : "957"
    },
    {
      "begin_104" : 0,
      "begin_63" : 0,
      "begin_59" : 0,
      "begin_64" : 0,
      "begin_105" : 0,
      "begin_65" : 0,
      "begin_0" : 0,
      "begin_70" : 0,
      "begin_66" : 0,
      "begin_106" : 0,
      "begin_110" : 0,
      "begin_2" : 0,
      "begin_71" : 0,
      "begin_67" : 0,
      "begin_68" : 0,
      "begin_107" : 0,
      "begin_111" : 0,
      "begin_4" : 0,
      "begin_72" : 0,
      "begin_73" : 0,
      "begin_69" : 0,
      "begin_6" : 0,
      "begin_74" : 0,
      "begin_108" : 0,
      "type" : "split_nd",
      "begin_8" : 0,
      "begin_112" : 0,
      "begin_75" : 0,
      "begin_10" : 0,
      "begin_80" : 0,
      "begin_76" : 0,
      "begin_109" : 0,
      "begin_113" : 0,
      "begin_11" : 0,
      "nd_axis" : 1,
      "begin_81" : 0,
      "begin_77" : 0,
      "begin_114" : 0,
      "begin_12" : 0,
      "begin_78" : 0,
      "begin_82" : 0,
      "begin_13" : 0,
      "begin_83" : 0,
      "begin_79" : 0,
      "begin_115" : 0,
      "begin_14" : 0,
      "begin_84" : 0,
      "begin_15" : 0,
      "begin_85" : 0,
      "begin_116" : 0,
      "begin_120" : 0,
      "begin_20" : 0,
      "begin_86" : 0,
      "begin_16" : 0,
      "begin_90" : 0,
      "begin_21" : 0,
      "begin_91" : 0,
      "begin_87" : 0,
      "begin_17" : 0,
      "begin_117" : 0,
      "begin_121" : 0,
      "begin_18" : 0,
      "begin_92" : 0,
      "begin_88" : 0,
      "begin_22" : 0,
      "begin_23" : 0,
      "begin_89" : 0,
      "begin_19" : 0,
      "begin_93" : 0,
      "begin_118" : 0,
      "begin_122" : 0,
      "begin_24" : 0,
      "begin_94" : 0,
      "begin_25" : 0,
      "begin_95" : 0,
      "begin_119" : 0,
      "begin_123" : 0,
      "begin_30" : 0,
      "begin_26" : 0,
      "begin_96" : 0,
      "begin_124" : 0,
      "begin_31" : 0,
      "begin_97" : 0,
      "begin_27" : 0,
      "begin_28" : 0,
      "begin_98" : 0,
      "begin_32" : 0,
      "begin_125" : 0,
      "begin_33" : 0,
      "begin_29" : 0,
      "begin_99" : 0,
      "begin_1" : 0,
      "weights" : {

      },
      "begin_34" : 0,
      "bottom" : "957",
      "begin_3" : 0,
      "begin_126" : 0,
      "begin_35" : 0,
      "begin_5" : 0,
      "begin_36" : 0,
      "begin_40" : 0,
      "begin_127" : 0,
      "name" : "959",
      "begin_41" : 0,
      "begin_37" : 0,
      "begin_7" : 0,
      "begin_42" : 0,
      "begin_38" : 0,
      "begin_9" : 0,
      "begin_39" : 0,
      "begin_43" : 0,
      "begin_44" : 0,
      "begin_45" : 0,
      "begin_50" : 0,
      "begin_46" : 0,
      "begin_51" : 0,
      "begin_47" : 0,
      "begin_100" : 0,
      "begin_52" : 0,
      "debug_info" : "959",
      "begin_48" : 0,
      "top" : "959_0,959_1",
      "begin_101" : 0,
      "begin_53" : 0,
      "begin_49" : 0,
      "begin_54" : 0,
      "begin_55" : 0,
      "begin_102" : 0,
      "begin_60" : 0,
      "begin_56" : 0,
      "begin_103" : 0,
      "begin_57" : 0,
      "begin_61" : 0,
      "begin_62" : 0,
      "begin_58" : 0
    },
    {
      "bottom" : "pred_angle",
      "alpha" : 1,
      "operation" : 114,
      "weights" : {

      },
      "fused_relu" : 0,
      "debug_info" : "cos",
      "top" : "cos",
      "type" : "elementwise",
      "name" : "cos",
      "beta" : 0
    },
    {
      "bottom" : "pred_angle",
      "alpha" : 1,
      "operation" : 115,
      "weights" : {

      },
      "fused_relu" : 0,
      "debug_info" : "sin",
      "top" : "sin",
      "type" : "elementwise",
      "name" : "sin",
      "beta" : 0
    },
    {
      "alpha" : -1,
      "bottom" : "959_0",
      "weights" : {

      },
      "mode" : 6,
      "debug_info" : "_neg_y_964",
      "top" : "_neg_y_964",
      "type" : "activation",
      "name" : "_neg_y_964",
      "beta" : 0
    },
    {
      "bottom" : "_neg_y_964,959_1",
      "alpha" : 1,
      "operation" : 0,
      "weights" : {

      },
      "fused_relu" : 0,
      "debug_info" : "964",
      "top" : "964",
      "type" : "elementwise",
      "name" : "964",
      "beta" : 0
    },
    {
      "bottom" : "964",
      "alpha" : 0.5,
      "operation" : 1,
      "weights" : {

      },
      "fused_relu" : 0,
      "debug_info" : "_inversed_966",
      "top" : "_inversed_966",
      "type" : "elementwise",
      "name" : "_inversed_966",
      "beta" : 0
    },
    {
      "begin_104" : 0,
      "begin_63" : 0,
      "begin_59" : 0,
      "begin_64" : 0,
      "begin_105" : 0,
      "begin_65" : 0,
      "begin_0" : 0,
      "begin_70" : 0,
      "begin_66" : 0,
      "begin_106" : 0,
      "begin_110" : 0,
      "begin_2" : 0,
      "begin_71" : 0,
      "begin_67" : 0,
      "begin_68" : 0,
      "begin_107" : 0,
      "begin_111" : 0,
      "begin_4" : 0,
      "begin_72" : 0,
      "begin_73" : 0,
      "begin_69" : 0,
      "begin_6" : 0,
      "begin_74" : 0,
      "begin_108" : 0,
      "type" : "split_nd",
      "begin_8" : 0,
      "begin_112" : 0,
      "begin_75" : 0,
      "begin_10" : 0,
      "begin_80" : 0,
      "begin_76" : 0,
      "begin_109" : 0,
      "begin_113" : 0,
      "begin_11" : 0,
      "nd_axis" : 1,
      "begin_81" : 0,
      "begin_77" : 0,
      "begin_114" : 0,
      "begin_12" : 0,
      "begin_78" : 0,
      "begin_82" : 0,
      "begin_13" : 0,
      "begin_83" : 0,
      "begin_79" : 0,
      "begin_115" : 0,
      "begin_14" : 0,
      "begin_84" : 0,
      "begin_15" : 0,
      "begin_85" : 0,
      "begin_116" : 0,
      "begin_120" : 0,
      "begin_20" : 0,
      "begin_86" : 0,
      "begin_16" : 0,
      "begin_90" : 0,
      "begin_21" : 0,
      "begin_91" : 0,
      "begin_87" : 0,
      "begin_17" : 0,
      "begin_117" : 0,
      "begin_121" : 0,
      "begin_18" : 0,
      "begin_92" : 0,
      "begin_88" : 0,
      "begin_22" : 0,
      "begin_23" : 0,
      "begin_89" : 0,
      "begin_19" : 0,
      "begin_93" : 0,
      "begin_118" : 0,
      "begin_122" : 0,
      "begin_24" : 0,
      "begin_94" : 0,
      "begin_25" : 0,
      "begin_95" : 0,
      "begin_119" : 0,
      "begin_123" : 0,
      "begin_30" : 0,
      "begin_26" : 0,
      "begin_96" : 0,
      "begin_124" : 0,
      "begin_31" : 0,
      "begin_97" : 0,
      "begin_27" : 0,
      "begin_28" : 0,
      "begin_98" : 0,
      "begin_32" : 0,
      "begin_125" : 0,
      "begin_33" : 0,
      "begin_29" : 0,
      "begin_99" : 0,
      "begin_1" : 0,
      "weights" : {

      },
      "begin_34" : 0,
      "bottom" : "_inversed_966",
      "begin_3" : 0,
      "begin_126" : 0,
      "begin_35" : 0,
      "begin_5" : 0,
      "begin_36" : 0,
      "begin_40" : 0,
      "begin_127" : 0,
      "name" : "967",
      "begin_41" : 0,
      "begin_37" : 0,
      "begin_7" : 0,
      "begin_42" : 0,
      "begin_38" : 0,
      "begin_9" : 0,
      "begin_39" : 0,
      "begin_43" : 0,
      "begin_44" : 0,
      "begin_45" : 0,
      "begin_50" : 0,
      "begin_46" : 0,
      "begin_51" : 0,
      "begin_47" : 0,
      "begin_100" : 0,
      "begin_52" : 0,
      "debug_info" : "967",
      "begin_48" : 0,
      "top" : "967_0,967_1",
      "begin_101" : 0,
      "begin_53" : 0,
      "begin_49" : 0,
      "begin_54" : 0,
      "begin_55" : 0,
      "begin_102" : 0,
      "begin_60" : 0,
      "begin_56" : 0,
      "begin_103" : 0,
      "begin_57" : 0,
      "begin_61" : 0,
      "begin_62" : 0,
      "begin_58" : 0
    },
    {
      "bottom" : "967_0,cos",
      "alpha" : 1,
      "operation" : 1,
      "weights" : {

      },
      "fused_relu" : 0,
      "debug_info" : "970",
      "top" : "970",
      "type" : "elementwise",
      "name" : "970",
      "beta" : 0
    },
    {
      "bottom" : "967_1,sin",
      "alpha" : 1,
      "operation" : 1,
      "weights" : {

      },
      "fused_relu" : 0,
      "debug_info" : "971",
      "top" : "971",
      "type" : "elementwise",
      "name" : "971",
      "beta" : 0
    },
    {
      "alpha" : -1,
      "bottom" : "971",
      "weights" : {

      },
      "mode" : 6,
      "debug_info" : "_neg_y_x.5",
      "top" : "_neg_y_x.5",
      "type" : "activation",
      "name" : "_neg_y_x.5",
      "beta" : 0
    },
    {
      "bottom" : "_neg_y_x.5,970",
      "alpha" : 1,
      "operation" : 0,
      "weights" : {

      },
      "fused_relu" : 0,
      "debug_info" : "x.5",
      "top" : "x.5",
      "type" : "elementwise",
      "name" : "x.5",
      "beta" : 0
    },
    {
      "bottom" : "967_0,sin",
      "alpha" : 1,
      "operation" : 1,
      "weights" : {

      },
      "fused_relu" : 0,
      "debug_info" : "973",
      "top" : "973",
      "type" : "elementwise",
      "name" : "973",
      "beta" : 0
    },
    {
      "bottom" : "967_1,cos",
      "alpha" : 1,
      "operation" : 1,
      "weights" : {

      },
      "fused_relu" : 0,
      "debug_info" : "974",
      "top" : "974",
      "type" : "elementwise",
      "name" : "974",
      "beta" : 0
    },
    {
      "bottom" : "973,974",
      "alpha" : 1,
      "operation" : 0,
      "weights" : {

      },
      "fused_relu" : 0,
      "debug_info" : "y",
      "top" : "y",
      "type" : "elementwise",
      "name" : "y",
      "beta" : 0
    },
    {
      "bottom" : "x.5,y",
      "weights" : {

      },
      "nd_mode" : true,
      "axis" : 1,
      "debug_info" : "977",
      "top" : "977",
      "type" : "general_concat",
      "name" : "977"
    },
    {
      "top" : "anchor_points",
      "w" : 2016,
      "h" : 2,
      "name" : "anchor_points",
      "nd_rank" : 3,
      "type" : "load_constant",
      "k" : 1,
      "bottom" : "",
      "debug_info" : "anchor_points",
      "n" : 1,
      "weights" : {

      },
      "constant_blob" : 415
    },
    {
      "bottom" : "977,anchor_points",
      "alpha" : 1,
      "operation" : 0,
      "weights" : {

      },
      "fused_relu" : 0,
      "debug_info" : "xy",
      "top" : "xy",
      "type" : "elementwise",
      "name" : "xy",
      "beta" : 0
    },
    {
      "bottom" : "959_0,959_1",
      "alpha" : 1,
      "operation" : 0,
      "weights" : {

      },
      "fused_relu" : 0,
      "debug_info" : "979",
      "top" : "979",
      "type" : "elementwise",
      "name" : "979",
      "beta" : 0
    },
    {
      "bottom" : "xy,979",
      "weights" : {

      },
      "nd_mode" : true,
      "axis" : 1,
      "debug_info" : "981",
      "top" : "981",
      "type" : "general_concat",
      "name" : "981"
    },
    {
      "top" : "625",
      "w" : 2016,
      "h" : 1,
      "name" : "625",
      "nd_rank" : 2,
      "type" : "load_constant",
      "k" : 1,
      "bottom" : "",
      "debug_info" : "625",
      "n" : 1,
      "weights" : {

      },
      "constant_blob" : 417
    },
    {
      "bottom" : "981,625",
      "alpha" : 1,
      "operation" : 1,
      "weights" : {

      },
      "fused_relu" : 0,
      "debug_info" : "dbox",
      "nd_mode" : true,
      "top" : "dbox",
      "type" : "elementwise",
      "name" : "dbox",
      "beta" : 0
    },
    {
      "bottom" : "940_1",
      "weights" : {

      },
      "mode" : 3,
      "debug_info" : "983",
      "top" : "983",
      "type" : "activation",
      "name" : "983"
    },
    {
      "bottom" : "dbox,983,pred_angle",
      "weights" : {

      },
      "nd_mode" : true,
      "debug_info" : "985",
      "axis" : 1,
      "top" : "var_985",
      "type" : "general_concat",
      "name" : "985",
      "attributes" : {
        "is_output" : 1
      }
    }
  ],
  "transform_params" : {
    "image" : {
      "bias_a" : 0,
      "bias_g" : 0,
      "bias_r" : 0,
      "bias_b" : 0,
      "center_mean" : 0,
      "is_network_bgr" : 0,
      "scale" : 0.0039215688593685627
    }
  },
  "storage" : "model.espresso.weights",
  "metadata_in_weights" : [

  ],
  "properties" : {

  },
  "analyses" : {

  },
  "format_version" : 200
}