{
  "layers" : [
    {
      "pad_r" : 1,
      "fused_relu" : 0,
      "fused_tanh" : 0,
      "debug_info" : "x.3",
      "pad_fill_mode" : 0,
      "pad_b" : 1,
      "pad_l" : 1,
      "top" : "x.3",
      "K" : 3,
      "blob_biases" : 1,
      "stride_x" : 2,
      "name" : "x.3",
      "has_batch_norm" : 0,
      "type" : "convolution",
      "n_groups" : 1,
      "pad_t" : 1,
      "stride_y" : 2,
      "has_biases" : 1,
      "C" : 12,
      "bottom" : "image",
      "weights" : {
        "W_U8" : 3,
        "per_ch_qscale" : 7,
        "per_ch_qbias" : 5
      },
      "Nx" : 3,
      "pad_mode" : 0,
      "pad_value" : 0,
      "Ny" : 3,
      "n_parallel" : 1
    },
    {
      "bottom" : "x.3",
      "weights" : {

      },
      "mode" : 3,
      "debug_info" : "46",
      "top" : "46",
      "type" : "activation",
      "name" : "46"
    },
    {
      "bottom" : "x.3,46",
      "alpha" : 1,
      "operation" : 1,
      "weights" : {

      },
      "fused_relu" : 0,
      "debug_info" : "input.3",
      "top" : "input.3",
      "type" : "elementwise",
      "name" : "input.3",
      "beta" : 0
    },
    {
      "pad_r" : 1,
      "fused_relu" : 0,
      "fused_tanh" : 0,
      "debug_info" : "x.5",
      "pad_fill_mode" : 0,
      "pad_b" : 1,
      "pad_l" : 1,
      "top" : "x.5",
      "K" : 12,
      "blob_biases" : 9,
      "stride_x" : 2,
      "name" : "x.5",
      "has_batch_norm" : 0,
      "type" : "convolution",
      "n_groups" : 1,
      "pad_t" : 1,
      "stride_y" : 2,
      "has_biases" : 1,
      "C" : 24,
      "bottom" : "input.3",
      "weights" : {
        "W_U8" : 11,
        "per_ch_qscale" : 15,
        "per_ch_qbias" : 13
      },
      "Nx" : 3,
      "pad_mode" : 0,
      "pad_value" : 0,
      "Ny" : 3,
      "n_parallel" : 1
    },
    {
      "bottom" : "x.5",
      "weights" : {

      },
      "mode" : 3,
      "debug_info" : "63",
      "top" : "63",
      "type" : "activation",
      "name" : "63"
    },
    {
      "bottom" : "x.5,63",
      "alpha" : 1,
      "operation" : 1,
      "weights" : {

      },
      "fused_relu" : 0,
      "debug_info" : "input.7",
      "top" : "input.7",
      "type" : "elementwise",
      "name" : "input.7",
      "beta" : 0
    },
    {
      "pad_r" : 0,
      "fused_relu" : 0,
      "fused_tanh" : 0,
      "debug_info" : "x.7",
      "pad_fill_mode" : 0,
      "pad_b" : 0,
      "pad_l" : 0,
      "top" : "x.7",
      "K" : 24,
      "blob_biases" : 17,
      "name" : "x.7",
      "has_batch_norm" : 0,
      "type" : "convolution",
      "n_groups" : 1,
      "pad_t" : 0,
      "has_biases" : 1,
      "C" : 24,
      "bottom" : "input.7",
      "weights" : {
        "W_U8" : 19,
        "per_ch_qscale" : 23,
        "per_ch_qbias" : 21
      },
      "Nx" : 1,
      "pad_mode" : 0,
      "pad_value" : 0,
      "Ny" : 1,
      "n_parallel" : 1
    },
    {
      "bottom" : "x.7",
      "weights" : {

      },
      "mode" : 3,
      "debug_info" : "82",
      "top" : "82",
      "type" : "activation",
      "name" : "82"
    },
    {
      "bottom" : "x.7,82",
      "alpha" : 1,
      "operation" : 1,
      "weights" : {

      },
      "fused_relu" : 0,
      "debug_info" : "83",
      "top" : "83",
      "type" : "elementwise",
      "name" : "83",
      "beta" : 0
    },
    {
      "begin_104" : 0,
      "begin_63" : 0,
      "begin_59" : 0,
      "begin_64" : 0,
      "begin_105" : 0,
      "begin_65" : 0,
      "begin_0" : 0,
      "begin_70" : 0,
      "begin_66" : 0,
      "begin_106" : 0,
      "begin_110" : 0,
      "begin_2" : 0,
      "begin_71" : 0,
      "begin_67" : 0,
      "begin_68" : 0,
      "begin_107" : 0,
      "begin_111" : 0,
      "begin_4" : 0,
      "begin_72" : 0,
      "begin_73" : 0,
      "begin_69" : 0,
      "begin_6" : 0,
      "begin_74" : 0,
      "begin_108" : 0,
      "type" : "split_nd",
      "begin_8" : 0,
      "begin_112" : 0,
      "begin_75" : 0,
      "begin_10" : 0,
      "begin_80" : 0,
      "begin_76" : 0,
      "begin_109" : 0,
      "begin_113" : 0,
      "begin_11" : 0,
      "nd_axis" : 1,
      "begin_81" : 0,
      "begin_77" : 0,
      "begin_114" : 0,
      "begin_12" : 0,
      "begin_78" : 0,
      "begin_82" : 0,
      "begin_13" : 0,
      "begin_83" : 0,
      "begin_79" : 0,
      "begin_115" : 0,
      "begin_14" : 0,
      "begin_84" : 0,
      "begin_15" : 0,
      "begin_85" : 0,
      "begin_116" : 0,
      "begin_120" : 0,
      "begin_20" : 0,
      "begin_86" : 0,
      "begin_16" : 0,
      "begin_90" : 0,
      "begin_21" : 0,
      "begin_91" : 0,
      "begin_87" : 0,
      "begin_17" : 0,
      "begin_117" : 0,
      "begin_121" : 0,
      "begin_18" : 0,
      "begin_92" : 0,
      "begin_88" : 0,
      "begin_22" : 0,
      "begin_23" : 0,
      "begin_89" : 0,
      "begin_19" : 0,
      "begin_93" : 0,
      "begin_118" : 0,
      "begin_122" : 0,
      "begin_24" : 0,
      "begin_94" : 0,
      "begin_25" : 0,
      "begin_95" : 0,
      "begin_119" : 0,
      "begin_123" : 0,
      "begin_30" : 0,
      "begin_26" : 0,
      "begin_96" : 0,
      "begin_124" : 0,
      "begin_31" : 0,
      "begin_97" : 0,
      "begin_27" : 0,
      "begin_28" : 0,
      "begin_98" : 0,
      "begin_32" : 0,
      "begin_125" : 0,
      "begin_33" : 0,
      "begin_29" : 0,
      "begin_99" : 0,
      "begin_1" : 0,
      "weights" : {

      },
      "begin_34" : 0,
      "bottom" : "83",
      "begin_3" : 0,
      "begin_126" : 0,
      "begin_35" : 0,
      "begin_5" : 0,
      "begin_36" : 0,
      "begin_40" : 0,
      "begin_127" : 0,
      "name" : "85",
      "begin_41" : 0,
      "begin_37" : 0,
      "begin_7" : 0,
      "begin_42" : 0,
      "begin_38" : 0,
      "begin_9" : 0,
      "begin_39" : 0,
      "begin_43" : 0,
      "begin_44" : 0,
      "begin_45" : 0,
      "begin_50" : 0,
      "begin_46" : 0,
      "begin_51" : 0,
      "begin_47" : 0,
      "begin_100" : 0,
      "begin_52" : 0,
      "debug_info" : "85",
      "begin_48" : 0,
      "top" : "85_0,85_1",
      "begin_101" : 0,
      "begin_53" : 0,
      "begin_49" : 0,
      "begin_54" : 0,
      "begin_55" : 0,
      "begin_102" : 0,
      "begin_60" : 0,
      "begin_56" : 0,
      "begin_103" : 0,
      "begin_57" : 0,
      "begin_61" : 0,
      "begin_62" : 0,
      "begin_58" : 0
    },
    {
      "pad_r" : 1,
      "fused_relu" : 0,
      "fused_tanh" : 0,
      "debug_info" : "x.9",
      "pad_fill_mode" : 0,
      "pad_b" : 1,
      "pad_l" : 1,
      "top" : "x.9",
      "K" : 12,
      "blob_biases" : 25,
      "name" : "x.9",
      "has_batch_norm" : 0,
      "type" : "convolution",
      "n_groups" : 1,
      "pad_t" : 1,
      "has_biases" : 1,
      "C" : 6,
      "bottom" : "85_1",
      "weights" : {
        "W_U8" : 27,
        "per_ch_qscale" : 31,
        "per_ch_qbias" : 29
      },
      "Nx" : 3,
      "pad_mode" : 0,
      "pad_value" : 0,
      "Ny" : 3,
      "n_parallel" : 1
    },
    {
      "bottom" : "x.9",
      "weights" : {

      },
      "mode" : 3,
      "debug_info" : "103",
      "top" : "103",
      "type" : "activation",
      "name" : "103"
    },
    {
      "bottom" : "x.9,103",
      "alpha" : 1,
      "operation" : 1,
      "weights" : {

      },
      "fused_relu" : 0,
      "debug_info" : "input.15",
      "top" : "input.15",
      "type" : "elementwise",
      "name" : "input.15",
      "beta" : 0
    },
    {
      "pad_r" : 1,
      "fused_relu" : 0,
      "fused_tanh" : 0,
      "debug_info" : "x.11",
      "pad_fill_mode" : 0,
      "pad_b" : 1,
      "pad_l" : 1,
      "top" : "x.11",
      "K" : 6,
      "blob_biases" : 33,
      "name" : "x.11",
      "has_batch_norm" : 0,
      "type" : "convolution",
      "n_groups" : 1,
      "pad_t" : 1,
      "has_biases" : 1,
      "C" : 12,
      "bottom" : "input.15",
      "weights" : {
        "W_U8" : 35,
        "per_ch_qscale" : 39,
        "per_ch_qbias" : 37
      },
      "Nx" : 3,
      "pad_mode" : 0,
      "pad_value" : 0,
      "Ny" : 3,
      "n_parallel" : 1
    },
    {
      "bottom" : "x.11",
      "weights" : {

      },
      "mode" : 3,
      "debug_info" : "118",
      "top" : "118",
      "type" : "activation",
      "name" : "118"
    },
    {
      "bottom" : "x.11,118",
      "alpha" : 1,
      "operation" : 1,
      "weights" : {

      },
      "fused_relu" : 0,
      "debug_info" : "y.1",
      "top" : "y.1",
      "type" : "elementwise",
      "name" : "y.1",
      "beta" : 0
    },
    {
      "bottom" : "85_1,y.1",
      "alpha" : 1,
      "operation" : 0,
      "weights" : {

      },
      "fused_relu" : 0,
      "debug_info" : "120",
      "top" : "120",
      "type" : "elementwise",
      "name" : "120",
      "beta" : 0
    },
    {
      "weights" : {

      },
      "debug_info" : "input.19",
      "top" : "input.19",
      "type" : "concat",
      "name" : "input.19",
      "bottom" : "85_0,85_1,120"
    },
    {
      "pad_r" : 0,
      "fused_relu" : 0,
      "fused_tanh" : 0,
      "debug_info" : "x.13",
      "pad_fill_mode" : 0,
      "pad_b" : 0,
      "pad_l" : 0,
      "top" : "x.13",
      "K" : 36,
      "blob_biases" : 41,
      "name" : "x.13",
      "has_batch_norm" : 0,
      "type" : "convolution",
      "n_groups" : 1,
      "pad_t" : 0,
      "has_biases" : 1,
      "C" : 24,
      "bottom" : "input.19",
      "weights" : {
        "W_U8" : 43,
        "per_ch_qscale" : 47,
        "per_ch_qbias" : 45
      },
      "Nx" : 1,
      "pad_mode" : 0,
      "pad_value" : 0,
      "Ny" : 1,
      "n_parallel" : 1
    },
    {
      "bottom" : "x.13",
      "weights" : {

      },
      "mode" : 3,
      "debug_info" : "136",
      "top" : "136",
      "type" : "activation",
      "name" : "136"
    },
    {
      "bottom" : "x.13,136",
      "alpha" : 1,
      "operation" : 1,
      "weights" : {

      },
      "fused_relu" : 0,
      "debug_info" : "input.23",
      "top" : "input.23",
      "type" : "elementwise",
      "name" : "input.23",
      "beta" : 0
    },
    {
      "pad_r" : 1,
      "fused_relu" : 0,
      "fused_tanh" : 0,
      "debug_info" : "x.15",
      "pad_fill_mode" : 0,
      "pad_b" : 1,
      "pad_l" : 1,
      "top" : "x.15",
      "K" : 24,
      "blob_biases" : 49,
      "stride_x" : 2,
      "name" : "x.15",
      "has_batch_norm" : 0,
      "type" : "convolution",
      "n_groups" : 1,
      "pad_t" : 1,
      "stride_y" : 2,
      "has_biases" : 1,
      "C" : 48,
      "bottom" : "input.23",
      "weights" : {
        "W_U8" : 51,
        "per_ch_qscale" : 55,
        "per_ch_qbias" : 53
      },
      "Nx" : 3,
      "pad_mode" : 0,
      "pad_value" : 0,
      "Ny" : 3,
      "n_parallel" : 1
    },
    {
      "bottom" : "x.15",
      "weights" : {

      },
      "mode" : 3,
      "debug_info" : "153",
      "top" : "153",
      "type" : "activation",
      "name" : "153"
    },
    {
      "bottom" : "x.15,153",
      "alpha" : 1,
      "operation" : 1,
      "weights" : {

      },
      "fused_relu" : 0,
      "debug_info" : "input.27",
      "top" : "input.27",
      "type" : "elementwise",
      "name" : "input.27",
      "beta" : 0
    },
    {
      "pad_r" : 0,
      "fused_relu" : 0,
      "fused_tanh" : 0,
      "debug_info" : "x.17",
      "pad_fill_mode" : 0,
      "pad_b" : 0,
      "pad_l" : 0,
      "top" : "x.17",
      "K" : 48,
      "blob_biases" : 57,
      "name" : "x.17",
      "has_batch_norm" : 0,
      "type" : "convolution",
      "n_groups" : 1,
      "pad_t" : 0,
      "has_biases" : 1,
      "C" : 48,
      "bottom" : "input.27",
      "weights" : {
        "W_U8" : 59,
        "per_ch_qscale" : 63,
        "per_ch_qbias" : 61
      },
      "Nx" : 1,
      "pad_mode" : 0,
      "pad_value" : 0,
      "Ny" : 1,
      "n_parallel" : 1
    },
    {
      "bottom" : "x.17",
      "weights" : {

      },
      "mode" : 3,
      "debug_info" : "176",
      "top" : "176",
      "type" : "activation",
      "name" : "176"
    },
    {
      "bottom" : "x.17,176",
      "alpha" : 1,
      "operation" : 1,
      "weights" : {

      },
      "fused_relu" : 0,
      "debug_info" : "177",
      "top" : "177",
      "type" : "elementwise",
      "name" : "177",
      "beta" : 0
    },
    {
      "begin_104" : 0,
      "begin_63" : 0,
      "begin_59" : 0,
      "begin_64" : 0,
      "begin_105" : 0,
      "begin_65" : 0,
      "begin_0" : 0,
      "begin_70" : 0,
      "begin_66" : 0,
      "begin_106" : 0,
      "begin_110" : 0,
      "begin_2" : 0,
      "begin_71" : 0,
      "begin_67" : 0,
      "begin_68" : 0,
      "begin_107" : 0,
      "begin_111" : 0,
      "begin_4" : 0,
      "begin_72" : 0,
      "begin_73" : 0,
      "begin_69" : 0,
      "begin_6" : 0,
      "begin_74" : 0,
      "begin_108" : 0,
      "type" : "split_nd",
      "begin_8" : 0,
      "begin_112" : 0,
      "begin_75" : 0,
      "begin_10" : 0,
      "begin_80" : 0,
      "begin_76" : 0,
      "begin_109" : 0,
      "begin_113" : 0,
      "begin_11" : 0,
      "nd_axis" : 1,
      "begin_81" : 0,
      "begin_77" : 0,
      "begin_114" : 0,
      "begin_12" : 0,
      "begin_78" : 0,
      "begin_82" : 0,
      "begin_13" : 0,
      "begin_83" : 0,
      "begin_79" : 0,
      "begin_115" : 0,
      "begin_14" : 0,
      "begin_84" : 0,
      "begin_15" : 0,
      "begin_85" : 0,
      "begin_116" : 0,
      "begin_120" : 0,
      "begin_20" : 0,
      "begin_86" : 0,
      "begin_16" : 0,
      "begin_90" : 0,
      "begin_21" : 0,
      "begin_91" : 0,
      "begin_87" : 0,
      "begin_17" : 0,
      "begin_117" : 0,
      "begin_121" : 0,
      "begin_18" : 0,
      "begin_92" : 0,
      "begin_88" : 0,
      "begin_22" : 0,
      "begin_23" : 0,
      "begin_89" : 0,
      "begin_19" : 0,
      "begin_93" : 0,
      "begin_118" : 0,
      "begin_122" : 0,
      "begin_24" : 0,
      "begin_94" : 0,
      "begin_25" : 0,
      "begin_95" : 0,
      "begin_119" : 0,
      "begin_123" : 0,
      "begin_30" : 0,
      "begin_26" : 0,
      "begin_96" : 0,
      "begin_124" : 0,
      "begin_31" : 0,
      "begin_97" : 0,
      "begin_27" : 0,
      "begin_28" : 0,
      "begin_98" : 0,
      "begin_32" : 0,
      "begin_125" : 0,
      "begin_33" : 0,
      "begin_29" : 0,
      "begin_99" : 0,
      "begin_1" : 0,
      "weights" : {

      },
      "begin_34" : 0,
      "bottom" : "177",
      "begin_3" : 0,
      "begin_126" : 0,
      "begin_35" : 0,
      "begin_5" : 0,
      "begin_36" : 0,
      "begin_40" : 0,
      "begin_127" : 0,
      "name" : "179",
      "begin_41" : 0,
      "begin_37" : 0,
      "begin_7" : 0,
      "begin_42" : 0,
      "begin_38" : 0,
      "begin_9" : 0,
      "begin_39" : 0,
      "begin_43" : 0,
      "begin_44" : 0,
      "begin_45" : 0,
      "begin_50" : 0,
      "begin_46" : 0,
      "begin_51" : 0,
      "begin_47" : 0,
      "begin_100" : 0,
      "begin_52" : 0,
      "debug_info" : "179",
      "begin_48" : 0,
      "top" : "179_0,179_1",
      "begin_101" : 0,
      "begin_53" : 0,
      "begin_49" : 0,
      "begin_54" : 0,
      "begin_55" : 0,
      "begin_102" : 0,
      "begin_60" : 0,
      "begin_56" : 0,
      "begin_103" : 0,
      "begin_57" : 0,
      "begin_61" : 0,
      "begin_62" : 0,
      "begin_58" : 0
    },
    {
      "pad_r" : 1,
      "fused_relu" : 0,
      "fused_tanh" : 0,
      "debug_info" : "x.19",
      "pad_fill_mode" : 0,
      "pad_b" : 1,
      "pad_l" : 1,
      "top" : "x.19",
      "K" : 24,
      "blob_biases" : 65,
      "name" : "x.19",
      "has_batch_norm" : 0,
      "type" : "convolution",
      "n_groups" : 1,
      "pad_t" : 1,
      "has_biases" : 1,
      "C" : 12,
      "bottom" : "179_1",
      "weights" : {
        "W_U8" : 67,
        "per_ch_qscale" : 71,
        "per_ch_qbias" : 69
      },
      "Nx" : 3,
      "pad_mode" : 0,
      "pad_value" : 0,
      "Ny" : 3,
      "n_parallel" : 1
    },
    {
      "bottom" : "x.19",
      "weights" : {

      },
      "mode" : 3,
      "debug_info" : "197",
      "top" : "197",
      "type" : "activation",
      "name" : "197"
    },
    {
      "bottom" : "x.19,197",
      "alpha" : 1,
      "operation" : 1,
      "weights" : {

      },
      "fused_relu" : 0,
      "debug_info" : "input.35",
      "top" : "input.35",
      "type" : "elementwise",
      "name" : "input.35",
      "beta" : 0
    },
    {
      "pad_r" : 1,
      "fused_relu" : 0,
      "fused_tanh" : 0,
      "debug_info" : "x.21",
      "pad_fill_mode" : 0,
      "pad_b" : 1,
      "pad_l" : 1,
      "top" : "x.21",
      "K" : 12,
      "blob_biases" : 73,
      "name" : "x.21",
      "has_batch_norm" : 0,
      "type" : "convolution",
      "n_groups" : 1,
      "pad_t" : 1,
      "has_biases" : 1,
      "C" : 24,
      "bottom" : "input.35",
      "weights" : {
        "W_U8" : 75,
        "per_ch_qscale" : 79,
        "per_ch_qbias" : 77
      },
      "Nx" : 3,
      "pad_mode" : 0,
      "pad_value" : 0,
      "Ny" : 3,
      "n_parallel" : 1
    },
    {
      "bottom" : "x.21",
      "weights" : {

      },
      "mode" : 3,
      "debug_info" : "212",
      "top" : "212",
      "type" : "activation",
      "name" : "212"
    },
    {
      "bottom" : "x.21,212",
      "alpha" : 1,
      "operation" : 1,
      "weights" : {

      },
      "fused_relu" : 0,
      "debug_info" : "y.3",
      "top" : "y.3",
      "type" : "elementwise",
      "name" : "y.3",
      "beta" : 0
    },
    {
      "bottom" : "179_1,y.3",
      "alpha" : 1,
      "operation" : 0,
      "weights" : {

      },
      "fused_relu" : 0,
      "debug_info" : "input.39",
      "top" : "input.39",
      "type" : "elementwise",
      "name" : "input.39",
      "beta" : 0
    },
    {
      "pad_r" : 1,
      "fused_relu" : 0,
      "fused_tanh" : 0,
      "debug_info" : "x.23",
      "pad_fill_mode" : 0,
      "pad_b" : 1,
      "pad_l" : 1,
      "top" : "x.23",
      "K" : 24,
      "blob_biases" : 81,
      "name" : "x.23",
      "has_batch_norm" : 0,
      "type" : "convolution",
      "n_groups" : 1,
      "pad_t" : 1,
      "has_biases" : 1,
      "C" : 12,
      "bottom" : "input.39",
      "weights" : {
        "W_U8" : 83,
        "per_ch_qscale" : 87,
        "per_ch_qbias" : 85
      },
      "Nx" : 3,
      "pad_mode" : 0,
      "pad_value" : 0,
      "Ny" : 3,
      "n_parallel" : 1
    },
    {
      "bottom" : "x.23",
      "weights" : {

      },
      "mode" : 3,
      "debug_info" : "230",
      "top" : "230",
      "type" : "activation",
      "name" : "230"
    },
    {
      "bottom" : "x.23,230",
      "alpha" : 1,
      "operation" : 1,
      "weights" : {

      },
      "fused_relu" : 0,
      "debug_info" : "input.43",
      "top" : "input.43",
      "type" : "elementwise",
      "name" : "input.43",
      "beta" : 0
    },
    {
      "pad_r" : 1,
      "fused_relu" : 0,
      "fused_tanh" : 0,
      "debug_info" : "x.25",
      "pad_fill_mode" : 0,
      "pad_b" : 1,
      "pad_l" : 1,
      "top" : "x.25",
      "K" : 12,
      "blob_biases" : 89,
      "name" : "x.25",
      "has_batch_norm" : 0,
      "type" : "convolution",
      "n_groups" : 1,
      "pad_t" : 1,
      "has_biases" : 1,
      "C" : 24,
      "bottom" : "input.43",
      "weights" : {
        "W_U8" : 91,
        "per_ch_qscale" : 95,
        "per_ch_qbias" : 93
      },
      "Nx" : 3,
      "pad_mode" : 0,
      "pad_value" : 0,
      "Ny" : 3,
      "n_parallel" : 1
    },
    {
      "bottom" : "x.25",
      "weights" : {

      },
      "mode" : 3,
      "debug_info" : "245",
      "top" : "245",
      "type" : "activation",
      "name" : "245"
    },
    {
      "bottom" : "x.25,245",
      "alpha" : 1,
      "operation" : 1,
      "weights" : {

      },
      "fused_relu" : 0,
      "debug_info" : "y.5",
      "top" : "y.5",
      "type" : "elementwise",
      "name" : "y.5",
      "beta" : 0
    },
    {
      "bottom" : "input.39,y.5",
      "alpha" : 1,
      "operation" : 0,
      "weights" : {

      },
      "fused_relu" : 0,
      "debug_info" : "input.47",
      "top" : "input.47",
      "type" : "elementwise",
      "name" : "input.47",
      "beta" : 0
    },
    {
      "pad_r" : 1,
      "fused_relu" : 0,
      "fused_tanh" : 0,
      "debug_info" : "x.27",
      "pad_fill_mode" : 0,
      "pad_b" : 1,
      "pad_l" : 1,
      "top" : "x.27",
      "K" : 24,
      "blob_biases" : 97,
      "name" : "x.27",
      "has_batch_norm" : 0,
      "type" : "convolution",
      "n_groups" : 1,
      "pad_t" : 1,
      "has_biases" : 1,
      "C" : 12,
      "bottom" : "input.47",
      "weights" : {
        "W_U8" : 99,
        "per_ch_qscale" : 103,
        "per_ch_qbias" : 101
      },
      "Nx" : 3,
      "pad_mode" : 0,
      "pad_value" : 0,
      "Ny" : 3,
      "n_parallel" : 1
    },
    {
      "bottom" : "x.27",
      "weights" : {

      },
      "mode" : 3,
      "debug_info" : "263",
      "top" : "263",
      "type" : "activation",
      "name" : "263"
    },
    {
      "bottom" : "x.27,263",
      "alpha" : 1,
      "operation" : 1,
      "weights" : {

      },
      "fused_relu" : 0,
      "debug_info" : "input.51",
      "top" : "input.51",
      "type" : "elementwise",
      "name" : "input.51",
      "beta" : 0
    },
    {
      "pad_r" : 1,
      "fused_relu" : 0,
      "fused_tanh" : 0,
      "debug_info" : "x.29",
      "pad_fill_mode" : 0,
      "pad_b" : 1,
      "pad_l" : 1,
      "top" : "x.29",
      "K" : 12,
      "blob_biases" : 105,
      "name" : "x.29",
      "has_batch_norm" : 0,
      "type" : "convolution",
      "n_groups" : 1,
      "pad_t" : 1,
      "has_biases" : 1,
      "C" : 24,
      "bottom" : "input.51",
      "weights" : {
        "W_U8" : 107,
        "per_ch_qscale" : 111,
        "per_ch_qbias" : 109
      },
      "Nx" : 3,
      "pad_mode" : 0,
      "pad_value" : 0,
      "Ny" : 3,
      "n_parallel" : 1
    },
    {
      "bottom" : "x.29",
      "weights" : {

      },
      "mode" : 3,
      "debug_info" : "278",
      "top" : "278",
      "type" : "activation",
      "name" : "278"
    },
    {
      "bottom" : "x.29,278",
      "alpha" : 1,
      "operation" : 1,
      "weights" : {

      },
      "fused_relu" : 0,
      "debug_info" : "y.7",
      "top" : "y.7",
      "type" : "elementwise",
      "name" : "y.7",
      "beta" : 0
    },
    {
      "bottom" : "input.47,y.7",
      "alpha" : 1,
      "operation" : 0,
      "weights" : {

      },
      "fused_relu" : 0,
      "debug_info" : "280",
      "top" : "280",
      "type" : "elementwise",
      "name" : "280",
      "beta" : 0
    },
    {
      "weights" : {

      },
      "debug_info" : "input.55",
      "top" : "input.55",
      "type" : "concat",
      "name" : "input.55",
      "bottom" : "179_0,179_1,input.39,input.47,280"
    },
    {
      "pad_r" : 0,
      "fused_relu" : 0,
      "fused_tanh" : 0,
      "debug_info" : "x.31",
      "pad_fill_mode" : 0,
      "pad_b" : 0,
      "pad_l" : 0,
      "top" : "x.31",
      "K" : 120,
      "blob_biases" : 113,
      "name" : "x.31",
      "has_batch_norm" : 0,
      "type" : "convolution",
      "n_groups" : 1,
      "pad_t" : 0,
      "has_biases" : 1,
      "C" : 48,
      "bottom" : "input.55",
      "weights" : {
        "W_U8" : 115,
        "per_ch_qscale" : 119,
        "per_ch_qbias" : 117
      },
      "Nx" : 1,
      "pad_mode" : 0,
      "pad_value" : 0,
      "Ny" : 1,
      "n_parallel" : 1
    },
    {
      "bottom" : "x.31",
      "weights" : {

      },
      "mode" : 3,
      "debug_info" : "296",
      "top" : "296",
      "type" : "activation",
      "name" : "296"
    },
    {
      "bottom" : "x.31,296",
      "alpha" : 1,
      "operation" : 1,
      "weights" : {

      },
      "fused_relu" : 0,
      "debug_info" : "input.59",
      "top" : "input.59",
      "type" : "elementwise",
      "name" : "input.59",
      "beta" : 0
    },
    {
      "pad_r" : 1,
      "fused_relu" : 0,
      "fused_tanh" : 0,
      "debug_info" : "x.33",
      "pad_fill_mode" : 0,
      "pad_b" : 1,
      "pad_l" : 1,
      "top" : "x.33",
      "K" : 48,
      "blob_biases" : 121,
      "stride_x" : 2,
      "name" : "x.33",
      "has_batch_norm" : 0,
      "type" : "convolution",
      "n_groups" : 1,
      "pad_t" : 1,
      "stride_y" : 2,
      "has_biases" : 1,
      "C" : 96,
      "bottom" : "input.59",
      "weights" : {
        "W_U8" : 123,
        "per_ch_qscale" : 127,
        "per_ch_qbias" : 125
      },
      "Nx" : 3,
      "pad_mode" : 0,
      "pad_value" : 0,
      "Ny" : 3,
      "n_parallel" : 1
    },
    {
      "bottom" : "x.33",
      "weights" : {

      },
      "mode" : 3,
      "debug_info" : "313",
      "top" : "313",
      "type" : "activation",
      "name" : "313"
    },
    {
      "bottom" : "x.33,313",
      "alpha" : 1,
      "operation" : 1,
      "weights" : {

      },
      "fused_relu" : 0,
      "debug_info" : "input.63",
      "top" : "input.63",
      "type" : "elementwise",
      "name" : "input.63",
      "beta" : 0
    },
    {
      "pad_r" : 0,
      "fused_relu" : 0,
      "fused_tanh" : 0,
      "debug_info" : "x.35",
      "pad_fill_mode" : 0,
      "pad_b" : 0,
      "pad_l" : 0,
      "top" : "x.35",
      "K" : 96,
      "blob_biases" : 129,
      "name" : "x.35",
      "has_batch_norm" : 0,
      "type" : "convolution",
      "n_groups" : 1,
      "pad_t" : 0,
      "has_biases" : 1,
      "C" : 96,
      "bottom" : "input.63",
      "weights" : {
        "W_U8" : 131,
        "per_ch_qscale" : 135,
        "per_ch_qbias" : 133
      },
      "Nx" : 1,
      "pad_mode" : 0,
      "pad_value" : 0,
      "Ny" : 1,
      "n_parallel" : 1
    },
    {
      "bottom" : "x.35",
      "weights" : {

      },
      "mode" : 3,
      "debug_info" : "336",
      "top" : "336",
      "type" : "activation",
      "name" : "336"
    },
    {
      "bottom" : "x.35,336",
      "alpha" : 1,
      "operation" : 1,
      "weights" : {

      },
      "fused_relu" : 0,
      "debug_info" : "337",
      "top" : "337",
      "type" : "elementwise",
      "name" : "337",
      "beta" : 0
    },
    {
      "begin_104" : 0,
      "begin_63" : 0,
      "begin_59" : 0,
      "begin_64" : 0,
      "begin_105" : 0,
      "begin_65" : 0,
      "begin_0" : 0,
      "begin_70" : 0,
      "begin_66" : 0,
      "begin_106" : 0,
      "begin_110" : 0,
      "begin_2" : 0,
      "begin_71" : 0,
      "begin_67" : 0,
      "begin_68" : 0,
      "begin_107" : 0,
      "begin_111" : 0,
      "begin_4" : 0,
      "begin_72" : 0,
      "begin_73" : 0,
      "begin_69" : 0,
      "begin_6" : 0,
      "begin_74" : 0,
      "begin_108" : 0,
      "type" : "split_nd",
      "begin_8" : 0,
      "begin_112" : 0,
      "begin_75" : 0,
      "begin_10" : 0,
      "begin_80" : 0,
      "begin_76" : 0,
      "begin_109" : 0,
      "begin_113" : 0,
      "begin_11" : 0,
      "nd_axis" : 1,
      "begin_81" : 0,
      "begin_77" : 0,
      "begin_114" : 0,
      "begin_12" : 0,
      "begin_78" : 0,
      "begin_82" : 0,
      "begin_13" : 0,
      "begin_83" : 0,
      "begin_79" : 0,
      "begin_115" : 0,
      "begin_14" : 0,
      "begin_84" : 0,
      "begin_15" : 0,
      "begin_85" : 0,
      "begin_116" : 0,
      "begin_120" : 0,
      "begin_20" : 0,
      "begin_86" : 0,
      "begin_16" : 0,
      "begin_90" : 0,
      "begin_21" : 0,
      "begin_91" : 0,
      "begin_87" : 0,
      "begin_17" : 0,
      "begin_117" : 0,
      "begin_121" : 0,
      "begin_18" : 0,
      "begin_92" : 0,
      "begin_88" : 0,
      "begin_22" : 0,
      "begin_23" : 0,
      "begin_89" : 0,
      "begin_19" : 0,
      "begin_93" : 0,
      "begin_118" : 0,
      "begin_122" : 0,
      "begin_24" : 0,
      "begin_94" : 0,
      "begin_25" : 0,
      "begin_95" : 0,
      "begin_119" : 0,
      "begin_123" : 0,
      "begin_30" : 0,
      "begin_26" : 0,
      "begin_96" : 0,
      "begin_124" : 0,
      "begin_31" : 0,
      "begin_97" : 0,
      "begin_27" : 0,
      "begin_28" : 0,
      "begin_98" : 0,
      "begin_32" : 0,
      "begin_125" : 0,
      "begin_33" : 0,
      "begin_29" : 0,
      "begin_99" : 0,
      "begin_1" : 0,
      "weights" : {

      },
      "begin_34" : 0,
      "bottom" : "337",
      "begin_3" : 0,
      "begin_126" : 0,
      "begin_35" : 0,
      "begin_5" : 0,
      "begin_36" : 0,
      "begin_40" : 0,
      "begin_127" : 0,
      "name" : "339",
      "begin_41" : 0,
      "begin_37" : 0,
      "begin_7" : 0,
      "begin_42" : 0,
      "begin_38" : 0,
      "begin_9" : 0,
      "begin_39" : 0,
      "begin_43" : 0,
      "begin_44" : 0,
      "begin_45" : 0,
      "begin_50" : 0,
      "begin_46" : 0,
      "begin_51" : 0,
      "begin_47" : 0,
      "begin_100" : 0,
      "begin_52" : 0,
      "debug_info" : "339",
      "begin_48" : 0,
      "top" : "339_0,339_1",
      "begin_101" : 0,
      "begin_53" : 0,
      "begin_49" : 0,
      "begin_54" : 0,
      "begin_55" : 0,
      "begin_102" : 0,
      "begin_60" : 0,
      "begin_56" : 0,
      "begin_103" : 0,
      "begin_57" : 0,
      "begin_61" : 0,
      "begin_62" : 0,
      "begin_58" : 0
    },
    {
      "pad_r" : 1,
      "fused_relu" : 0,
      "fused_tanh" : 0,
      "debug_info" : "x.37",
      "pad_fill_mode" : 0,
      "pad_b" : 1,
      "pad_l" : 1,
      "top" : "x.37",
      "K" : 48,
      "blob_biases" : 137,
      "name" : "x.37",
      "has_batch_norm" : 0,
      "type" : "convolution",
      "n_groups" : 1,
      "pad_t" : 1,
      "has_biases" : 1,
      "C" : 24,
      "bottom" : "339_1",
      "weights" : {
        "W_U8" : 139,
        "per_ch_qscale" : 143,
        "per_ch_qbias" : 141
      },
      "Nx" : 3,
      "pad_mode" : 0,
      "pad_value" : 0,
      "Ny" : 3,
      "n_parallel" : 1
    },
    {
      "bottom" : "x.37",
      "weights" : {

      },
      "mode" : 3,
      "debug_info" : "357",
      "top" : "357",
      "type" : "activation",
      "name" : "357"
    },
    {
      "bottom" : "x.37,357",
      "alpha" : 1,
      "operation" : 1,
      "weights" : {

      },
      "fused_relu" : 0,
      "debug_info" : "input.71",
      "top" : "input.71",
      "type" : "elementwise",
      "name" : "input.71",
      "beta" : 0
    },
    {
      "pad_r" : 1,
      "fused_relu" : 0,
      "fused_tanh" : 0,
      "debug_info" : "x.39",
      "pad_fill_mode" : 0,
      "pad_b" : 1,
      "pad_l" : 1,
      "top" : "x.39",
      "K" : 24,
      "blob_biases" : 145,
      "name" : "x.39",
      "has_batch_norm" : 0,
      "type" : "convolution",
      "n_groups" : 1,
      "pad_t" : 1,
      "has_biases" : 1,
      "C" : 48,
      "bottom" : "input.71",
      "weights" : {
        "W_U8" : 147,
        "per_ch_qscale" : 151,
        "per_ch_qbias" : 149
      },
      "Nx" : 3,
      "pad_mode" : 0,
      "pad_value" : 0,
      "Ny" : 3,
      "n_parallel" : 1
    },
    {
      "bottom" : "x.39",
      "weights" : {

      },
      "mode" : 3,
      "debug_info" : "372",
      "top" : "372",
      "type" : "activation",
      "name" : "372"
    },
    {
      "bottom" : "x.39,372",
      "alpha" : 1,
      "operation" : 1,
      "weights" : {

      },
      "fused_relu" : 0,
      "debug_info" : "y.9",
      "top" : "y.9",
      "type" : "elementwise",
      "name" : "y.9",
      "beta" : 0
    },
    {
      "bottom" : "339_1,y.9",
      "alpha" : 1,
      "operation" : 0,
      "weights" : {

      },
      "fused_relu" : 0,
      "debug_info" : "input.75",
      "top" : "input.75",
      "type" : "elementwise",
      "name" : "input.75",
      "beta" : 0
    },
    {
      "pad_r" : 1,
      "fused_relu" : 0,
      "fused_tanh" : 0,
      "debug_info" : "x.41",
      "pad_fill_mode" : 0,
      "pad_b" : 1,
      "pad_l" : 1,
      "top" : "x.41",
      "K" : 48,
      "blob_biases" : 153,
      "name" : "x.41",
      "has_batch_norm" : 0,
      "type" : "convolution",
      "n_groups" : 1,
      "pad_t" : 1,
      "has_biases" : 1,
      "C" : 24,
      "bottom" : "input.75",
      "weights" : {
        "W_U8" : 155,
        "per_ch_qscale" : 159,
        "per_ch_qbias" : 157
      },
      "Nx" : 3,
      "pad_mode" : 0,
      "pad_value" : 0,
      "Ny" : 3,
      "n_parallel" : 1
    },
    {
      "bottom" : "x.41",
      "weights" : {

      },
      "mode" : 3,
      "debug_info" : "390",
      "top" : "390",
      "type" : "activation",
      "name" : "390"
    },
    {
      "bottom" : "x.41,390",
      "alpha" : 1,
      "operation" : 1,
      "weights" : {

      },
      "fused_relu" : 0,
      "debug_info" : "input.79",
      "top" : "input.79",
      "type" : "elementwise",
      "name" : "input.79",
      "beta" : 0
    },
    {
      "pad_r" : 1,
      "fused_relu" : 0,
      "fused_tanh" : 0,
      "debug_info" : "x.43",
      "pad_fill_mode" : 0,
      "pad_b" : 1,
      "pad_l" : 1,
      "top" : "x.43",
      "K" : 24,
      "blob_biases" : 161,
      "name" : "x.43",
      "has_batch_norm" : 0,
      "type" : "convolution",
      "n_groups" : 1,
      "pad_t" : 1,
      "has_biases" : 1,
      "C" : 48,
      "bottom" : "input.79",
      "weights" : {
        "W_U8" : 163,
        "per_ch_qscale" : 167,
        "per_ch_qbias" : 165
      },
      "Nx" : 3,
      "pad_mode" : 0,
      "pad_value" : 0,
      "Ny" : 3,
      "n_parallel" : 1
    },
    {
      "bottom" : "x.43",
      "weights" : {

      },
      "mode" : 3,
      "debug_info" : "405",
      "top" : "405",
      "type" : "activation",
      "name" : "405"
    },
    {
      "bottom" : "x.43,405",
      "alpha" : 1,
      "operation" : 1,
      "weights" : {

      },
      "fused_relu" : 0,
      "debug_info" : "y.11",
      "top" : "y.11",
      "type" : "elementwise",
      "name" : "y.11",
      "beta" : 0
    },
    {
      "bottom" : "input.75,y.11",
      "alpha" : 1,
      "operation" : 0,
      "weights" : {

      },
      "fused_relu" : 0,
      "debug_info" : "input.83",
      "top" : "input.83",
      "type" : "elementwise",
      "name" : "input.83",
      "beta" : 0
    },
    {
      "pad_r" : 1,
      "fused_relu" : 0,
      "fused_tanh" : 0,
      "debug_info" : "x.45",
      "pad_fill_mode" : 0,
      "pad_b" : 1,
      "pad_l" : 1,
      "top" : "x.45",
      "K" : 48,
      "blob_biases" : 169,
      "name" : "x.45",
      "has_batch_norm" : 0,
      "type" : "convolution",
      "n_groups" : 1,
      "pad_t" : 1,
      "has_biases" : 1,
      "C" : 24,
      "bottom" : "input.83",
      "weights" : {
        "W_U8" : 171,
        "per_ch_qscale" : 175,
        "per_ch_qbias" : 173
      },
      "Nx" : 3,
      "pad_mode" : 0,
      "pad_value" : 0,
      "Ny" : 3,
      "n_parallel" : 1
    },
    {
      "bottom" : "x.45",
      "weights" : {

      },
      "mode" : 3,
      "debug_info" : "423",
      "top" : "423",
      "type" : "activation",
      "name" : "423"
    },
    {
      "bottom" : "x.45,423",
      "alpha" : 1,
      "operation" : 1,
      "weights" : {

      },
      "fused_relu" : 0,
      "debug_info" : "input.87",
      "top" : "input.87",
      "type" : "elementwise",
      "name" : "input.87",
      "beta" : 0
    },
    {
      "pad_r" : 1,
      "fused_relu" : 0,
      "fused_tanh" : 0,
      "debug_info" : "x.47",
      "pad_fill_mode" : 0,
      "pad_b" : 1,
      "pad_l" : 1,
      "top" : "x.47",
      "K" : 24,
      "blob_biases" : 177,
      "name" : "x.47",
      "has_batch_norm" : 0,
      "type" : "convolution",
      "n_groups" : 1,
      "pad_t" : 1,
      "has_biases" : 1,
      "C" : 48,
      "bottom" : "input.87",
      "weights" : {
        "W_U8" : 179,
        "per_ch_qscale" : 183,
        "per_ch_qbias" : 181
      },
      "Nx" : 3,
      "pad_mode" : 0,
      "pad_value" : 0,
      "Ny" : 3,
      "n_parallel" : 1
    },
    {
      "bottom" : "x.47",
      "weights" : {

      },
      "mode" : 3,
      "debug_info" : "438",
      "top" : "438",
      "type" : "activation",
      "name" : "438"
    },
    {
      "bottom" : "x.47,438",
      "alpha" : 1,
      "operation" : 1,
      "weights" : {

      },
      "fused_relu" : 0,
      "debug_info" : "y",
      "top" : "y",
      "type" : "elementwise",
      "name" : "y",
      "beta" : 0
    },
    {
      "bottom" : "input.83,y",
      "alpha" : 1,
      "operation" : 0,
      "weights" : {

      },
      "fused_relu" : 0,
      "debug_info" : "440",
      "top" : "440",
      "type" : "elementwise",
      "name" : "440",
      "beta" : 0
    },
    {
      "weights" : {

      },
      "debug_info" : "input.91",
      "top" : "input.91",
      "type" : "concat",
      "name" : "input.91",
      "bottom" : "339_0,339_1,input.75,input.83,440"
    },
    {
      "pad_r" : 0,
      "fused_relu" : 0,
      "fused_tanh" : 0,
      "debug_info" : "x.49",
      "pad_fill_mode" : 0,
      "pad_b" : 0,
      "pad_l" : 0,
      "top" : "x.49",
      "K" : 240,
      "blob_biases" : 185,
      "name" : "x.49",
      "has_batch_norm" : 0,
      "type" : "convolution",
      "n_groups" : 1,
      "pad_t" : 0,
      "has_biases" : 1,
      "C" : 96,
      "bottom" : "input.91",
      "weights" : {
        "W_U8" : 187,
        "per_ch_qscale" : 191,
        "per_ch_qbias" : 189
      },
      "Nx" : 1,
      "pad_mode" : 0,
      "pad_value" : 0,
      "Ny" : 1,
      "n_parallel" : 1
    },
    {
      "bottom" : "x.49",
      "weights" : {

      },
      "mode" : 3,
      "debug_info" : "456",
      "top" : "456",
      "type" : "activation",
      "name" : "456"
    },
    {
      "bottom" : "x.49,456",
      "alpha" : 1,
      "operation" : 1,
      "weights" : {

      },
      "fused_relu" : 0,
      "debug_info" : "input.95",
      "top" : "input.95",
      "type" : "elementwise",
      "name" : "input.95",
      "beta" : 0
    },
    {
      "pad_r" : 1,
      "fused_relu" : 0,
      "fused_tanh" : 0,
      "debug_info" : "x.51",
      "pad_fill_mode" : 0,
      "pad_b" : 1,
      "pad_l" : 1,
      "top" : "x.51",
      "K" : 96,
      "blob_biases" : 193,
      "stride_x" : 2,
      "name" : "x.51",
      "has_batch_norm" : 0,
      "type" : "convolution",
      "n_groups" : 1,
      "pad_t" : 1,
      "stride_y" : 2,
      "has_biases" : 1,
      "C" : 192,
      "bottom" : "input.95",
      "weights" : {
        "W_U8" : 195,
        "per_ch_qscale" : 199,
        "per_ch_qbias" : 197
      },
      "Nx" : 3,
      "pad_mode" : 0,
      "pad_value" : 0,
      "Ny" : 3,
      "n_parallel" : 1
    },
    {
      "bottom" : "x.51",
      "weights" : {

      },
      "mode" : 3,
      "debug_info" : "474",
      "top" : "474",
      "type" : "activation",
      "name" : "474"
    },
    {
      "bottom" : "x.51,474",
      "alpha" : 1,
      "operation" : 1,
      "weights" : {

      },
      "fused_relu" : 0,
      "debug_info" : "input.99",
      "top" : "input.99",
      "type" : "elementwise",
      "name" : "input.99",
      "beta" : 0
    },
    {
      "pad_r" : 0,
      "fused_relu" : 0,
      "fused_tanh" : 0,
      "debug_info" : "x.53",
      "pad_fill_mode" : 0,
      "pad_b" : 0,
      "pad_l" : 0,
      "top" : "x.53",
      "K" : 192,
      "blob_biases" : 201,
      "name" : "x.53",
      "has_batch_norm" : 0,
      "type" : "convolution",
      "n_groups" : 1,
      "pad_t" : 0,
      "has_biases" : 1,
      "C" : 96,
      "bottom" : "input.99",
      "weights" : {
        "W_U8" : 203,
        "per_ch_qscale" : 207,
        "per_ch_qbias" : 205
      },
      "Nx" : 1,
      "pad_mode" : 0,
      "pad_value" : 0,
      "Ny" : 1,
      "n_parallel" : 1
    },
    {
      "bottom" : "x.53",
      "weights" : {

      },
      "mode" : 3,
      "debug_info" : "491",
      "top" : "491",
      "type" : "activation",
      "name" : "491"
    },
    {
      "bottom" : "x.53,491",
      "alpha" : 1,
      "operation" : 1,
      "weights" : {

      },
      "fused_relu" : 0,
      "debug_info" : "input.103",
      "top" : "input.103",
      "type" : "elementwise",
      "name" : "input.103",
      "beta" : 0
    },
    {
      "pad_r" : 1,
      "debug_info" : "input.105",
      "pad_fill_mode" : 0,
      "pad_b" : 1,
      "pad_l" : 1,
      "size_x" : 3,
      "top" : "input.105",
      "top_shape_style" : 0,
      "stride_x" : 1,
      "avg_or_max" : 1,
      "average_count_exclude_padding" : 1,
      "type" : "pool",
      "name" : "input.105",
      "pad_t" : 1,
      "stride_y" : 1,
      "bottom" : "input.103",
      "weights" : {

      },
      "pad_mode" : 0,
      "size_y" : 3,
      "pad_value" : 0
    },
    {
      "pad_r" : 1,
      "debug_info" : "input.107",
      "pad_fill_mode" : 0,
      "pad_b" : 1,
      "pad_l" : 1,
      "size_x" : 3,
      "top" : "input.107",
      "top_shape_style" : 0,
      "stride_x" : 1,
      "avg_or_max" : 1,
      "average_count_exclude_padding" : 1,
      "type" : "pool",
      "name" : "input.107",
      "pad_t" : 1,
      "stride_y" : 1,
      "bottom" : "input.105",
      "weights" : {

      },
      "pad_mode" : 0,
      "size_y" : 3,
      "pad_value" : 0
    },
    {
      "pad_r" : 1,
      "debug_info" : "y3",
      "pad_fill_mode" : 0,
      "pad_b" : 1,
      "pad_l" : 1,
      "size_x" : 3,
      "top" : "y3",
      "top_shape_style" : 0,
      "stride_x" : 1,
      "avg_or_max" : 1,
      "average_count_exclude_padding" : 1,
      "type" : "pool",
      "name" : "y3",
      "pad_t" : 1,
      "stride_y" : 1,
      "bottom" : "input.107",
      "weights" : {

      },
      "pad_mode" : 0,
      "size_y" : 3,
      "pad_value" : 0
    },
    {
      "weights" : {

      },
      "debug_info" : "input.109",
      "top" : "input.109",
      "type" : "concat",
      "name" : "input.109",
      "bottom" : "input.103,input.105,input.107,y3"
    },
    {
      "pad_r" : 0,
      "fused_relu" : 0,
      "fused_tanh" : 0,
      "debug_info" : "x.55",
      "pad_fill_mode" : 0,
      "pad_b" : 0,
      "pad_l" : 0,
      "top" : "x.55",
      "K" : 384,
      "blob_biases" : 209,
      "name" : "x.55",
      "has_batch_norm" : 0,
      "type" : "convolution",
      "n_groups" : 1,
      "pad_t" : 0,
      "has_biases" : 1,
      "C" : 192,
      "bottom" : "input.109",
      "weights" : {
        "W_U8" : 211,
        "per_ch_qscale" : 215,
        "per_ch_qbias" : 213
      },
      "Nx" : 1,
      "pad_mode" : 0,
      "pad_value" : 0,
      "Ny" : 1,
      "n_parallel" : 1
    },
    {
      "bottom" : "x.55",
      "weights" : {

      },
      "mode" : 3,
      "debug_info" : "523",
      "top" : "523",
      "type" : "activation",
      "name" : "523"
    },
    {
      "bottom" : "x.55,523",
      "alpha" : 1,
      "operation" : 1,
      "weights" : {

      },
      "fused_relu" : 0,
      "debug_info" : "input.113",
      "top" : "input.113",
      "type" : "elementwise",
      "name" : "input.113",
      "beta" : 0
    },
    {
      "pad_r" : 0,
      "fused_relu" : 0,
      "fused_tanh" : 0,
      "debug_info" : "x.57",
      "pad_fill_mode" : 0,
      "pad_b" : 0,
      "pad_l" : 0,
      "top" : "x.57",
      "K" : 192,
      "blob_biases" : 217,
      "name" : "x.57",
      "has_batch_norm" : 0,
      "type" : "convolution",
      "n_groups" : 1,
      "pad_t" : 0,
      "has_biases" : 1,
      "C" : 192,
      "bottom" : "input.113",
      "weights" : {
        "W_U8" : 219,
        "per_ch_qscale" : 223,
        "per_ch_qbias" : 221
      },
      "Nx" : 1,
      "pad_mode" : 0,
      "pad_value" : 0,
      "Ny" : 1,
      "n_parallel" : 1
    },
    {
      "bottom" : "x.57",
      "weights" : {

      },
      "mode" : 3,
      "debug_info" : "542",
      "top" : "542",
      "type" : "activation",
      "name" : "542"
    },
    {
      "bottom" : "x.57,542",
      "alpha" : 1,
      "operation" : 1,
      "weights" : {

      },
      "fused_relu" : 0,
      "debug_info" : "543",
      "top" : "543",
      "type" : "elementwise",
      "name" : "543",
      "beta" : 0
    },
    {
      "begin_104" : 0,
      "begin_63" : 0,
      "begin_59" : 0,
      "begin_64" : 0,
      "begin_105" : 0,
      "begin_65" : 0,
      "begin_0" : 0,
      "begin_70" : 0,
      "begin_66" : 0,
      "begin_106" : 0,
      "begin_110" : 0,
      "begin_2" : 0,
      "begin_71" : 0,
      "begin_67" : 0,
      "begin_68" : 0,
      "begin_107" : 0,
      "begin_111" : 0,
      "begin_4" : 0,
      "begin_72" : 0,
      "begin_73" : 0,
      "begin_69" : 0,
      "begin_6" : 0,
      "begin_74" : 0,
      "begin_108" : 0,
      "type" : "split_nd",
      "begin_8" : 0,
      "begin_112" : 0,
      "begin_75" : 0,
      "begin_10" : 0,
      "begin_80" : 0,
      "begin_76" : 0,
      "begin_109" : 0,
      "begin_113" : 0,
      "begin_11" : 0,
      "nd_axis" : 1,
      "begin_81" : 0,
      "begin_77" : 0,
      "begin_114" : 0,
      "begin_12" : 0,
      "begin_78" : 0,
      "begin_82" : 0,
      "begin_13" : 0,
      "begin_83" : 0,
      "begin_79" : 0,
      "begin_115" : 0,
      "begin_14" : 0,
      "begin_84" : 0,
      "begin_15" : 0,
      "begin_85" : 0,
      "begin_116" : 0,
      "begin_120" : 0,
      "begin_20" : 0,
      "begin_86" : 0,
      "begin_16" : 0,
      "begin_90" : 0,
      "begin_21" : 0,
      "begin_91" : 0,
      "begin_87" : 0,
      "begin_17" : 0,
      "begin_117" : 0,
      "begin_121" : 0,
      "begin_18" : 0,
      "begin_92" : 0,
      "begin_88" : 0,
      "begin_22" : 0,
      "begin_23" : 0,
      "begin_89" : 0,
      "begin_19" : 0,
      "begin_93" : 0,
      "begin_118" : 0,
      "begin_122" : 0,
      "begin_24" : 0,
      "begin_94" : 0,
      "begin_25" : 0,
      "begin_95" : 0,
      "begin_119" : 0,
      "begin_123" : 0,
      "begin_30" : 0,
      "begin_26" : 0,
      "begin_96" : 0,
      "begin_124" : 0,
      "begin_31" : 0,
      "begin_97" : 0,
      "begin_27" : 0,
      "begin_28" : 0,
      "begin_98" : 0,
      "begin_32" : 0,
      "begin_125" : 0,
      "begin_33" : 0,
      "begin_29" : 0,
      "begin_99" : 0,
      "begin_1" : 0,
      "weights" : {

      },
      "begin_34" : 0,
      "bottom" : "543",
      "begin_3" : 0,
      "begin_126" : 0,
      "begin_35" : 0,
      "begin_5" : 0,
      "begin_36" : 0,
      "begin_40" : 0,
      "begin_127" : 0,
      "name" : "545",
      "begin_41" : 0,
      "begin_37" : 0,
      "begin_7" : 0,
      "begin_42" : 0,
      "begin_38" : 0,
      "begin_9" : 0,
      "begin_39" : 0,
      "begin_43" : 0,
      "begin_44" : 0,
      "begin_45" : 0,
      "begin_50" : 0,
      "begin_46" : 0,
      "begin_51" : 0,
      "begin_47" : 0,
      "begin_100" : 0,
      "begin_52" : 0,
      "debug_info" : "545",
      "begin_48" : 0,
      "top" : "545_0,545_1",
      "begin_101" : 0,
      "begin_53" : 0,
      "begin_49" : 0,
      "begin_54" : 0,
      "begin_55" : 0,
      "begin_102" : 0,
      "begin_60" : 0,
      "begin_56" : 0,
      "begin_103" : 0,
      "begin_57" : 0,
      "begin_61" : 0,
      "begin_62" : 0,
      "begin_58" : 0
    },
    {
      "pad_r" : 1,
      "fused_relu" : 0,
      "fused_tanh" : 0,
      "debug_info" : "x.59",
      "pad_fill_mode" : 0,
      "pad_b" : 1,
      "pad_l" : 1,
      "top" : "x.59",
      "K" : 96,
      "blob_biases" : 225,
      "name" : "x.59",
      "has_batch_norm" : 0,
      "type" : "convolution",
      "n_groups" : 1,
      "pad_t" : 1,
      "has_biases" : 1,
      "C" : 48,
      "bottom" : "545_1",
      "weights" : {
        "W_U8" : 227,
        "per_ch_qscale" : 231,
        "per_ch_qbias" : 229
      },
      "Nx" : 3,
      "pad_mode" : 0,
      "pad_value" : 0,
      "Ny" : 3,
      "n_parallel" : 1
    },
    {
      "bottom" : "x.59",
      "weights" : {

      },
      "mode" : 3,
      "debug_info" : "563",
      "top" : "563",
      "type" : "activation",
      "name" : "563"
    },
    {
      "bottom" : "x.59,563",
      "alpha" : 1,
      "operation" : 1,
      "weights" : {

      },
      "fused_relu" : 0,
      "debug_info" : "input.121",
      "top" : "input.121",
      "type" : "elementwise",
      "name" : "input.121",
      "beta" : 0
    },
    {
      "pad_r" : 1,
      "fused_relu" : 0,
      "fused_tanh" : 0,
      "debug_info" : "x.61",
      "pad_fill_mode" : 0,
      "pad_b" : 1,
      "pad_l" : 1,
      "top" : "x.61",
      "K" : 48,
      "blob_biases" : 233,
      "name" : "x.61",
      "has_batch_norm" : 0,
      "type" : "convolution",
      "n_groups" : 1,
      "pad_t" : 1,
      "has_biases" : 1,
      "C" : 96,
      "bottom" : "input.121",
      "weights" : {
        "W_U8" : 235,
        "per_ch_qscale" : 239,
        "per_ch_qbias" : 237
      },
      "Nx" : 3,
      "pad_mode" : 0,
      "pad_value" : 0,
      "Ny" : 3,
      "n_parallel" : 1
    },
    {
      "bottom" : "x.61",
      "weights" : {

      },
      "mode" : 3,
      "debug_info" : "578",
      "top" : "578",
      "type" : "activation",
      "name" : "578"
    },
    {
      "bottom" : "x.61,578",
      "alpha" : 1,
      "operation" : 1,
      "weights" : {

      },
      "fused_relu" : 0,
      "debug_info" : "579",
      "top" : "579",
      "type" : "elementwise",
      "name" : "579",
      "beta" : 0
    },
    {
      "weights" : {

      },
      "debug_info" : "input.125",
      "top" : "input.125",
      "type" : "concat",
      "name" : "input.125",
      "bottom" : "545_0,545_1,579"
    },
    {
      "pad_r" : 0,
      "fused_relu" : 0,
      "fused_tanh" : 0,
      "debug_info" : "x.63",
      "pad_fill_mode" : 0,
      "pad_b" : 0,
      "pad_l" : 0,
      "top" : "x.63",
      "K" : 288,
      "blob_biases" : 241,
      "name" : "x.63",
      "has_batch_norm" : 0,
      "type" : "convolution",
      "n_groups" : 1,
      "pad_t" : 0,
      "has_biases" : 1,
      "C" : 192,
      "bottom" : "input.125",
      "weights" : {
        "W_U8" : 243,
        "per_ch_qscale" : 247,
        "per_ch_qbias" : 245
      },
      "Nx" : 1,
      "pad_mode" : 0,
      "pad_value" : 0,
      "Ny" : 1,
      "n_parallel" : 1
    },
    {
      "bottom" : "x.63",
      "weights" : {

      },
      "mode" : 3,
      "debug_info" : "595",
      "top" : "595",
      "type" : "activation",
      "name" : "595"
    },
    {
      "bottom" : "x.63,595",
      "alpha" : 1,
      "operation" : 1,
      "weights" : {

      },
      "fused_relu" : 0,
      "debug_info" : "input.129",
      "top" : "input.129",
      "type" : "elementwise",
      "name" : "input.129",
      "beta" : 0
    },
    {
      "pad_r" : 0,
      "fused_relu" : 0,
      "fused_tanh" : 0,
      "debug_info" : "x.65",
      "pad_fill_mode" : 0,
      "pad_b" : 0,
      "pad_l" : 0,
      "top" : "x.65",
      "K" : 192,
      "blob_biases" : 249,
      "name" : "x.65",
      "has_batch_norm" : 0,
      "type" : "convolution",
      "n_groups" : 1,
      "pad_t" : 0,
      "has_biases" : 1,
      "C" : 96,
      "bottom" : "input.129",
      "weights" : {
        "W_U8" : 251,
        "per_ch_qscale" : 255,
        "per_ch_qbias" : 253
      },
      "Nx" : 1,
      "pad_mode" : 0,
      "pad_value" : 0,
      "Ny" : 1,
      "n_parallel" : 1
    },
    {
      "bottom" : "x.65",
      "weights" : {

      },
      "mode" : 3,
      "debug_info" : "614",
      "top" : "614",
      "type" : "activation",
      "name" : "614"
    },
    {
      "bottom" : "x.65,614",
      "alpha" : 1,
      "operation" : 1,
      "weights" : {

      },
      "fused_relu" : 0,
      "debug_info" : "input.133",
      "top" : "input.133",
      "type" : "elementwise",
      "name" : "input.133",
      "beta" : 0
    },
    {
      "top" : "f_out0",
      "use_fractional_scale_factors" : false,
      "weights" : {

      },
      "fractional_scaling_factor_y" : 1,
      "type" : "upsample",
      "scaling_factor_x" : 2,
      "mode" : 0,
      "align_corners" : 0,
      "bottom" : "input.133",
      "debug_info" : "f_out0",
      "fractional_scaling_factor_x" : 1,
      "is_legacy_mode" : 1,
      "name" : "f_out0",
      "scaling_factor_y" : 2
    },
    {
      "weights" : {

      },
      "debug_info" : "input.135",
      "top" : "input.135",
      "type" : "concat",
      "name" : "input.135",
      "bottom" : "f_out0,input.95"
    },
    {
      "pad_r" : 0,
      "fused_relu" : 0,
      "fused_tanh" : 0,
      "debug_info" : "x.67",
      "pad_fill_mode" : 0,
      "pad_b" : 0,
      "pad_l" : 0,
      "top" : "x.67",
      "K" : 192,
      "blob_biases" : 257,
      "name" : "x.67",
      "has_batch_norm" : 0,
      "type" : "convolution",
      "n_groups" : 1,
      "pad_t" : 0,
      "has_biases" : 1,
      "C" : 96,
      "bottom" : "input.135",
      "weights" : {
        "W_U8" : 259,
        "per_ch_qscale" : 263,
        "per_ch_qbias" : 261
      },
      "Nx" : 1,
      "pad_mode" : 0,
      "pad_value" : 0,
      "Ny" : 1,
      "n_parallel" : 1
    },
    {
      "bottom" : "x.67",
      "weights" : {

      },
      "mode" : 3,
      "debug_info" : "637",
      "top" : "637",
      "type" : "activation",
      "name" : "637"
    },
    {
      "bottom" : "x.67,637",
      "alpha" : 1,
      "operation" : 1,
      "weights" : {

      },
      "fused_relu" : 0,
      "debug_info" : "638",
      "top" : "638",
      "type" : "elementwise",
      "name" : "638",
      "beta" : 0
    },
    {
      "begin_104" : 0,
      "begin_63" : 0,
      "begin_59" : 0,
      "begin_64" : 0,
      "begin_105" : 0,
      "begin_65" : 0,
      "begin_0" : 0,
      "begin_70" : 0,
      "begin_66" : 0,
      "begin_106" : 0,
      "begin_110" : 0,
      "begin_2" : 0,
      "begin_71" : 0,
      "begin_67" : 0,
      "begin_68" : 0,
      "begin_107" : 0,
      "begin_111" : 0,
      "begin_4" : 0,
      "begin_72" : 0,
      "begin_73" : 0,
      "begin_69" : 0,
      "begin_6" : 0,
      "begin_74" : 0,
      "begin_108" : 0,
      "type" : "split_nd",
      "begin_8" : 0,
      "begin_112" : 0,
      "begin_75" : 0,
      "begin_10" : 0,
      "begin_80" : 0,
      "begin_76" : 0,
      "begin_109" : 0,
      "begin_113" : 0,
      "begin_11" : 0,
      "nd_axis" : 1,
      "begin_81" : 0,
      "begin_77" : 0,
      "begin_114" : 0,
      "begin_12" : 0,
      "begin_78" : 0,
      "begin_82" : 0,
      "begin_13" : 0,
      "begin_83" : 0,
      "begin_79" : 0,
      "begin_115" : 0,
      "begin_14" : 0,
      "begin_84" : 0,
      "begin_15" : 0,
      "begin_85" : 0,
      "begin_116" : 0,
      "begin_120" : 0,
      "begin_20" : 0,
      "begin_86" : 0,
      "begin_16" : 0,
      "begin_90" : 0,
      "begin_21" : 0,
      "begin_91" : 0,
      "begin_87" : 0,
      "begin_17" : 0,
      "begin_117" : 0,
      "begin_121" : 0,
      "begin_18" : 0,
      "begin_92" : 0,
      "begin_88" : 0,
      "begin_22" : 0,
      "begin_23" : 0,
      "begin_89" : 0,
      "begin_19" : 0,
      "begin_93" : 0,
      "begin_118" : 0,
      "begin_122" : 0,
      "begin_24" : 0,
      "begin_94" : 0,
      "begin_25" : 0,
      "begin_95" : 0,
      "begin_119" : 0,
      "begin_123" : 0,
      "begin_30" : 0,
      "begin_26" : 0,
      "begin_96" : 0,
      "begin_124" : 0,
      "begin_31" : 0,
      "begin_97" : 0,
      "begin_27" : 0,
      "begin_28" : 0,
      "begin_98" : 0,
      "begin_32" : 0,
      "begin_125" : 0,
      "begin_33" : 0,
      "begin_29" : 0,
      "begin_99" : 0,
      "begin_1" : 0,
      "weights" : {

      },
      "begin_34" : 0,
      "bottom" : "638",
      "begin_3" : 0,
      "begin_126" : 0,
      "begin_35" : 0,
      "begin_5" : 0,
      "begin_36" : 0,
      "begin_40" : 0,
      "begin_127" : 0,
      "name" : "640",
      "begin_41" : 0,
      "begin_37" : 0,
      "begin_7" : 0,
      "begin_42" : 0,
      "begin_38" : 0,
      "begin_9" : 0,
      "begin_39" : 0,
      "begin_43" : 0,
      "begin_44" : 0,
      "begin_45" : 0,
      "begin_50" : 0,
      "begin_46" : 0,
      "begin_51" : 0,
      "begin_47" : 0,
      "begin_100" : 0,
      "begin_52" : 0,
      "debug_info" : "640",
      "begin_48" : 0,
      "top" : "640_0,640_1",
      "begin_101" : 0,
      "begin_53" : 0,
      "begin_49" : 0,
      "begin_54" : 0,
      "begin_55" : 0,
      "begin_102" : 0,
      "begin_60" : 0,
      "begin_56" : 0,
      "begin_103" : 0,
      "begin_57" : 0,
      "begin_61" : 0,
      "begin_62" : 0,
      "begin_58" : 0
    },
    {
      "pad_r" : 1,
      "fused_relu" : 0,
      "fused_tanh" : 0,
      "debug_info" : "x.69",
      "pad_fill_mode" : 0,
      "pad_b" : 1,
      "pad_l" : 1,
      "top" : "x.69",
      "K" : 48,
      "blob_biases" : 265,
      "name" : "x.69",
      "has_batch_norm" : 0,
      "type" : "convolution",
      "n_groups" : 1,
      "pad_t" : 1,
      "has_biases" : 1,
      "C" : 24,
      "bottom" : "640_1",
      "weights" : {
        "W_U8" : 267,
        "per_ch_qscale" : 271,
        "per_ch_qbias" : 269
      },
      "Nx" : 3,
      "pad_mode" : 0,
      "pad_value" : 0,
      "Ny" : 3,
      "n_parallel" : 1
    },
    {
      "bottom" : "x.69",
      "weights" : {

      },
      "mode" : 3,
      "debug_info" : "658",
      "top" : "658",
      "type" : "activation",
      "name" : "658"
    },
    {
      "bottom" : "x.69,658",
      "alpha" : 1,
      "operation" : 1,
      "weights" : {

      },
      "fused_relu" : 0,
      "debug_info" : "input.143",
      "top" : "input.143",
      "type" : "elementwise",
      "name" : "input.143",
      "beta" : 0
    },
    {
      "pad_r" : 1,
      "fused_relu" : 0,
      "fused_tanh" : 0,
      "debug_info" : "x.71",
      "pad_fill_mode" : 0,
      "pad_b" : 1,
      "pad_l" : 1,
      "top" : "x.71",
      "K" : 24,
      "blob_biases" : 273,
      "name" : "x.71",
      "has_batch_norm" : 0,
      "type" : "convolution",
      "n_groups" : 1,
      "pad_t" : 1,
      "has_biases" : 1,
      "C" : 48,
      "bottom" : "input.143",
      "weights" : {
        "W_U8" : 275,
        "per_ch_qscale" : 279,
        "per_ch_qbias" : 277
      },
      "Nx" : 3,
      "pad_mode" : 0,
      "pad_value" : 0,
      "Ny" : 3,
      "n_parallel" : 1
    },
    {
      "bottom" : "x.71",
      "weights" : {

      },
      "mode" : 3,
      "debug_info" : "673",
      "top" : "673",
      "type" : "activation",
      "name" : "673"
    },
    {
      "bottom" : "x.71,673",
      "alpha" : 1,
      "operation" : 1,
      "weights" : {

      },
      "fused_relu" : 0,
      "debug_info" : "674",
      "top" : "674",
      "type" : "elementwise",
      "name" : "674",
      "beta" : 0
    },
    {
      "weights" : {

      },
      "debug_info" : "input.147",
      "top" : "input.147",
      "type" : "concat",
      "name" : "input.147",
      "bottom" : "640_0,640_1,674"
    },
    {
      "pad_r" : 0,
      "fused_relu" : 0,
      "fused_tanh" : 0,
      "debug_info" : "x.73",
      "pad_fill_mode" : 0,
      "pad_b" : 0,
      "pad_l" : 0,
      "top" : "x.73",
      "K" : 144,
      "blob_biases" : 281,
      "name" : "x.73",
      "has_batch_norm" : 0,
      "type" : "convolution",
      "n_groups" : 1,
      "pad_t" : 0,
      "has_biases" : 1,
      "C" : 96,
      "bottom" : "input.147",
      "weights" : {
        "W_U8" : 283,
        "per_ch_qscale" : 287,
        "per_ch_qbias" : 285
      },
      "Nx" : 1,
      "pad_mode" : 0,
      "pad_value" : 0,
      "Ny" : 1,
      "n_parallel" : 1
    },
    {
      "bottom" : "x.73",
      "weights" : {

      },
      "mode" : 3,
      "debug_info" : "690",
      "top" : "690",
      "type" : "activation",
      "name" : "690"
    },
    {
      "bottom" : "x.73,690",
      "alpha" : 1,
      "operation" : 1,
      "weights" : {

      },
      "fused_relu" : 0,
      "debug_info" : "input.151",
      "top" : "input.151",
      "type" : "elementwise",
      "name" : "input.151",
      "beta" : 0
    },
    {
      "pad_r" : 0,
      "fused_relu" : 0,
      "fused_tanh" : 0,
      "debug_info" : "x.75",
      "pad_fill_mode" : 0,
      "pad_b" : 0,
      "pad_l" : 0,
      "top" : "x.75",
      "K" : 96,
      "blob_biases" : 289,
      "name" : "x.75",
      "has_batch_norm" : 0,
      "type" : "convolution",
      "n_groups" : 1,
      "pad_t" : 0,
      "has_biases" : 1,
      "C" : 48,
      "bottom" : "input.151",
      "weights" : {
        "W_U8" : 291,
        "per_ch_qscale" : 295,
        "per_ch_qbias" : 293
      },
      "Nx" : 1,
      "pad_mode" : 0,
      "pad_value" : 0,
      "Ny" : 1,
      "n_parallel" : 1
    },
    {
      "bottom" : "x.75",
      "weights" : {

      },
      "mode" : 3,
      "debug_info" : "705",
      "top" : "705",
      "type" : "activation",
      "name" : "705"
    },
    {
      "bottom" : "x.75,705",
      "alpha" : 1,
      "operation" : 1,
      "weights" : {

      },
      "fused_relu" : 0,
      "debug_info" : "input.155",
      "top" : "input.155",
      "type" : "elementwise",
      "name" : "input.155",
      "beta" : 0
    },
    {
      "top" : "f_out1",
      "use_fractional_scale_factors" : false,
      "weights" : {

      },
      "fractional_scaling_factor_y" : 1,
      "type" : "upsample",
      "scaling_factor_x" : 2,
      "mode" : 0,
      "align_corners" : 0,
      "bottom" : "input.155",
      "debug_info" : "f_out1",
      "fractional_scaling_factor_x" : 1,
      "is_legacy_mode" : 1,
      "name" : "f_out1",
      "scaling_factor_y" : 2
    },
    {
      "weights" : {

      },
      "debug_info" : "input.157",
      "top" : "input.157",
      "type" : "concat",
      "name" : "input.157",
      "bottom" : "f_out1,input.59"
    },
    {
      "pad_r" : 0,
      "fused_relu" : 0,
      "fused_tanh" : 0,
      "debug_info" : "x.77",
      "pad_fill_mode" : 0,
      "pad_b" : 0,
      "pad_l" : 0,
      "top" : "x.77",
      "K" : 96,
      "blob_biases" : 297,
      "name" : "x.77",
      "has_batch_norm" : 0,
      "type" : "convolution",
      "n_groups" : 1,
      "pad_t" : 0,
      "has_biases" : 1,
      "C" : 48,
      "bottom" : "input.157",
      "weights" : {
        "W_U8" : 299,
        "per_ch_qscale" : 303,
        "per_ch_qbias" : 301
      },
      "Nx" : 1,
      "pad_mode" : 0,
      "pad_value" : 0,
      "Ny" : 1,
      "n_parallel" : 1
    },
    {
      "bottom" : "x.77",
      "weights" : {

      },
      "mode" : 3,
      "debug_info" : "728",
      "top" : "728",
      "type" : "activation",
      "name" : "728"
    },
    {
      "bottom" : "x.77,728",
      "alpha" : 1,
      "operation" : 1,
      "weights" : {

      },
      "fused_relu" : 0,
      "debug_info" : "729",
      "top" : "729",
      "type" : "elementwise",
      "name" : "729",
      "beta" : 0
    },
    {
      "begin_104" : 0,
      "begin_63" : 0,
      "begin_59" : 0,
      "begin_64" : 0,
      "begin_105" : 0,
      "begin_65" : 0,
      "begin_0" : 0,
      "begin_70" : 0,
      "begin_66" : 0,
      "begin_106" : 0,
      "begin_110" : 0,
      "begin_2" : 0,
      "begin_71" : 0,
      "begin_67" : 0,
      "begin_68" : 0,
      "begin_107" : 0,
      "begin_111" : 0,
      "begin_4" : 0,
      "begin_72" : 0,
      "begin_73" : 0,
      "begin_69" : 0,
      "begin_6" : 0,
      "begin_74" : 0,
      "begin_108" : 0,
      "type" : "split_nd",
      "begin_8" : 0,
      "begin_112" : 0,
      "begin_75" : 0,
      "begin_10" : 0,
      "begin_80" : 0,
      "begin_76" : 0,
      "begin_109" : 0,
      "begin_113" : 0,
      "begin_11" : 0,
      "nd_axis" : 1,
      "begin_81" : 0,
      "begin_77" : 0,
      "begin_114" : 0,
      "begin_12" : 0,
      "begin_78" : 0,
      "begin_82" : 0,
      "begin_13" : 0,
      "begin_83" : 0,
      "begin_79" : 0,
      "begin_115" : 0,
      "begin_14" : 0,
      "begin_84" : 0,
      "begin_15" : 0,
      "begin_85" : 0,
      "begin_116" : 0,
      "begin_120" : 0,
      "begin_20" : 0,
      "begin_86" : 0,
      "begin_16" : 0,
      "begin_90" : 0,
      "begin_21" : 0,
      "begin_91" : 0,
      "begin_87" : 0,
      "begin_17" : 0,
      "begin_117" : 0,
      "begin_121" : 0,
      "begin_18" : 0,
      "begin_92" : 0,
      "begin_88" : 0,
      "begin_22" : 0,
      "begin_23" : 0,
      "begin_89" : 0,
      "begin_19" : 0,
      "begin_93" : 0,
      "begin_118" : 0,
      "begin_122" : 0,
      "begin_24" : 0,
      "begin_94" : 0,
      "begin_25" : 0,
      "begin_95" : 0,
      "begin_119" : 0,
      "begin_123" : 0,
      "begin_30" : 0,
      "begin_26" : 0,
      "begin_96" : 0,
      "begin_124" : 0,
      "begin_31" : 0,
      "begin_97" : 0,
      "begin_27" : 0,
      "begin_28" : 0,
      "begin_98" : 0,
      "begin_32" : 0,
      "begin_125" : 0,
      "begin_33" : 0,
      "begin_29" : 0,
      "begin_99" : 0,
      "begin_1" : 0,
      "weights" : {

      },
      "begin_34" : 0,
      "bottom" : "729",
      "begin_3" : 0,
      "begin_126" : 0,
      "begin_35" : 0,
      "begin_5" : 0,
      "begin_36" : 0,
      "begin_40" : 0,
      "begin_127" : 0,
      "name" : "731",
      "begin_41" : 0,
      "begin_37" : 0,
      "begin_7" : 0,
      "begin_42" : 0,
      "begin_38" : 0,
      "begin_9" : 0,
      "begin_39" : 0,
      "begin_43" : 0,
      "begin_44" : 0,
      "begin_45" : 0,
      "begin_50" : 0,
      "begin_46" : 0,
      "begin_51" : 0,
      "begin_47" : 0,
      "begin_100" : 0,
      "begin_52" : 0,
      "debug_info" : "731",
      "begin_48" : 0,
      "top" : "731_0,731_1",
      "begin_101" : 0,
      "begin_53" : 0,
      "begin_49" : 0,
      "begin_54" : 0,
      "begin_55" : 0,
      "begin_102" : 0,
      "begin_60" : 0,
      "begin_56" : 0,
      "begin_103" : 0,
      "begin_57" : 0,
      "begin_61" : 0,
      "begin_62" : 0,
      "begin_58" : 0
    },
    {
      "pad_r" : 1,
      "fused_relu" : 0,
      "fused_tanh" : 0,
      "debug_info" : "x.79",
      "pad_fill_mode" : 0,
      "pad_b" : 1,
      "pad_l" : 1,
      "top" : "x.79",
      "K" : 24,
      "blob_biases" : 305,
      "name" : "x.79",
      "has_batch_norm" : 0,
      "type" : "convolution",
      "n_groups" : 1,
      "pad_t" : 1,
      "has_biases" : 1,
      "C" : 12,
      "bottom" : "731_1",
      "weights" : {
        "W_U8" : 307,
        "per_ch_qscale" : 311,
        "per_ch_qbias" : 309
      },
      "Nx" : 3,
      "pad_mode" : 0,
      "pad_value" : 0,
      "Ny" : 3,
      "n_parallel" : 1
    },
    {
      "bottom" : "x.79",
      "weights" : {

      },
      "mode" : 3,
      "debug_info" : "749",
      "top" : "749",
      "type" : "activation",
      "name" : "749"
    },
    {
      "bottom" : "x.79,749",
      "alpha" : 1,
      "operation" : 1,
      "weights" : {

      },
      "fused_relu" : 0,
      "debug_info" : "input.165",
      "top" : "input.165",
      "type" : "elementwise",
      "name" : "input.165",
      "beta" : 0
    },
    {
      "pad_r" : 1,
      "fused_relu" : 0,
      "fused_tanh" : 0,
      "debug_info" : "x.81",
      "pad_fill_mode" : 0,
      "pad_b" : 1,
      "pad_l" : 1,
      "top" : "x.81",
      "K" : 12,
      "blob_biases" : 313,
      "name" : "x.81",
      "has_batch_norm" : 0,
      "type" : "convolution",
      "n_groups" : 1,
      "pad_t" : 1,
      "has_biases" : 1,
      "C" : 24,
      "bottom" : "input.165",
      "weights" : {
        "W_U8" : 315,
        "per_ch_qscale" : 319,
        "per_ch_qbias" : 317
      },
      "Nx" : 3,
      "pad_mode" : 0,
      "pad_value" : 0,
      "Ny" : 3,
      "n_parallel" : 1
    },
    {
      "bottom" : "x.81",
      "weights" : {

      },
      "mode" : 3,
      "debug_info" : "764",
      "top" : "764",
      "type" : "activation",
      "name" : "764"
    },
    {
      "bottom" : "x.81,764",
      "alpha" : 1,
      "operation" : 1,
      "weights" : {

      },
      "fused_relu" : 0,
      "debug_info" : "765",
      "top" : "765",
      "type" : "elementwise",
      "name" : "765",
      "beta" : 0
    },
    {
      "weights" : {

      },
      "debug_info" : "input.169",
      "top" : "input.169",
      "type" : "concat",
      "name" : "input.169",
      "bottom" : "731_0,731_1,765"
    },
    {
      "pad_r" : 0,
      "fused_relu" : 0,
      "fused_tanh" : 0,
      "debug_info" : "x.83",
      "pad_fill_mode" : 0,
      "pad_b" : 0,
      "pad_l" : 0,
      "top" : "x.83",
      "K" : 72,
      "blob_biases" : 321,
      "name" : "x.83",
      "has_batch_norm" : 0,
      "type" : "convolution",
      "n_groups" : 1,
      "pad_t" : 0,
      "has_biases" : 1,
      "C" : 48,
      "bottom" : "input.169",
      "weights" : {
        "W_U8" : 323,
        "per_ch_qscale" : 327,
        "per_ch_qbias" : 325
      },
      "Nx" : 1,
      "pad_mode" : 0,
      "pad_value" : 0,
      "Ny" : 1,
      "n_parallel" : 1
    },
    {
      "bottom" : "x.83",
      "weights" : {

      },
      "mode" : 3,
      "debug_info" : "781",
      "top" : "781",
      "type" : "activation",
      "name" : "781"
    },
    {
      "bottom" : "x.83,781",
      "alpha" : 1,
      "operation" : 1,
      "weights" : {

      },
      "fused_relu" : 0,
      "debug_info" : "input.173",
      "top" : "input.173",
      "type" : "elementwise",
      "name" : "input.173",
      "beta" : 0
    },
    {
      "pad_r" : 1,
      "fused_relu" : 0,
      "fused_tanh" : 0,
      "debug_info" : "x.85",
      "pad_fill_mode" : 0,
      "pad_b" : 1,
      "pad_l" : 1,
      "top" : "x.85",
      "K" : 48,
      "blob_biases" : 329,
      "stride_x" : 2,
      "name" : "x.85",
      "has_batch_norm" : 0,
      "type" : "convolution",
      "n_groups" : 1,
      "pad_t" : 1,
      "stride_y" : 2,
      "has_biases" : 1,
      "C" : 48,
      "bottom" : "input.173",
      "weights" : {
        "W_U8" : 331,
        "per_ch_qscale" : 335,
        "per_ch_qbias" : 333
      },
      "Nx" : 3,
      "pad_mode" : 0,
      "pad_value" : 0,
      "Ny" : 3,
      "n_parallel" : 1
    },
    {
      "bottom" : "x.85",
      "weights" : {

      },
      "mode" : 3,
      "debug_info" : "796",
      "top" : "796",
      "type" : "activation",
      "name" : "796"
    },
    {
      "bottom" : "x.85,796",
      "alpha" : 1,
      "operation" : 1,
      "weights" : {

      },
      "fused_relu" : 0,
      "debug_info" : "p_out1",
      "top" : "p_out1",
      "type" : "elementwise",
      "name" : "p_out1",
      "beta" : 0
    },
    {
      "weights" : {

      },
      "debug_info" : "input.177",
      "top" : "input.177",
      "type" : "concat",
      "name" : "input.177",
      "bottom" : "p_out1,input.155"
    },
    {
      "pad_r" : 0,
      "fused_relu" : 0,
      "fused_tanh" : 0,
      "debug_info" : "x.87",
      "pad_fill_mode" : 0,
      "pad_b" : 0,
      "pad_l" : 0,
      "top" : "x.87",
      "K" : 96,
      "blob_biases" : 337,
      "name" : "x.87",
      "has_batch_norm" : 0,
      "type" : "convolution",
      "n_groups" : 1,
      "pad_t" : 0,
      "has_biases" : 1,
      "C" : 96,
      "bottom" : "input.177",
      "weights" : {
        "W_U8" : 339,
        "per_ch_qscale" : 343,
        "per_ch_qbias" : 341
      },
      "Nx" : 1,
      "pad_mode" : 0,
      "pad_value" : 0,
      "Ny" : 1,
      "n_parallel" : 1
    },
    {
      "bottom" : "x.87",
      "weights" : {

      },
      "mode" : 3,
      "debug_info" : "817",
      "top" : "817",
      "type" : "activation",
      "name" : "817"
    },
    {
      "bottom" : "x.87,817",
      "alpha" : 1,
      "operation" : 1,
      "weights" : {

      },
      "fused_relu" : 0,
      "debug_info" : "818",
      "top" : "818",
      "type" : "elementwise",
      "name" : "818",
      "beta" : 0
    },
    {
      "begin_104" : 0,
      "begin_63" : 0,
      "begin_59" : 0,
      "begin_64" : 0,
      "begin_105" : 0,
      "begin_65" : 0,
      "begin_0" : 0,
      "begin_70" : 0,
      "begin_66" : 0,
      "begin_106" : 0,
      "begin_110" : 0,
      "begin_2" : 0,
      "begin_71" : 0,
      "begin_67" : 0,
      "begin_68" : 0,
      "begin_107" : 0,
      "begin_111" : 0,
      "begin_4" : 0,
      "begin_72" : 0,
      "begin_73" : 0,
      "begin_69" : 0,
      "begin_6" : 0,
      "begin_74" : 0,
      "begin_108" : 0,
      "type" : "split_nd",
      "begin_8" : 0,
      "begin_112" : 0,
      "begin_75" : 0,
      "begin_10" : 0,
      "begin_80" : 0,
      "begin_76" : 0,
      "begin_109" : 0,
      "begin_113" : 0,
      "begin_11" : 0,
      "nd_axis" : 1,
      "begin_81" : 0,
      "begin_77" : 0,
      "begin_114" : 0,
      "begin_12" : 0,
      "begin_78" : 0,
      "begin_82" : 0,
      "begin_13" : 0,
      "begin_83" : 0,
      "begin_79" : 0,
      "begin_115" : 0,
      "begin_14" : 0,
      "begin_84" : 0,
      "begin_15" : 0,
      "begin_85" : 0,
      "begin_116" : 0,
      "begin_120" : 0,
      "begin_20" : 0,
      "begin_86" : 0,
      "begin_16" : 0,
      "begin_90" : 0,
      "begin_21" : 0,
      "begin_91" : 0,
      "begin_87" : 0,
      "begin_17" : 0,
      "begin_117" : 0,
      "begin_121" : 0,
      "begin_18" : 0,
      "begin_92" : 0,
      "begin_88" : 0,
      "begin_22" : 0,
      "begin_23" : 0,
      "begin_89" : 0,
      "begin_19" : 0,
      "begin_93" : 0,
      "begin_118" : 0,
      "begin_122" : 0,
      "begin_24" : 0,
      "begin_94" : 0,
      "begin_25" : 0,
      "begin_95" : 0,
      "begin_119" : 0,
      "begin_123" : 0,
      "begin_30" : 0,
      "begin_26" : 0,
      "begin_96" : 0,
      "begin_124" : 0,
      "begin_31" : 0,
      "begin_97" : 0,
      "begin_27" : 0,
      "begin_28" : 0,
      "begin_98" : 0,
      "begin_32" : 0,
      "begin_125" : 0,
      "begin_33" : 0,
      "begin_29" : 0,
      "begin_99" : 0,
      "begin_1" : 0,
      "weights" : {

      },
      "begin_34" : 0,
      "bottom" : "818",
      "begin_3" : 0,
      "begin_126" : 0,
      "begin_35" : 0,
      "begin_5" : 0,
      "begin_36" : 0,
      "begin_40" : 0,
      "begin_127" : 0,
      "name" : "820",
      "begin_41" : 0,
      "begin_37" : 0,
      "begin_7" : 0,
      "begin_42" : 0,
      "begin_38" : 0,
      "begin_9" : 0,
      "begin_39" : 0,
      "begin_43" : 0,
      "begin_44" : 0,
      "begin_45" : 0,
      "begin_50" : 0,
      "begin_46" : 0,
      "begin_51" : 0,
      "begin_47" : 0,
      "begin_100" : 0,
      "begin_52" : 0,
      "debug_info" : "820",
      "begin_48" : 0,
      "top" : "820_0,820_1",
      "begin_101" : 0,
      "begin_53" : 0,
      "begin_49" : 0,
      "begin_54" : 0,
      "begin_55" : 0,
      "begin_102" : 0,
      "begin_60" : 0,
      "begin_56" : 0,
      "begin_103" : 0,
      "begin_57" : 0,
      "begin_61" : 0,
      "begin_62" : 0,
      "begin_58" : 0
    },
    {
      "pad_r" : 1,
      "fused_relu" : 0,
      "fused_tanh" : 0,
      "debug_info" : "x.89",
      "pad_fill_mode" : 0,
      "pad_b" : 1,
      "pad_l" : 1,
      "top" : "x.89",
      "K" : 48,
      "blob_biases" : 345,
      "name" : "x.89",
      "has_batch_norm" : 0,
      "type" : "convolution",
      "n_groups" : 1,
      "pad_t" : 1,
      "has_biases" : 1,
      "C" : 24,
      "bottom" : "820_1",
      "weights" : {
        "W_U8" : 347,
        "per_ch_qscale" : 351,
        "per_ch_qbias" : 349
      },
      "Nx" : 3,
      "pad_mode" : 0,
      "pad_value" : 0,
      "Ny" : 3,
      "n_parallel" : 1
    },
    {
      "bottom" : "x.89",
      "weights" : {

      },
      "mode" : 3,
      "debug_info" : "838",
      "top" : "838",
      "type" : "activation",
      "name" : "838"
    },
    {
      "bottom" : "x.89,838",
      "alpha" : 1,
      "operation" : 1,
      "weights" : {

      },
      "fused_relu" : 0,
      "debug_info" : "input.185",
      "top" : "input.185",
      "type" : "elementwise",
      "name" : "input.185",
      "beta" : 0
    },
    {
      "pad_r" : 1,
      "fused_relu" : 0,
      "fused_tanh" : 0,
      "debug_info" : "x.91",
      "pad_fill_mode" : 0,
      "pad_b" : 1,
      "pad_l" : 1,
      "top" : "x.91",
      "K" : 24,
      "blob_biases" : 353,
      "name" : "x.91",
      "has_batch_norm" : 0,
      "type" : "convolution",
      "n_groups" : 1,
      "pad_t" : 1,
      "has_biases" : 1,
      "C" : 48,
      "bottom" : "input.185",
      "weights" : {
        "W_U8" : 355,
        "per_ch_qscale" : 359,
        "per_ch_qbias" : 357
      },
      "Nx" : 3,
      "pad_mode" : 0,
      "pad_value" : 0,
      "Ny" : 3,
      "n_parallel" : 1
    },
    {
      "bottom" : "x.91",
      "weights" : {

      },
      "mode" : 3,
      "debug_info" : "853",
      "top" : "853",
      "type" : "activation",
      "name" : "853"
    },
    {
      "bottom" : "x.91,853",
      "alpha" : 1,
      "operation" : 1,
      "weights" : {

      },
      "fused_relu" : 0,
      "debug_info" : "854",
      "top" : "854",
      "type" : "elementwise",
      "name" : "854",
      "beta" : 0
    },
    {
      "weights" : {

      },
      "debug_info" : "input.189",
      "top" : "input.189",
      "type" : "concat",
      "name" : "input.189",
      "bottom" : "820_0,820_1,854"
    },
    {
      "pad_r" : 0,
      "fused_relu" : 0,
      "fused_tanh" : 0,
      "debug_info" : "x.93",
      "pad_fill_mode" : 0,
      "pad_b" : 0,
      "pad_l" : 0,
      "top" : "x.93",
      "K" : 144,
      "blob_biases" : 361,
      "name" : "x.93",
      "has_batch_norm" : 0,
      "type" : "convolution",
      "n_groups" : 1,
      "pad_t" : 0,
      "has_biases" : 1,
      "C" : 96,
      "bottom" : "input.189",
      "weights" : {
        "W_U8" : 363,
        "per_ch_qscale" : 367,
        "per_ch_qbias" : 365
      },
      "Nx" : 1,
      "pad_mode" : 0,
      "pad_value" : 0,
      "Ny" : 1,
      "n_parallel" : 1
    },
    {
      "bottom" : "x.93",
      "weights" : {

      },
      "mode" : 3,
      "debug_info" : "870",
      "top" : "870",
      "type" : "activation",
      "name" : "870"
    },
    {
      "bottom" : "x.93,870",
      "alpha" : 1,
      "operation" : 1,
      "weights" : {

      },
      "fused_relu" : 0,
      "debug_info" : "input.193",
      "top" : "input.193",
      "type" : "elementwise",
      "name" : "input.193",
      "beta" : 0
    },
    {
      "pad_r" : 1,
      "fused_relu" : 0,
      "fused_tanh" : 0,
      "debug_info" : "x.95",
      "pad_fill_mode" : 0,
      "pad_b" : 1,
      "pad_l" : 1,
      "top" : "x.95",
      "K" : 96,
      "blob_biases" : 369,
      "stride_x" : 2,
      "name" : "x.95",
      "has_batch_norm" : 0,
      "type" : "convolution",
      "n_groups" : 1,
      "pad_t" : 1,
      "stride_y" : 2,
      "has_biases" : 1,
      "C" : 96,
      "bottom" : "input.193",
      "weights" : {
        "W_U8" : 371,
        "per_ch_qscale" : 375,
        "per_ch_qbias" : 373
      },
      "Nx" : 3,
      "pad_mode" : 0,
      "pad_value" : 0,
      "Ny" : 3,
      "n_parallel" : 1
    },
    {
      "bottom" : "x.95",
      "weights" : {

      },
      "mode" : 3,
      "debug_info" : "885",
      "top" : "885",
      "type" : "activation",
      "name" : "885"
    },
    {
      "bottom" : "x.95,885",
      "alpha" : 1,
      "operation" : 1,
      "weights" : {

      },
      "fused_relu" : 0,
      "debug_info" : "p_out0",
      "top" : "p_out0",
      "type" : "elementwise",
      "name" : "p_out0",
      "beta" : 0
    },
    {
      "weights" : {

      },
      "debug_info" : "input.197",
      "top" : "input.197",
      "type" : "concat",
      "name" : "input.197",
      "bottom" : "p_out0,input.133"
    },
    {
      "pad_r" : 0,
      "fused_relu" : 0,
      "fused_tanh" : 0,
      "debug_info" : "x.97",
      "pad_fill_mode" : 0,
      "pad_b" : 0,
      "pad_l" : 0,
      "top" : "x.97",
      "K" : 192,
      "blob_biases" : 377,
      "name" : "x.97",
      "has_batch_norm" : 0,
      "type" : "convolution",
      "n_groups" : 1,
      "pad_t" : 0,
      "has_biases" : 1,
      "C" : 192,
      "bottom" : "input.197",
      "weights" : {
        "W_U8" : 379,
        "per_ch_qscale" : 383,
        "per_ch_qbias" : 381
      },
      "Nx" : 1,
      "pad_mode" : 0,
      "pad_value" : 0,
      "Ny" : 1,
      "n_parallel" : 1
    },
    {
      "bottom" : "x.97",
      "weights" : {

      },
      "mode" : 3,
      "debug_info" : "906",
      "top" : "906",
      "type" : "activation",
      "name" : "906"
    },
    {
      "bottom" : "x.97,906",
      "alpha" : 1,
      "operation" : 1,
      "weights" : {

      },
      "fused_relu" : 0,
      "debug_info" : "907",
      "top" : "907",
      "type" : "elementwise",
      "name" : "907",
      "beta" : 0
    },
    {
      "begin_104" : 0,
      "begin_63" : 0,
      "begin_59" : 0,
      "begin_64" : 0,
      "begin_105" : 0,
      "begin_65" : 0,
      "begin_0" : 0,
      "begin_70" : 0,
      "begin_66" : 0,
      "begin_106" : 0,
      "begin_110" : 0,
      "begin_2" : 0,
      "begin_71" : 0,
      "begin_67" : 0,
      "begin_68" : 0,
      "begin_107" : 0,
      "begin_111" : 0,
      "begin_4" : 0,
      "begin_72" : 0,
      "begin_73" : 0,
      "begin_69" : 0,
      "begin_6" : 0,
      "begin_74" : 0,
      "begin_108" : 0,
      "type" : "split_nd",
      "begin_8" : 0,
      "begin_112" : 0,
      "begin_75" : 0,
      "begin_10" : 0,
      "begin_80" : 0,
      "begin_76" : 0,
      "begin_109" : 0,
      "begin_113" : 0,
      "begin_11" : 0,
      "nd_axis" : 1,
      "begin_81" : 0,
      "begin_77" : 0,
      "begin_114" : 0,
      "begin_12" : 0,
      "begin_78" : 0,
      "begin_82" : 0,
      "begin_13" : 0,
      "begin_83" : 0,
      "begin_79" : 0,
      "begin_115" : 0,
      "begin_14" : 0,
      "begin_84" : 0,
      "begin_15" : 0,
      "begin_85" : 0,
      "begin_116" : 0,
      "begin_120" : 0,
      "begin_20" : 0,
      "begin_86" : 0,
      "begin_16" : 0,
      "begin_90" : 0,
      "begin_21" : 0,
      "begin_91" : 0,
      "begin_87" : 0,
      "begin_17" : 0,
      "begin_117" : 0,
      "begin_121" : 0,
      "begin_18" : 0,
      "begin_92" : 0,
      "begin_88" : 0,
      "begin_22" : 0,
      "begin_23" : 0,
      "begin_89" : 0,
      "begin_19" : 0,
      "begin_93" : 0,
      "begin_118" : 0,
      "begin_122" : 0,
      "begin_24" : 0,
      "begin_94" : 0,
      "begin_25" : 0,
      "begin_95" : 0,
      "begin_119" : 0,
      "begin_123" : 0,
      "begin_30" : 0,
      "begin_26" : 0,
      "begin_96" : 0,
      "begin_124" : 0,
      "begin_31" : 0,
      "begin_97" : 0,
      "begin_27" : 0,
      "begin_28" : 0,
      "begin_98" : 0,
      "begin_32" : 0,
      "begin_125" : 0,
      "begin_33" : 0,
      "begin_29" : 0,
      "begin_99" : 0,
      "begin_1" : 0,
      "weights" : {

      },
      "begin_34" : 0,
      "bottom" : "907",
      "begin_3" : 0,
      "begin_126" : 0,
      "begin_35" : 0,
      "begin_5" : 0,
      "begin_36" : 0,
      "begin_40" : 0,
      "begin_127" : 0,
      "name" : "909",
      "begin_41" : 0,
      "begin_37" : 0,
      "begin_7" : 0,
      "begin_42" : 0,
      "begin_38" : 0,
      "begin_9" : 0,
      "begin_39" : 0,
      "begin_43" : 0,
      "begin_44" : 0,
      "begin_45" : 0,
      "begin_50" : 0,
      "begin_46" : 0,
      "begin_51" : 0,
      "begin_47" : 0,
      "begin_100" : 0,
      "begin_52" : 0,
      "debug_info" : "909",
      "begin_48" : 0,
      "top" : "909_0,909_1",
      "begin_101" : 0,
      "begin_53" : 0,
      "begin_49" : 0,
      "begin_54" : 0,
      "begin_55" : 0,
      "begin_102" : 0,
      "begin_60" : 0,
      "begin_56" : 0,
      "begin_103" : 0,
      "begin_57" : 0,
      "begin_61" : 0,
      "begin_62" : 0,
      "begin_58" : 0
    },
    {
      "pad_r" : 1,
      "fused_relu" : 0,
      "fused_tanh" : 0,
      "debug_info" : "x.99",
      "pad_fill_mode" : 0,
      "pad_b" : 1,
      "pad_l" : 1,
      "top" : "x.99",
      "K" : 96,
      "blob_biases" : 385,
      "name" : "x.99",
      "has_batch_norm" : 0,
      "type" : "convolution",
      "n_groups" : 1,
      "pad_t" : 1,
      "has_biases" : 1,
      "C" : 48,
      "bottom" : "909_1",
      "weights" : {
        "W_U8" : 387,
        "per_ch_qscale" : 391,
        "per_ch_qbias" : 389
      },
      "Nx" : 3,
      "pad_mode" : 0,
      "pad_value" : 0,
      "Ny" : 3,
      "n_parallel" : 1
    },
    {
      "bottom" : "x.99",
      "weights" : {

      },
      "mode" : 3,
      "debug_info" : "927",
      "top" : "927",
      "type" : "activation",
      "name" : "927"
    },
    {
      "bottom" : "x.99,927",
      "alpha" : 1,
      "operation" : 1,
      "weights" : {

      },
      "fused_relu" : 0,
      "debug_info" : "input.205",
      "top" : "input.205",
      "type" : "elementwise",
      "name" : "input.205",
      "beta" : 0
    },
    {
      "pad_r" : 1,
      "fused_relu" : 0,
      "fused_tanh" : 0,
      "debug_info" : "x.101",
      "pad_fill_mode" : 0,
      "pad_b" : 1,
      "pad_l" : 1,
      "top" : "x.101",
      "K" : 48,
      "blob_biases" : 393,
      "name" : "x.101",
      "has_batch_norm" : 0,
      "type" : "convolution",
      "n_groups" : 1,
      "pad_t" : 1,
      "has_biases" : 1,
      "C" : 96,
      "bottom" : "input.205",
      "weights" : {
        "W_U8" : 395,
        "per_ch_qscale" : 399,
        "per_ch_qbias" : 397
      },
      "Nx" : 3,
      "pad_mode" : 0,
      "pad_value" : 0,
      "Ny" : 3,
      "n_parallel" : 1
    },
    {
      "bottom" : "x.101",
      "weights" : {

      },
      "mode" : 3,
      "debug_info" : "942",
      "top" : "942",
      "type" : "activation",
      "name" : "942"
    },
    {
      "bottom" : "x.101,942",
      "alpha" : 1,
      "operation" : 1,
      "weights" : {

      },
      "fused_relu" : 0,
      "debug_info" : "943",
      "top" : "943",
      "type" : "elementwise",
      "name" : "943",
      "beta" : 0
    },
    {
      "weights" : {

      },
      "debug_info" : "input.209",
      "top" : "input.209",
      "type" : "concat",
      "name" : "input.209",
      "bottom" : "909_0,909_1,943"
    },
    {
      "pad_r" : 0,
      "fused_relu" : 0,
      "fused_tanh" : 0,
      "debug_info" : "x.103",
      "pad_fill_mode" : 0,
      "pad_b" : 0,
      "pad_l" : 0,
      "top" : "x.103",
      "K" : 288,
      "blob_biases" : 401,
      "name" : "x.103",
      "has_batch_norm" : 0,
      "type" : "convolution",
      "n_groups" : 1,
      "pad_t" : 0,
      "has_biases" : 1,
      "C" : 192,
      "bottom" : "input.209",
      "weights" : {
        "W_U8" : 403,
        "per_ch_qscale" : 407,
        "per_ch_qbias" : 405
      },
      "Nx" : 1,
      "pad_mode" : 0,
      "pad_value" : 0,
      "Ny" : 1,
      "n_parallel" : 1
    },
    {
      "bottom" : "x.103",
      "weights" : {

      },
      "mode" : 3,
      "debug_info" : "959",
      "top" : "959",
      "type" : "activation",
      "name" : "959"
    },
    {
      "bottom" : "x.103,959",
      "alpha" : 1,
      "operation" : 1,
      "weights" : {

      },
      "fused_relu" : 0,
      "debug_info" : "input.237",
      "top" : "input.237",
      "type" : "elementwise",
      "name" : "input.237",
      "beta" : 0
    },
    {
      "pad_r" : 0,
      "fused_relu" : 0,
      "fused_tanh" : 0,
      "debug_info" : "x.105",
      "pad_fill_mode" : 0,
      "pad_b" : 0,
      "pad_l" : 0,
      "top" : "x.105",
      "K" : 48,
      "blob_biases" : 409,
      "name" : "x.105",
      "has_batch_norm" : 0,
      "type" : "convolution",
      "n_groups" : 1,
      "pad_t" : 0,
      "has_biases" : 1,
      "C" : 48,
      "bottom" : "input.173",
      "weights" : {
        "W_U8" : 411,
        "per_ch_qscale" : 415,
        "per_ch_qbias" : 413
      },
      "Nx" : 1,
      "pad_mode" : 0,
      "pad_value" : 0,
      "Ny" : 1,
      "n_parallel" : 1
    },
    {
      "bottom" : "x.105",
      "weights" : {

      },
      "mode" : 3,
      "debug_info" : "1029",
      "top" : "1029",
      "type" : "activation",
      "name" : "1029"
    },
    {
      "bottom" : "x.105,1029",
      "alpha" : 1,
      "operation" : 1,
      "weights" : {

      },
      "fused_relu" : 0,
      "debug_info" : "input.215",
      "top" : "input.215",
      "type" : "elementwise",
      "name" : "input.215",
      "beta" : 0
    },
    {
      "pad_r" : 1,
      "fused_relu" : 0,
      "fused_tanh" : 0,
      "debug_info" : "x.107",
      "pad_fill_mode" : 0,
      "pad_b" : 1,
      "pad_l" : 1,
      "top" : "x.107",
      "K" : 48,
      "blob_biases" : 417,
      "name" : "x.107",
      "has_batch_norm" : 0,
      "type" : "convolution",
      "n_groups" : 1,
      "pad_t" : 1,
      "has_biases" : 1,
      "C" : 48,
      "bottom" : "input.215",
      "weights" : {
        "W_U8" : 419,
        "per_ch_qscale" : 423,
        "per_ch_qbias" : 421
      },
      "Nx" : 3,
      "pad_mode" : 0,
      "pad_value" : 0,
      "Ny" : 3,
      "n_parallel" : 1
    },
    {
      "bottom" : "x.107",
      "weights" : {

      },
      "mode" : 3,
      "debug_info" : "1044",
      "top" : "1044",
      "type" : "activation",
      "name" : "1044"
    },
    {
      "bottom" : "x.107,1044",
      "alpha" : 1,
      "operation" : 1,
      "weights" : {

      },
      "fused_relu" : 0,
      "debug_info" : "input.219",
      "top" : "input.219",
      "type" : "elementwise",
      "name" : "input.219",
      "beta" : 0
    },
    {
      "pad_r" : 1,
      "fused_relu" : 0,
      "fused_tanh" : 0,
      "debug_info" : "x.109",
      "pad_fill_mode" : 0,
      "pad_b" : 1,
      "pad_l" : 1,
      "top" : "x.109",
      "K" : 48,
      "blob_biases" : 425,
      "name" : "x.109",
      "has_batch_norm" : 0,
      "type" : "convolution",
      "n_groups" : 1,
      "pad_t" : 1,
      "has_biases" : 1,
      "C" : 48,
      "bottom" : "input.219",
      "weights" : {
        "W_U8" : 427,
        "per_ch_qscale" : 431,
        "per_ch_qbias" : 429
      },
      "Nx" : 3,
      "pad_mode" : 0,
      "pad_value" : 0,
      "Ny" : 3,
      "n_parallel" : 1
    },
    {
      "bottom" : "x.109",
      "weights" : {

      },
      "mode" : 3,
      "debug_info" : "1059",
      "top" : "1059",
      "type" : "activation",
      "name" : "1059"
    },
    {
      "bottom" : "x.109,1059",
      "alpha" : 1,
      "operation" : 1,
      "weights" : {

      },
      "fused_relu" : 0,
      "debug_info" : "input.223",
      "top" : "input.223",
      "type" : "elementwise",
      "name" : "input.223",
      "beta" : 0
    },
    {
      "pad_r" : 0,
      "fused_relu" : 0,
      "fused_tanh" : 0,
      "debug_info" : "cls_output.1",
      "pad_fill_mode" : 0,
      "pad_b" : 0,
      "pad_l" : 0,
      "top" : "cls_output.1",
      "K" : 48,
      "blob_biases" : 433,
      "name" : "cls_output.1",
      "has_batch_norm" : 0,
      "type" : "convolution",
      "n_groups" : 1,
      "pad_t" : 0,
      "has_biases" : 1,
      "C" : 8,
      "bottom" : "input.223",
      "weights" : {
        "W_U8" : 435,
        "per_ch_qscale" : 439,
        "per_ch_qbias" : 437
      },
      "Nx" : 1,
      "pad_mode" : 0,
      "pad_value" : 0,
      "Ny" : 1,
      "n_parallel" : 1
    },
    {
      "pad_r" : 0,
      "fused_relu" : 0,
      "fused_tanh" : 0,
      "debug_info" : "reg_output.1",
      "pad_fill_mode" : 0,
      "pad_b" : 0,
      "pad_l" : 0,
      "top" : "reg_output.1",
      "K" : 48,
      "blob_biases" : 441,
      "name" : "reg_output.1",
      "has_batch_norm" : 0,
      "type" : "convolution",
      "n_groups" : 1,
      "pad_t" : 0,
      "has_biases" : 1,
      "C" : 4,
      "bottom" : "input.223",
      "weights" : {
        "W_U8" : 443,
        "per_ch_qscale" : 447,
        "per_ch_qbias" : 445
      },
      "Nx" : 1,
      "pad_mode" : 0,
      "pad_value" : 0,
      "Ny" : 1,
      "n_parallel" : 1
    },
    {
      "pad_r" : 0,
      "fused_relu" : 0,
      "fused_tanh" : 0,
      "debug_info" : "obj_output.1",
      "pad_fill_mode" : 0,
      "pad_b" : 0,
      "pad_l" : 0,
      "top" : "obj_output.1",
      "K" : 48,
      "blob_biases" : 449,
      "name" : "obj_output.1",
      "has_batch_norm" : 0,
      "type" : "convolution",
      "n_groups" : 1,
      "pad_t" : 0,
      "has_biases" : 1,
      "C" : 1,
      "bottom" : "input.223",
      "weights" : {
        "W_U8" : 451,
        "per_ch_qscale" : 455,
        "per_ch_qbias" : 453
      },
      "Nx" : 1,
      "pad_mode" : 0,
      "pad_value" : 0,
      "Ny" : 1,
      "n_parallel" : 1
    },
    {
      "pad_r" : 0,
      "fused_relu" : 0,
      "fused_tanh" : 0,
      "debug_info" : "angle_output.1",
      "pad_fill_mode" : 0,
      "pad_b" : 0,
      "pad_l" : 0,
      "top" : "angle_output.1",
      "K" : 48,
      "blob_biases" : 457,
      "name" : "angle_output.1",
      "has_batch_norm" : 0,
      "type" : "convolution",
      "n_groups" : 1,
      "pad_t" : 0,
      "has_biases" : 1,
      "C" : 1,
      "bottom" : "input.223",
      "weights" : {
        "W_U8" : 459,
        "per_ch_qscale" : 463,
        "per_ch_qbias" : 461
      },
      "Nx" : 1,
      "pad_mode" : 0,
      "pad_value" : 0,
      "Ny" : 1,
      "n_parallel" : 1
    },
    {
      "bottom" : "obj_output.1",
      "weights" : {

      },
      "mode" : 3,
      "debug_info" : "1089",
      "top" : "1089",
      "type" : "activation",
      "name" : "1089"
    },
    {
      "bottom" : "cls_output.1",
      "weights" : {

      },
      "mode" : 3,
      "debug_info" : "1090",
      "top" : "1090",
      "type" : "activation",
      "name" : "1090"
    },
    {
      "weights" : {

      },
      "debug_info" : "x.123",
      "top" : "x.123",
      "type" : "concat",
      "name" : "x.123",
      "bottom" : "reg_output.1,angle_output.1,1089,1090"
    },
    {
      "pad_r" : 0,
      "fused_relu" : 0,
      "fused_tanh" : 0,
      "debug_info" : "x.111",
      "pad_fill_mode" : 0,
      "pad_b" : 0,
      "pad_l" : 0,
      "top" : "x.111",
      "K" : 96,
      "blob_biases" : 465,
      "name" : "x.111",
      "has_batch_norm" : 0,
      "type" : "convolution",
      "n_groups" : 1,
      "pad_t" : 0,
      "has_biases" : 1,
      "C" : 48,
      "bottom" : "input.193",
      "weights" : {
        "W_U8" : 467,
        "per_ch_qscale" : 471,
        "per_ch_qbias" : 469
      },
      "Nx" : 1,
      "pad_mode" : 0,
      "pad_value" : 0,
      "Ny" : 1,
      "n_parallel" : 1
    },
    {
      "bottom" : "x.111",
      "weights" : {

      },
      "mode" : 3,
      "debug_info" : "1106",
      "top" : "1106",
      "type" : "activation",
      "name" : "1106"
    },
    {
      "bottom" : "x.111,1106",
      "alpha" : 1,
      "operation" : 1,
      "weights" : {

      },
      "fused_relu" : 0,
      "debug_info" : "input.227",
      "top" : "input.227",
      "type" : "elementwise",
      "name" : "input.227",
      "beta" : 0
    },
    {
      "pad_r" : 1,
      "fused_relu" : 0,
      "fused_tanh" : 0,
      "debug_info" : "x.113",
      "pad_fill_mode" : 0,
      "pad_b" : 1,
      "pad_l" : 1,
      "top" : "x.113",
      "K" : 48,
      "blob_biases" : 473,
      "name" : "x.113",
      "has_batch_norm" : 0,
      "type" : "convolution",
      "n_groups" : 1,
      "pad_t" : 1,
      "has_biases" : 1,
      "C" : 48,
      "bottom" : "input.227",
      "weights" : {
        "W_U8" : 475,
        "per_ch_qscale" : 479,
        "per_ch_qbias" : 477
      },
      "Nx" : 3,
      "pad_mode" : 0,
      "pad_value" : 0,
      "Ny" : 3,
      "n_parallel" : 1
    },
    {
      "bottom" : "x.113",
      "weights" : {

      },
      "mode" : 3,
      "debug_info" : "1121",
      "top" : "1121",
      "type" : "activation",
      "name" : "1121"
    },
    {
      "bottom" : "x.113,1121",
      "alpha" : 1,
      "operation" : 1,
      "weights" : {

      },
      "fused_relu" : 0,
      "debug_info" : "input.231",
      "top" : "input.231",
      "type" : "elementwise",
      "name" : "input.231",
      "beta" : 0
    },
    {
      "pad_r" : 1,
      "fused_relu" : 0,
      "fused_tanh" : 0,
      "debug_info" : "x.115",
      "pad_fill_mode" : 0,
      "pad_b" : 1,
      "pad_l" : 1,
      "top" : "x.115",
      "K" : 48,
      "blob_biases" : 481,
      "name" : "x.115",
      "has_batch_norm" : 0,
      "type" : "convolution",
      "n_groups" : 1,
      "pad_t" : 1,
      "has_biases" : 1,
      "C" : 48,
      "bottom" : "input.231",
      "weights" : {
        "W_U8" : 483,
        "per_ch_qscale" : 487,
        "per_ch_qbias" : 485
      },
      "Nx" : 3,
      "pad_mode" : 0,
      "pad_value" : 0,
      "Ny" : 3,
      "n_parallel" : 1
    },
    {
      "bottom" : "x.115",
      "weights" : {

      },
      "mode" : 3,
      "debug_info" : "1136",
      "top" : "1136",
      "type" : "activation",
      "name" : "1136"
    },
    {
      "bottom" : "x.115,1136",
      "alpha" : 1,
      "operation" : 1,
      "weights" : {

      },
      "fused_relu" : 0,
      "debug_info" : "input.235",
      "top" : "input.235",
      "type" : "elementwise",
      "name" : "input.235",
      "beta" : 0
    },
    {
      "pad_r" : 0,
      "fused_relu" : 0,
      "fused_tanh" : 0,
      "debug_info" : "cls_output.3",
      "pad_fill_mode" : 0,
      "pad_b" : 0,
      "pad_l" : 0,
      "top" : "cls_output.3",
      "K" : 48,
      "blob_biases" : 489,
      "name" : "cls_output.3",
      "has_batch_norm" : 0,
      "type" : "convolution",
      "n_groups" : 1,
      "pad_t" : 0,
      "has_biases" : 1,
      "C" : 8,
      "bottom" : "input.235",
      "weights" : {
        "W_U8" : 491,
        "per_ch_qscale" : 495,
        "per_ch_qbias" : 493
      },
      "Nx" : 1,
      "pad_mode" : 0,
      "pad_value" : 0,
      "Ny" : 1,
      "n_parallel" : 1
    },
    {
      "pad_r" : 0,
      "fused_relu" : 0,
      "fused_tanh" : 0,
      "debug_info" : "reg_output.3",
      "pad_fill_mode" : 0,
      "pad_b" : 0,
      "pad_l" : 0,
      "top" : "reg_output.3",
      "K" : 48,
      "blob_biases" : 497,
      "name" : "reg_output.3",
      "has_batch_norm" : 0,
      "type" : "convolution",
      "n_groups" : 1,
      "pad_t" : 0,
      "has_biases" : 1,
      "C" : 4,
      "bottom" : "input.235",
      "weights" : {
        "W_U8" : 499,
        "per_ch_qscale" : 503,
        "per_ch_qbias" : 501
      },
      "Nx" : 1,
      "pad_mode" : 0,
      "pad_value" : 0,
      "Ny" : 1,
      "n_parallel" : 1
    },
    {
      "pad_r" : 0,
      "fused_relu" : 0,
      "fused_tanh" : 0,
      "debug_info" : "obj_output.3",
      "pad_fill_mode" : 0,
      "pad_b" : 0,
      "pad_l" : 0,
      "top" : "obj_output.3",
      "K" : 48,
      "blob_biases" : 505,
      "name" : "obj_output.3",
      "has_batch_norm" : 0,
      "type" : "convolution",
      "n_groups" : 1,
      "pad_t" : 0,
      "has_biases" : 1,
      "C" : 1,
      "bottom" : "input.235",
      "weights" : {
        "W_U8" : 507,
        "per_ch_qscale" : 511,
        "per_ch_qbias" : 509
      },
      "Nx" : 1,
      "pad_mode" : 0,
      "pad_value" : 0,
      "Ny" : 1,
      "n_parallel" : 1
    },
    {
      "pad_r" : 0,
      "fused_relu" : 0,
      "fused_tanh" : 0,
      "debug_info" : "angle_output.3",
      "pad_fill_mode" : 0,
      "pad_b" : 0,
      "pad_l" : 0,
      "top" : "angle_output.3",
      "K" : 48,
      "blob_biases" : 513,
      "name" : "angle_output.3",
      "has_batch_norm" : 0,
      "type" : "convolution",
      "n_groups" : 1,
      "pad_t" : 0,
      "has_biases" : 1,
      "C" : 1,
      "bottom" : "input.235",
      "weights" : {
        "W_U8" : 515,
        "per_ch_qscale" : 519,
        "per_ch_qbias" : 517
      },
      "Nx" : 1,
      "pad_mode" : 0,
      "pad_value" : 0,
      "Ny" : 1,
      "n_parallel" : 1
    },
    {
      "bottom" : "obj_output.3",
      "weights" : {

      },
      "mode" : 3,
      "debug_info" : "1166",
      "top" : "1166",
      "type" : "activation",
      "name" : "1166"
    },
    {
      "bottom" : "cls_output.3",
      "weights" : {

      },
      "mode" : 3,
      "debug_info" : "1167",
      "top" : "1167",
      "type" : "activation",
      "name" : "1167"
    },
    {
      "weights" : {

      },
      "debug_info" : "x.125",
      "top" : "x.125",
      "type" : "concat",
      "name" : "x.125",
      "bottom" : "reg_output.3,angle_output.3,1166,1167"
    },
    {
      "pad_r" : 0,
      "fused_relu" : 0,
      "fused_tanh" : 0,
      "debug_info" : "x.117",
      "pad_fill_mode" : 0,
      "pad_b" : 0,
      "pad_l" : 0,
      "top" : "x.117",
      "K" : 192,
      "blob_biases" : 521,
      "name" : "x.117",
      "has_batch_norm" : 0,
      "type" : "convolution",
      "n_groups" : 1,
      "pad_t" : 0,
      "has_biases" : 1,
      "C" : 48,
      "bottom" : "input.237",
      "weights" : {
        "W_U8" : 523,
        "per_ch_qscale" : 527,
        "per_ch_qbias" : 525
      },
      "Nx" : 1,
      "pad_mode" : 0,
      "pad_value" : 0,
      "Ny" : 1,
      "n_parallel" : 1
    },
    {
      "bottom" : "x.117",
      "weights" : {

      },
      "mode" : 3,
      "debug_info" : "1183",
      "top" : "1183",
      "type" : "activation",
      "name" : "1183"
    },
    {
      "bottom" : "x.117,1183",
      "alpha" : 1,
      "operation" : 1,
      "weights" : {

      },
      "fused_relu" : 0,
      "debug_info" : "input.241",
      "top" : "input.241",
      "type" : "elementwise",
      "name" : "input.241",
      "beta" : 0
    },
    {
      "pad_r" : 1,
      "fused_relu" : 0,
      "fused_tanh" : 0,
      "debug_info" : "x.119",
      "pad_fill_mode" : 0,
      "pad_b" : 1,
      "pad_l" : 1,
      "top" : "x.119",
      "K" : 48,
      "blob_biases" : 529,
      "name" : "x.119",
      "has_batch_norm" : 0,
      "type" : "convolution",
      "n_groups" : 1,
      "pad_t" : 1,
      "has_biases" : 1,
      "C" : 48,
      "bottom" : "input.241",
      "weights" : {
        "W_U8" : 531,
        "per_ch_qscale" : 535,
        "per_ch_qbias" : 533
      },
      "Nx" : 3,
      "pad_mode" : 0,
      "pad_value" : 0,
      "Ny" : 3,
      "n_parallel" : 1
    },
    {
      "bottom" : "x.119",
      "weights" : {

      },
      "mode" : 3,
      "debug_info" : "1198",
      "top" : "1198",
      "type" : "activation",
      "name" : "1198"
    },
    {
      "bottom" : "x.119,1198",
      "alpha" : 1,
      "operation" : 1,
      "weights" : {

      },
      "fused_relu" : 0,
      "debug_info" : "input.245",
      "top" : "input.245",
      "type" : "elementwise",
      "name" : "input.245",
      "beta" : 0
    },
    {
      "pad_r" : 1,
      "fused_relu" : 0,
      "fused_tanh" : 0,
      "debug_info" : "x.121",
      "pad_fill_mode" : 0,
      "pad_b" : 1,
      "pad_l" : 1,
      "top" : "x.121",
      "K" : 48,
      "blob_biases" : 537,
      "name" : "x.121",
      "has_batch_norm" : 0,
      "type" : "convolution",
      "n_groups" : 1,
      "pad_t" : 1,
      "has_biases" : 1,
      "C" : 48,
      "bottom" : "input.245",
      "weights" : {
        "W_U8" : 539,
        "per_ch_qscale" : 543,
        "per_ch_qbias" : 541
      },
      "Nx" : 3,
      "pad_mode" : 0,
      "pad_value" : 0,
      "Ny" : 3,
      "n_parallel" : 1
    },
    {
      "bottom" : "x.121",
      "weights" : {

      },
      "mode" : 3,
      "debug_info" : "1213",
      "top" : "1213",
      "type" : "activation",
      "name" : "1213"
    },
    {
      "bottom" : "x.121,1213",
      "alpha" : 1,
      "operation" : 1,
      "weights" : {

      },
      "fused_relu" : 0,
      "debug_info" : "input",
      "top" : "input",
      "type" : "elementwise",
      "name" : "input",
      "beta" : 0
    },
    {
      "pad_r" : 0,
      "fused_relu" : 0,
      "fused_tanh" : 0,
      "debug_info" : "cls_output",
      "pad_fill_mode" : 0,
      "pad_b" : 0,
      "pad_l" : 0,
      "top" : "cls_output",
      "K" : 48,
      "blob_biases" : 545,
      "name" : "cls_output",
      "has_batch_norm" : 0,
      "type" : "convolution",
      "n_groups" : 1,
      "pad_t" : 0,
      "has_biases" : 1,
      "C" : 8,
      "bottom" : "input",
      "weights" : {
        "W_U8" : 547,
        "per_ch_qscale" : 551,
        "per_ch_qbias" : 549
      },
      "Nx" : 1,
      "pad_mode" : 0,
      "pad_value" : 0,
      "Ny" : 1,
      "n_parallel" : 1
    },
    {
      "pad_r" : 0,
      "fused_relu" : 0,
      "fused_tanh" : 0,
      "debug_info" : "reg_output",
      "pad_fill_mode" : 0,
      "pad_b" : 0,
      "pad_l" : 0,
      "top" : "reg_output",
      "K" : 48,
      "blob_biases" : 553,
      "name" : "reg_output",
      "has_batch_norm" : 0,
      "type" : "convolution",
      "n_groups" : 1,
      "pad_t" : 0,
      "has_biases" : 1,
      "C" : 4,
      "bottom" : "input",
      "weights" : {
        "W_U8" : 555,
        "per_ch_qscale" : 559,
        "per_ch_qbias" : 557
      },
      "Nx" : 1,
      "pad_mode" : 0,
      "pad_value" : 0,
      "Ny" : 1,
      "n_parallel" : 1
    },
    {
      "pad_r" : 0,
      "fused_relu" : 0,
      "fused_tanh" : 0,
      "debug_info" : "obj_output",
      "pad_fill_mode" : 0,
      "pad_b" : 0,
      "pad_l" : 0,
      "top" : "obj_output",
      "K" : 48,
      "blob_biases" : 561,
      "name" : "obj_output",
      "has_batch_norm" : 0,
      "type" : "convolution",
      "n_groups" : 1,
      "pad_t" : 0,
      "has_biases" : 1,
      "C" : 1,
      "bottom" : "input",
      "weights" : {
        "W_U8" : 563,
        "per_ch_qscale" : 567,
        "per_ch_qbias" : 565
      },
      "Nx" : 1,
      "pad_mode" : 0,
      "pad_value" : 0,
      "Ny" : 1,
      "n_parallel" : 1
    },
    {
      "pad_r" : 0,
      "fused_relu" : 0,
      "fused_tanh" : 0,
      "debug_info" : "angle_output",
      "pad_fill_mode" : 0,
      "pad_b" : 0,
      "pad_l" : 0,
      "top" : "angle_output",
      "K" : 48,
      "blob_biases" : 569,
      "name" : "angle_output",
      "has_batch_norm" : 0,
      "type" : "convolution",
      "n_groups" : 1,
      "pad_t" : 0,
      "has_biases" : 1,
      "C" : 1,
      "bottom" : "input",
      "weights" : {
        "W_U8" : 571,
        "per_ch_qscale" : 575,
        "per_ch_qbias" : 573
      },
      "Nx" : 1,
      "pad_mode" : 0,
      "pad_value" : 0,
      "Ny" : 1,
      "n_parallel" : 1
    },
    {
      "bottom" : "obj_output",
      "weights" : {

      },
      "mode" : 3,
      "debug_info" : "1243",
      "top" : "1243",
      "type" : "activation",
      "name" : "1243"
    },
    {
      "bottom" : "cls_output",
      "weights" : {

      },
      "mode" : 3,
      "debug_info" : "1244",
      "top" : "1244",
      "type" : "activation",
      "name" : "1244"
    },
    {
      "weights" : {

      },
      "debug_info" : "x",
      "top" : "x",
      "type" : "concat",
      "name" : "x",
      "bottom" : "reg_output,angle_output,1243,1244"
    },
    {
      "name" : "1247",
      "weights" : {

      },
      "dst_w" : 3072,
      "version" : 1,
      "dst_n" : 1,
      "dst_nd_rank" : 3,
      "type" : "reshape",
      "dst_h" : 14,
      "mode" : 0,
      "dynamic_shape" : false,
      "bottom" : "x.123",
      "debug_info" : "1247",
      "dst_seq" : 1,
      "dst_k" : 1,
      "top" : "1247"
    },
    {
      "name" : "1248",
      "weights" : {

      },
      "dst_w" : 768,
      "version" : 1,
      "dst_n" : 1,
      "dst_nd_rank" : 3,
      "type" : "reshape",
      "dst_h" : 14,
      "mode" : 0,
      "dynamic_shape" : false,
      "bottom" : "x.125",
      "debug_info" : "1248",
      "dst_seq" : 1,
      "dst_k" : 1,
      "top" : "1248"
    },
    {
      "name" : "1249",
      "weights" : {

      },
      "dst_w" : 192,
      "version" : 1,
      "dst_n" : 1,
      "dst_nd_rank" : 3,
      "type" : "reshape",
      "dst_h" : 14,
      "mode" : 0,
      "dynamic_shape" : false,
      "bottom" : "x",
      "debug_info" : "1249",
      "dst_seq" : 1,
      "dst_k" : 1,
      "top" : "1249"
    },
    {
      "bottom" : "1247,1248,1249",
      "weights" : {

      },
      "nd_mode" : true,
      "axis" : 2,
      "debug_info" : "1251",
      "top" : "1251",
      "type" : "general_concat",
      "name" : "1251"
    },
    {
      "axis_seq" : 4,
      "name" : "transpose_0",
      "axis_n" : 3,
      "axis_h" : 0,
      "type" : "transpose",
      "attributes" : {
        "is_output" : 1
      },
      "bottom" : "1251",
      "axis_w" : 1,
      "axis_k" : 2,
      "debug_info" : "transpose_0",
      "weights" : {

      },
      "top" : "var_1253"
    }
  ],
  "transform_params" : {
    "image" : {
      "bias_a" : 0,
      "bias_g" : 0,
      "bias_r" : 0,
      "bias_b" : 0,
      "center_mean" : 0,
      "is_network_bgr" : 0,
      "scale" : 0.0039215688593685627
    }
  },
  "storage" : "model.espresso.weights",
  "metadata_in_weights" : [

  ],
  "properties" : {

  },
  "analyses" : {

  },
  "format_version" : 200
}